5_train_and_test_model/4_2_Ablation Analysis/CNN-3D/model_3D/sb1/fold1.ckpt (torch, 31751 bytes, 6 tensors)

conv1.weight f4 [20, 1, 1, 3, 3]
000000 86 9a 0b 3f 5d 50 d5 3e e3 a5 12 3f 95 12 fe 3e
       0.5453266 0.41662875 0.57284373 0.49623552
000010 17 0f 15 3f 82 c7 7c bd f7 45 d7 be c5 94 d8 be
       0.5822615 -0.061713703 -0.42045566 -0.42301002
000020 f8 7a 04 bf ad 84 cc 3e fb 23 0e bf c7 63 98 be
       -0.51750135 0.39944974 -0.5552365 -0.29763624
000030 f5 cb e8 be db 86 f1 3e 9b d4 f1 be a0 1d 8b 3e
       -0.45468107 0.471732 -0.47232518 0.2717104
000040 1e a6 4a 3e b7 6f 93 3e 97 47 08 bf 63 ea ed 3e
       0.19789931 0.2879617 -0.5323424 0.46467885
000050 6f f6 f1 3e 00 90 c0 bd 82 d4 d4 be 0a 2f 89 be
       0.47258326 -0.09402466 -0.4156838 -0.267937
000060 bc 06 dc 3d eb 29 78 3e a0 d9 7c 3e a6 9a 05 bf
       0.10743472 0.2423474 0.24692392 -0.521891
000070 fe 85 cc 3e f1 35 ac 3e 48 07 12 bf 11 bd 27 bf
       0.39945978 0.33634904 -0.5704236 -0.6552287
000080 c9 23 20 bf d8 61 db 3e f8 f9 ee 3e 95 14 9a 3e
       -0.62554604 0.42848086 0.46675086 0.30093828
000090 11 b7 93 3e 23 85 0f bf 5c 85 12 bf 5a 54 0b 3f
       0.28850606 -0.56062526 -0.5723474 0.54425585
0000a0 cd 08 83 3e f5 5a 9d 3e da ae 6b be 2c 03 06 be
       0.25592652 0.30733457 -0.2301592 -0.13087147
0000b0 5a 5e b4 3d c3 68 05 bf 71 36 15 bf 1f d1 c6 be
       0.08807059 -0.5211298 -0.58286196 -0.38831422
0000c0 9d 15 24 3e 65 9d 14 3f 2f f0 ad 3e 4e 40 aa 3d
       0.1602387 0.58052665 0.33972308 0.083130464
0000d0 38 3d 14 be bb 2c 50 bd 1b 5c bc be 52 1f 06 3f
       -0.14476478 -0.05082391 -0.3678902 0.5239154
0000e0 4e 03 f8 be 4c 41 d6 3e b4 4f f0 3e 88 a0 0a 3f
       -0.4844002 0.41846693 0.4693581 0.541512
0000f0 b8 f4 30 be 24 42 59 be 12 e8 9a be 5d 43 0c 3f
       -0.17280853 -0.21216637 -0.3025518 0.5479029
000100 f2 48 fb 3e d5 0b 02 3f 57 19 cb be 33 62 b9 be
       0.4907909 0.50799304 -0.3966777 -0.36207733
000110 76 e2 a4 be d3 3e 05 3e 9e f0 4a 3e bc b4 34 be
       -0.32204026 0.13012247 0.1981835 -0.1764707
000120 9a 6e 0c 3f 60 a5 f5 3e 87 4d a7 3e a9 43 8a bd
       0.54856265 0.47977734 0.32676336 -0.067511864
000130 af 17 d5 3e de be fb 3e 4f 9f 52 be 9e 48 bc be
       0.41619632 0.49169058 -0.20568584 -0.36774153
000140 d3 15 b3 be f7 bc 0d 3f 56 ba 09 bf 2f eb 0f bf
       -0.34977588 0.5536646 -0.5379995 -0.56218237
000150 c6 21 9c 3e c2 0f d0 3e 50 80 39 be 0b fb 2d be
       0.30494517 0.40637022 -0.18115354 -0.16990297
000160 64 32 05 be b2 ea 39 3e b7 cd fb be e8 5d 86 be
       -0.13007504 0.18155935 -0.49180385 -0.2624352
000170 17 83 fa be fc 12 ed 3e d8 26 cf 3e 8a 23 b8 3d
       -0.4892814 0.46303546 0.40459323 0.089911535
000180 5f 7b 14 be c5 8a ca 3d 12 35 87 3e ea 56 a6 3e
       -0.14500187 0.098897494 0.26407677 0.32488185
000190 91 29 21 bf 80 b6 1c bf 79 d9 af 3e d1 6d 15 3f
       -0.6295405 -0.6121597 0.34345606 0.5837069
0001a0 9d 1a 3a 3e 51 f7 37 be 09 c1 56 be 41 e7 8a 3d
       0.18174215 -0.17965437 -0.20972075 0.067823894
0001b0 36 46 10 bf a1 fd ef 3e 21 b5 f3 3e d4 5a 5a 3e
       -0.56357133 0.4687319 0.47599128 0.2132371
0001c0 1c 6a dd be d3 da 08 bf 22 fa 5f 3d c2 71 87 3e
       -0.43245018 -0.534589 0.054681905 0.26453978
0001d0 e9 0d 52 3e b1 0d 89 bd 9d 20 ee 3e e7 e2 03 3f
       0.20513119 -0.066920646 0.46509257 0.515181
0001e0 5c a2 29 3e f9 66 d7 be f3 70 9f bc f5 59 34 3e
       0.16565841 -0.4207075 -0.019463038 0.17612441
0001f0 a2 6c 4e 3e 5d 8a 17 be 46 be e6 be 6d f2 de 3e
       0.20158628 -0.14798875 -0.45067042 0.4354433
000200 cf 5b 2b 3e 8a 3c 07 3e 79 58 05 3f 77 ed 9e 3e
       0.16734241 0.13206688 0.52088124 0.31040546
000210 8f 4f b1 be 4f be cc 3d b6 15 d1 3c 59 aa 18 3d
       -0.3463101 0.09997236 0.025523048 0.03727183
000220 ca 5f 0b 3f c0 7d 07 bf 6f 67 0b bf 2a ea c6 be
       0.5444304 -0.52926254 -0.544547 -0.38850528
000230 39 ae 01 bf 1e b6 bc 3e bb 84 95 3e 84 d9 c6 3e
       -0.5065647 0.36857694 0.29202828 0.38837826
000240 6b 22 03 bf 54 af 20 bf af a1 21 3f f8 43 83 3e
       -0.5122439 -0.6276753 0.63137335 0.25637794
000250 05 f5 e3 3e b9 3b fe be e8 dd 40 bd 24 57 3b bd
       0.44522873 -0.4965494 -0.047086626 -0.0457374
000260 c5 d0 1f 3e e2 09 1b bf d8 f1 d2 be 47 e8 01 bf
       0.15606983 -0.60561955 -0.41200137 -0.5074505
000270 9f fe f6 3e 7e ef 17 3e b1 89 ee 3e e2 8c bb 3d
       0.48241135 0.14837453 0.46589425 0.09157731
000280 14 61 1f 3e 29 93 ed bd 7b 37 f8 3e 46 69 19 bf
       0.15564376 -0.11600334 0.48479828 -0.5992626
000290 54 07 10 bf ac 6d 9a 3e da e9 47 3e 08 11 8a be
       -0.5626118 0.30161798 0.19522801 -0.2696612
0002a0 c1 94 a2 bd 47 40 1d 3e 6b 2b 91 3e af 2e 1a bf
       -0.07938529 0.15356551 0.28353438 -0.60227484
0002b0 5d 3f cc be f4 7a 93 be ca 64 db 3e 3d 5d e4 be
       -0.39892092 -0.28804743 0.42850333 -0.44602385
0002c0 71 a0 ca be 27 aa ec 3b 24 e8 d7 3e f7 67 ae 3e
       -0.39575532 0.007222432 0.42169297 0.34063694

conv1.bias f4 [20]
000000 66 94 69 3d c6 26 21 3e 71 df c2 bc 54 2d 96 bd
       0.05702629 0.15737447 -0.023788186 -0.073328644
000010 75 b2 0f 3c 16 aa f0 bb b9 fd 72 bc f3 d3 6c 3b
       0.008770575 -0.0073444946 -0.014831 0.0036137074
000020 02 b6 45 bd 2c e2 51 bd cf 4e 86 bd 9c fe f3 bc
       -0.04826928 -0.051241085 -0.06558 -0.029784493
000030 5e 84 79 3c 6f e8 18 3e b7 7b 81 3d f4 ce a1 bc
       0.015229313 0.14932416 0.06322425 -0.019752003
000040 ac 8e d3 39 1c 27 d5 bd 80 a7 de bd 0f 90 08 bd
       0.00040351355 -0.1040785 -0.10871792 -0.03334051

fc1.weight f4 [5, 1440]
000000 88 6b 37 be fd 79 33 be 97 64 39 be df fd 29 be
       -0.17912114 -0.17527004 -0.18104778 -0.1660075
000010 2b df af bc 2b 1f f6 3d 80 4b 38 3e bd d0 44 3e
       -0.02146872 0.120176636 0.17997551 0.19220252
000020 a5 fd 81 3e 6a 8c 1b 3c 94 98 da bd ac 30 fd bd
       0.25388828 0.009493927 -0.10673633 -0.12362799
000030 1e ed a8 bc a7 a6 df bc 71 a6 8a 3c d8 fb 9f 3d
       -0.020620879 -0.027301146 0.016925069 0.07811707
000040 4a ec f3 3d 07 24 21 3e 76 af a5 bd ac f9 6b 3d
       0.11910303 0.157364 -0.08090107 0.057611153
000050 62 30 a8 bc 58 bf 90 3c bb b0 8d bb 04 ef 6f 3b
       -0.020530883 0.017669365 -0.0043240464 0.003661097
000060 f3 bf ba 3c dc 3b 53 3d 17 7e 90 3d 43 70 b1 3d
       0.022796607 0.05157076 0.070553 0.0866399
000070 52 b7 d8 3b 0d da 6d bc f1 23 2d 3b 40 65 f6 3c
       0.0066136504 -0.014517319 0.0026419128 0.030077577
000080 3e f0 dc bc 7b aa 31 3d 34 fc 15 3d 37 53 c5 3c
       -0.026970025 0.043375473 0.036617473 0.024087531
000090 2b 07 c4 bb cf 8b 80 bc 80 82 25 bc 0e 25 56 3c
       -0.0059823 -0.015691666 -0.010101914 0.013070358
0000a0 d6 a2 1f 3d a4 d1 32 bb 24 c3 16 bd 03 57 9c bc
       0.03897365 -0.00272856 -0.036807194 -0.01908446
0000b0 63 5b 14 bd f1 ae af bd 44 f0 21 bd 42 b3 68 3b
       -0.036219966 -0.08578289 -0.039535776 0.0035507237
0000c0 3d 93 a3 3c ba 9a 82 bc a5 10 26 bc 1e cc e7 bb
       0.01996767 -0.01594292 -0.010135804 -0.007073893
0000d0 8e a3 83 3c ae 17 36 3a 94 28 95 bd e7 b0 cf bb
       0.0160692 0.00069462776 -0.0728313 -0.006338227
0000e0 04 ce ac ba 65 a4 64 3c f9 a7 61 bc f5 b9 81 bc
       -0.0013183956 0.01395521 -0.013772958 -0.015835742
0000f0 79 c1 16 3d de a0 89 3c f3 77 58 3d 71 57 f6 bc
       0.036805604 0.01680034 0.052848767 -0.030070992
000100 ec 96 b6 39 6e e1 bb 3c f6 1d 2c 3c 9c 73 40 3c
       0.0003482619 0.022934642 0.01050519 0.011746313
000110 c1 85 83 3b d4 99 a0 3a 5d 0a fb 3c 9b e7 aa 3c
       0.0040137474 0.0012252876 0.03064459 0.020862391
000120 7a 42 9d 3c c2 00 27 be 9a 0b 10 be 37 2a 24 be
       0.019196738 -0.16308883 -0.14066926 -0.16031729
000130 c3 f4 ca bd a3 2c 5a 3c 36 ed 16 3e be cf 5c 3e
       -0.09909966 0.013316306 0.14738926 0.21563622
000140 3d 26 c3 3d d1 ba 29 bd 3b 4e 1f bd 02 ec b1 bd
       0.09528778 -0.041437928 -0.038892966 -0.08687593
000150 b1 77 ff bc 2a 71 51 bc ac 5f 56 bb ef b1 e5 3d
       -0.031185003 -0.012783328 -0.0032710833 0.11215579
000160 d4 50 eb 3d 34 43 ff 3d 93 a1 27 bd 24 8d 51 bd
       0.11490026 0.1246399 -0.040925574 -0.051159993
000170 9a 81 4a 3d 28 2d 18 bd 6e ca 72 3c fd 5f 8a bc
       0.049440004 -0.03715244 0.014818771 -0.016891474
000180 30 68 c7 bc 15 e8 bd 3d 5e f2 3f 3d 97 ab cd bb
       -0.024341673 0.09272782 0.046862 -0.0062765586
000190 e3 54 cf bc 4b a6 a0 bc 7c 01 00 bd d3 35 7a 3a
       -0.025309032 -0.019610545 -0.031251416 0.00095447636
0001a0 c3 54 42 bb fc f0 a0 bb 15 86 91 bc d8 56 8b bc
       -0.0029652573 -0.00491154 -0.01776413 -0.017009184
0001b0 d3 9a 67 bd 2e c9 88 bb e4 78 92 ba 0b 32 bc bc
       -0.056544136 -0.004174373 -0.0011174944 -0.022973081
0001c0 13 6f 02 3c b8 09 af bc 76 49 09 bd 46 f2 f5 bc
       0.0079610525 -0.021366939 -0.033517323 -0.030022752
0001d0 41 b9 bd 3c 85 0e 4e bd bc 25 c2 bb dd 10 e8 3b
       0.023159625 -0.050306816 -0.0059249084 0.0070820884
0001e0 56 1b 87 3c 92 7b 69 3b 4a 30 17 3c 7f ed 77 3c
       0.016492527 0.0035626632 0.009227822 0.015132307
0001f0 cf c0 f8 3c b1 8a 0b bc df 86 c9 bc 23 39 e2 bc
       0.030365376 -0.008516953 -0.024600444 -0.027615136
000200 bd e7 8d bc c7 87 dd bc 5d 48 e1 3c f6 3a 82 bc
       -0.017322415 -0.027042283 0.027500326 -0.015897255
000210 3d c4 4b bc 66 fa fc 3c f4 a9 70 bc 67 16 fd 3b
       -0.012436924 0.030881118 -0.0146889575 0.007723618
000220 7c fb 85 bc da b0 43 bc b1 03 ce 3c a6 86 dd 3b
       -0.016355269 -0.01194402 0.025148245 0.006760436
000230 fc c3 f9 3b 39 33 b3 3c cd 51 c2 3c 2b 0d 69 bb
       0.00762224 0.02187501 0.023720646 -0.0035560827
000240 a8 77 1f be 5d 5d 1c be b4 5f 3a be 3a ad 57 be
       -0.15572989 -0.1526999 -0.1820057 -0.21062174
000250 3a 2d b5 bd a1 7a 73 bd b0 d2 37 3e 15 c8 7e 3e
       -0.08846517 -0.05944312 0.17951465 0.24881013
000260 12 bb 84 3e 68 79 38 3d 9c a1 f0 bd 92 8f 85 bd
       0.25923973 0.045037657 -0.117495745 -0.065215245
000270 33 3e f7 bd bb 4f a4 bc 2d 4c d2 3c 29 6c 0f 3e
       -0.120724104 -0.02005755 0.025671089 0.14006104
000280 cd ec 67 3e 13 06 7b 3e 14 97 47 3c 1b 89 7a bd
       0.22648926 0.24514036 0.012182016 -0.06116591
000290 ca fd 06 bd 2b 6b ac bc 9d 04 b2 3c 98 2b 43 3d
       -0.032956876 -0.021047195 0.021730715 0.047648996
0002a0 39 bc c0 3d 48 65 1e 3e 23 39 30 3e ab 6d bf 3c
       0.094109006 0.15468323 0.17209296 0.023367723
0002b0 07 f0 d5 bd 1e c0 e9 3d 89 e7 0f bc d0 96 c7 3c
       -0.10446172 0.114135966 -0.00878323 0.024363905
0002c0 2d 0c 0a 3b 5c 6d 5c 3d 35 2e 83 bc af 4a 57 3d
       0.0021064386 0.05381523 -0.016013244 0.05256146
0002d0 ae 50 56 bd 50 95 d7 3c 37 66 41 3d 42 f7 95 bc
       -0.052323036 0.026316315 0.04721662 -0.018306378
0002e0 4b b5 91 3b 55 3a d4 bb 49 4b f9 bb 06 dd e9 3b
       0.0044466606 -0.0064766803 -0.0076078516 0.0071369438
0002f0 f2 a5 26 bd 01 2d 10 bc 22 51 13 bd 41 22 4b bc
       -0.0406856 -0.008799792 -0.035966046 -0.0123983035
000300 ef 50 bc bb a5 d2 d3 b9 eb ed ef bc 5f d7 13 3c
       -0.0057469527 -0.00040402 -0.029288253 0.009023516
000310 72 d7 2f bc 17 e3 c8 bc 3c 29 0b be f2 97 a8 bc
       -0.0107325185 -0.024522347 -0.13589948 -0.020580266
000320 22 d7 cb bc c7 af d7 b8 16 7f ec 3c 04 53 89 3c
       -0.024882857 -0.0001028474 0.028869193 0.016763218
000330 33 be a1 3c a0 cd 84 bb 26 9e 2f 3d 8a 9c 1d bd
       0.019744014 -0.0040528327 0.04287543 -0.038479365
000340 e4 07 52 bd 45 40 94 3d 3d 0c 1f 3d e2 12 a8 3d
       -0.051277056 0.07238821 0.03883003 0.082067266
000350 a9 7e 92 3d 30 5c 0b 3d 15 ab ef 3c 96 09 89 3d
       0.07153065 0.034023464 0.029256383 0.066912815
000360 e5 38 8d be a8 d9 6c be 01 b3 51 be cb f3 1f be
       -0.2758247 -0.23129904 -0.20478441 -0.15620343
000370 d2 f1 f7 bd 45 47 4d 3d dc c4 21 3e ca 0e 63 3e
       -0.121066704 0.050116796 0.15797752 0.2217361
000380 09 f2 81 3e 47 4c 1d be ae 42 ea bc 6f 12 33 be
       0.2537997 -0.15361129 -0.028596248 -0.174875
000390 3a 55 c4 bd 05 65 a5 bc 6b b4 97 bb 77 bc 6b 3e
       -0.09586568 -0.020189771 -0.004629662 0.23021112
0003a0 47 3a 5d 3e c6 5d 4f 3e 1c df b2 3d ca b2 a8 3c
       0.21604262 0.20250615 0.08733961 0.020593066
0003b0 e3 0a 0d bc d7 27 96 bc 15 46 64 bc 82 14 e6 bc
       -0.008608553 -0.018329544 -0.0139327245 -0.02808595
0003c0 b5 95 b8 3d 4f 1b c3 3d 6d e2 b8 3d 6a de d7 bb
       0.09012929 0.09526693 0.09027562 -0.006587793
0003d0 49 7c e9 bc 78 1a fe 3c 64 dd 84 3d fd 0a f2 3c
       -0.028501647 0.03101848 0.064875394 0.029546255
0003e0 b8 b1 97 3c 78 a6 d6 bc e8 ab 2c bd 22 0c 7a 3d
       0.01851736 -0.026202425 -0.04215613 0.061046727
0003f0 c0 d8 fb bd 01 b2 9b 3b 1c 49 94 bb 8c fa c1 3b
       -0.12297201 0.0047514443 -0.004525317 0.00591976

fc1.bias f4 [5]
000000 94 46 a9 3c ff b5 a7 bc 51 de 1b 3c e0 9b 28 bc
       0.020663537 -0.020472525 0.009513454 -0.01029107
000010 f1 09 6a 3c
       0.014284597

fc2.weight f4 [2, 5]
000000 be 87 b5 3e 46 90 4b 3f 0c e9 62 3e 2c 1d 40 3f
       0.35455126 0.7951702 0.22159213 0.7504451
000010 0a 55 58 bf df 5d 1c bf af 13 4b bf e3 16 29 bf
       -0.8450476 -0.61080736 -0.7932691 -0.6605055
000020 1f 8e 75 bd ee 64 50 3e
       -0.05994999 0.20351002

fc2.bias f4 [2]
000000 00 84 2d bf 44 c8 06 3f
       -0.6777954 0.5264933
