5_train_and_test_model/4_2_Ablation Analysis/CNN-3D/model_3D/sb1/fold2.ckpt (torch, 31751 bytes, 6 tensors)

conv1.weight f4 [20, 1, 1, 3, 3]
-0.4693368 0.4987597 0.58070654 0.34050062 0.25351992 -0.6172369 -0.31469774 -0.20543806
0.062193103 0.44118476 -0.48186493 -0.4713685 0.5946715 0.6010003 0.42967644 -0.50819373
-0.26770517 -0.485229 0.6155232 0.3360008 -0.31579524 -0.20274268 0.39864883 0.58404696
-0.13243262 -0.47017682 -0.32356167 -0.5643033 0.33047768 -0.26382512 0.59550714 0.34056324
0.4406145 -0.2960281 -0.37701076 -0.13063416 -0.3459215 -0.5710334 0.53170574 0.5060947
0.39002484 -0.45706952 -0.26309586 0.28722125 -0.20640709 -0.2695672 -0.5279951 -0.5914359
0.44478875 0.45724255 0.2983435 -0.19497983 -0.15453185 -0.18616097 -0.44959053 -0.51036376
-0.54553026 0.53701 0.4177623 0.4773379 -0.14505112 -0.15039317 -0.09300625 -0.5658084
0.5614888 0.38598847 -0.24173003 -0.46319458 0.46063596 -0.27819923 -0.26364425 0.44532254
0.590387 0.4425099 0.31227604 -0.53163505 -0.46611956 -0.6553124 0.1928727 0.25661042
0.30046108 -0.47645354 -0.47879827 -0.5964657 0.48738667 0.30623484 0.5585048 -0.12667485
-0.16143605 -0.16934888 -0.6432675 -0.5719246 0.61821294 0.19702919 -0.36258584 -0.41221565
0.30760452 0.10592679 0.48183423 -0.4845695 0.54089487 -0.6110425 -0.41637453 0.36933967
0.19090508 0.327138 0.39698792 0.26711017 -0.3809149 0.41739807 0.607262 -0.3678626
0.03925565 -0.31006128 -0.3864983 0.13166901 -0.2543309 0.511327 0.5558543 0.37946263
0.529005 0.43213338 -0.47140822 -0.4321695 -0.41960946 -0.45028815 0.61548936 0.4831562
0.6372858 -0.45081607 -0.24723668 -0.55346906 -0.00064184173 0.11570984 0.11490676 -0.47141153
-0.36164042 0.38046995 0.5090751 -0.56067723 -0.55703604 0.10795163 0.39463753 0.3766182
0.63186413 -0.43939236 -0.43573534 -0.483605 0.34121653 -0.5451996 0.12182663 0.30356565
0.30063504 0.4896095 0.39444387 0.4835801 -0.35645053 -0.568231 -0.578004 0.32546848
0.15409687 0.059907895 -0.1279627 -0.37102577 -0.473673 -0.2559657 -0.46535408 -0.36783734
0.34771687 0.11314625 0.6054343 -0.55994064 0.41784182 0.3512906 0.5841413 -0.63082737
-0.55244285 -0.035462227 0.1554061 0.32336858
00000000: ea4c f0be 6e5d ff3e 2fa9 143f 1956 ae3e
00000010: 5dcd 813e 3d03 1ebf 1020 a1be 5b5e 52be
00000020: 32be 7e3d f8e2 e13e 00b7 f6be 3657 f1be
00000030: 643c 183f 28db 193f 8dfe db3e fc18 02bf
00000040: a710 89be ef6f f8be ee92 1d3f 4c08 ac3e
00000050: eaaf a1be c79b 4fbe b31b cc3e 1a84 153f
00000060: 6b9c 07be 04bb f0be e0a9 a5be 2e76 10bf
00000070: 5f34 a93e 1614 87be 2873 183f 4e5e ae3e
00000080: 3998 e13e ff90 97be 8e07 c1be f6c4 05be
00000090: 9f1c b1be 3f2f 12bf de1d 083f 6c8f 013f
000000a0: 56b1 c73e 0405 eabe 80b4 86be aa0e 933e
000000b0: 615c 53be b604 8abe b02a 07bf 5868 17bf
000000c0: 5abb e33e b21b ea3e 7bc0 983e cba8 47be
000000d0: 993d 1ebe fba0 3ebe bb30 e6be 33a7 02bf
000000e0: dfa7 0bbf 7d79 093f f1e4 d53e a265 f43e
000000f0: 4888 14be ab00 1abe 107a bebd d2d8 10bf
00000100: bbbd 0f3f 48a0 c53e 1488 77be d727 edbe
00000110: 7ad8 eb3e 2170 8ebe 61fc 86be 5101 e43e
00000120: 9a23 173f a890 e23e a5e2 9f3e 3c19 08bf
00000130: 39a7 eebe 8ec2 27bf 6c80 453e 7162 833e
00000140: 09d6 993e b8f1 f3be 0c25 f5be fab1 18bf
00000150: bf8a f93e d0ca 9c3e 2cfa 0e3f 0db7 01be
00000160: 7e4f 25be cb69 2dbe 2ead 24bf a769 12bf
00000170: 3443 1e3f 05c2 493e daa4 b9be ee0d d3be
00000180: 577e 9d3e 25f0 d83d fab2 f63e 7e19 f8be
00000190: 1678 0a3f 486d 1cbf 0b2f d5be 171a bd3e
000001a0: 9f7c 433e a27e a73e 0042 cb3e aac2 883e
000001b0: 4707 c3be 33b5 d53e 8675 1b3f 7d58 bcbe
000001c0: 88ca 203d 5ac0 9ebe 1be3 c5be 3ed4 063e
000001d0: a937 82be 54e6 023f 784c 0e3f ed48 c23e
000001e0: df6c 073f 9640 dd3e 6b5c f1be 5245 ddbe
000001f0: 0dd7 d6be 2b8c e6be b690 1d3f 4060 f73e
00000200: 2a25 233f 5dd1 e6be 9d2b 7dbe 26b0 0dbf
00000210: 4541 28ba 48f9 ec3d 3c54 eb3d da5c f1be
00000220: ef28 b9be f5cc c23e bf52 023f 8b88 0fbf
00000230: ea99 0ebf bf15 dd3d ee0d ca3e 1ad4 c03e
00000240: d9c1 213f 09f8 e0be b418 dfbe 139b f7be
00000250: efb3 ae3e 3392 0bbf 3d80 f93d f56c 9b3e
00000260: d6ec 993e 19ae fa3e 8cf4 c93e d097 f73e
00000270: af80 b6be 9677 11bf 12f8 13bf cea3 a63e
00000280: 92cb 1d3e fb61 753d a708 03be 17f7 bdbe
00000290: 4485 f2be f00d 83be e442 eebe 2d55 bcbe
000002a0: f207 b23e 39b9 e73d befd 1a3f 4558 0fbf
000002b0: 5def d53e 5ddc b33e 498a 153f e77d 21bf
000002c0: e56c 0dbf d740 11bd c722 1f3e 9190 a53e

conv1.bias f4 [20]
0.18090147 0.028078193 -0.02670599 -0.014841843 -0.02917616 0.02416565 -0.0047209733 0.039223593
0.061120607 0.002873035 -0.013372774 -0.029148169 -0.01718461 0.029455822 -0.06303375 -0.015070344
0.023233606 0.05298808 -0.15487476 -0.006810314
00000000: 3c3e 393e 3d04 e63c 85c6 dabc 342b 73bc
00000010: d802 efbc 0bf7 c53c 65b2 9abb eba8 203d
00000020: 9a59 7a3d 8749 3c3b 7b19 5bbc 24c8 eebc
00000030: bdc6 8cbc 564d f13c d717 81bd 9be9 76bc
00000040: 6754 be3c 070a 593d 7d97 1ebe 0e29 dfbb

fc1.weight f4 [5, 1440]
0.040212903 0.20093785 0.120094664 0.14060731 0.023271257 -0.09625529 -0.06127313 -0.11862235
-0.13826065 0.18282479 0.1476583 0.08178731 0.060091704 0.0013724532 -0.019077934 -0.09662578
-0.16575901 -0.13985859 0.026144069 0.064219505 0.03254083 0.040730193 0.021052068 -0.028316494
-0.11368806 -0.08567218 -0.032401633 -0.05086659 -0.041769043 -0.051222302 0.002141505 0.008978364
0.04081055 0.001763363 0.03803679 0.01307857 0.015345136 -0.037324384 -0.0035356088 0.028914308
0.029649762 0.011141417 0.03881958 0.047006767 0.060622275 0.08126172 0.032329626 0.014286141
0.022714918 0.008914187 -0.0014154622 -0.00774413 -0.02146062 0.01993819 0.005426718 0.019352086
0.0044332608 -0.020926539 0.016093388 0.019695416 -0.0028683445 0.00900084 -0.0024636805 -0.012568494
0.013983226 0.0038494642 0.011895127 -0.010515259 -0.03444107 -0.010801225 -0.024659775 -0.014740569
0.22025423 0.19096239 0.18502538 0.16464633 0.024123011 -0.042126115 -0.11857175 -0.2551716
-0.31042314 0.02942827 0.073312275 0.16115177 0.04283105 0.017531622 -0.0016907996 -0.12099394
-0.2089873 -0.29841897 0.030401722 -0.054189377 -0.03625766 0.01644175 -0.02014306 -0.002752078
-0.011825466 -0.14337772 -0.057840638 -0.038562223 0.02299536 -0.059885547 -0.028980374 -0.015784226
-0.0012880429 0.004463569 0.041859355 6.354264e-05 0.123214535 -0.028941004 -0.0027663114 0.022029407
-0.033450205 0.011203232 0.021533443 0.01785849 0.038914077 0.13284679 0.028365644 -0.014087399
-0.026765835 -0.00077826343 0.00042101045 -0.030326692 0.02639374 -0.026146201 0.040485002 0.016820624
0.008168757 -0.038988117 -0.026935097 -0.043769676 0.023521613 -0.015975365 -0.034237675 0.019856177
0.008434472 -0.016045114 -0.043024775 0.015544449 0.0253811 -0.02400399 -0.0081873825 -0.012043961
0.13436235 0.20699497 0.23895405 0.23925947 0.02328454 0.08568294 -0.27227297 -0.29957622
-0.2819875 0.11563253 0.035364367 -0.034099296 0.14338186 0.023336899 0.034922387 -0.2693847
-0.2387778 -0.10975963 -0.11485014 -0.015232486 0.108436465 0.04154277 0.027321028 -0.020541793
-0.08022618 -0.015409675 -0.21368648 0.03879875 0.024991637 -0.029056422 0.02335113 0.0122982245
0.004847677 0.014155141 -0.03934515 -0.08235359 0.07611295 0.023742823 -0.02729234 -0.076606415
-0.07473081 0.0005434452 0.030421996 0.014504399 0.0075969584 0.05172411 0.04128287 0.003453394
0.010881049 -0.0050291037 -5.3871958e-05 -0.013202472 -0.035288863 -0.02785133 0.14978726 0.007108648
0.022206374 -0.03282314 0.020450134 -0.014688326 0.024622329 -0.048970286 -0.05412809 0.042253736
0.0002774601 -0.078732096 -0.012816812 -0.043372966 -0.048823792 -0.06481413 0.007975181 -0.11761157
0.14254759 0.2764605 0.24351856 0.28222874 0.10642674 0.16036183 -0.20444645 -0.33287627
-0.27929083 0.050947975 0.07357785 0.16024272 0.20732181 0.039871812 0.016864508 -0.12202971
-0.317516 -0.21333373 -0.07469352 0.07544499 0.045491327 0.12900104 0.009488916 -0.0034764714
-0.05515386 0.0065946137 -0.12351555 0.0518964 0.057006247 -0.15808003 -0.002202209 0.020834465
0.04350673 0.070221536 0.023928694 -0.022638502 0.14258543 -0.005775238 -0.04219955 0.008081866
00000000: 49b6 243d a7c2 4d3e 31f4 f53d 5dfb 0f3e
00000010: 5da3 be3c 7e21 c5bd 89f9 7abd 46f0 f2bd
00000020: 3394 0dbe 6c36 3b3e bd33 173e 1b80 a73d
00000030: b822 763d e3e3 b33a 5449 9cbc bde3 c5bd
00000040: bbbc 29be 1737 0fbe 162c d63c 8485 833d
00000050: 8949 053d b4d4 263d 6375 ac3c fef7 e7bc
00000060: 49d5 e8bd e574 afbd 93b7 04bd 7c59 50bd
00000070: 0416 2bbd 7ace 51bd 7e58 0c3b fd19 133c
00000080: f728 273d a520 e73a 77cc 1b3d 8047 563c
00000090: 2a6a 7b3c 74e1 18bd acb5 67bb b3dd ec3c
000000a0: 0fe4 f23c 7d8a 363c 4801 1f3d 2b8a 403d
000000b0: 104f 783d 8b6c a63d 126c 043d 6b10 6a3c
000000c0: a314 ba3c cf0c 123c 0887 b9ba 79c2 fdbb
000000d0: 2fce afbc 6a55 a33c 9cd2 b13b 4488 9e3c
000000e0: e344 913b 226e abbc 48d6 833c 4858 a13c
000000f0: d6fa 3bbb 4278 133c b375 21bb 16ec 4dbc
00000100: e719 653c 4b47 7c3b c7e3 423c 3148 2cbc
00000110: 1412 0dbd 9ff7 30bc 4c03 cabc 6d82 71bc
00000120: 538a 613e a58b 433e 4b77 3d3e 0c99 283e
00000130: 9f9d c53c 6f8c 2cbd bfd5 f2bd daa5 82be
00000140: c8ef 9ebe 8e13 f13c bf24 963d f804 253e
00000150: 9c6f 2f3d 7a9e 8f3c d29d ddba accb f7bd
00000160: c400 56be 5fca 98be 080d f93c aef5 5dbd
00000170: e982 14bd d9b0 863c 0f03 a5bc 355c 34bb
00000180: 99bf 41bc 9cd1 12be 4eea 6cbd 6cf3 1dbd
00000190: c460 bc3c 8c4a 75bd 4068 edbc ec4d 81bc
000001a0: 8cd3 a8ba 2143 923b b774 2b3d 3242 8538
000001b0: e757 fc3d af15 edbc 014b 35bb 0477 b43c
000001c0: 1503 09bd c38d 373c e766 b03c f84b 923c
000001d0: 5e64 1f3d fd08 083e 115f e83c d5ce 66bc
000001e0: 0644 dbbc 6004 4cba 11bb dc39 af6f f8bc
000001f0: af37 d83c 8f30 d6bc 9ad3 253d 68cb 893c
00000200: 40d6 053c 01b2 1fbd fea6 dcbc d547 33bd
00000210: 66b0 c03c c5de 82bc ce3c 0cbd 6ca9 a23c
00000220: bd30 0a3c 0b71 83bc bf3a 30bd 25ae 7e3c
00000230: 06ec cf3c 04a4 c4bc 5f24 06bc 0954 45bc
00000240: 4996 093e 7df6 533e 5fb0 743e 6f00 753e
00000250: 38bf be3c 8a7a af3d 5d67 8bbe 0e62 99be
00000260: aa60 90be bfd0 ec3d 3ada 103d b4ab 0bbd
00000270: b2d2 123e 062d bf3c c70a 0f3d cbec 89be
00000280: 2b82 74be a8c9 e0bd 8d36 ebbd ad91 79bc
00000290: f013 de3d c028 2a3d 59d0 df3c 4347 a8bc
000002a0: a04d a4bd dd78 7cbc a1d0 5abe 70eb 1e3d
000002b0: 43bb cc3c bc07 eebc de4a bf3c 7e7e 493c
000002c0: 43d9 9e3b f7ea 673c 6128 21bd 00a9 a8bd
000002d0: 1be1 9b3d 4f80 c23c 2f94 dfbc d3e3 9cbd
000002e0: 780c 99bd fd75 0e3a 8d37 f93c dca3 6d3c
000002f0: e8ef f83b a9dc 533d 3a18 293d 5652 623b
00000300: 6d46 323c 2ecb a4bb 93f4 61b8 2e4f 58bc
00000310: 0e8b 10bd 7928 e4bc d561 193e a9ef e83b
00000320: 24ea b53c 8f71 06bd 0a87 a73c 4ea7 70bc
00000330: c4b4 c93c 1195 48bd 6bb5 5dbd 4112 2d3d
00000340: 1078 9139 4b3e a1bd 9bfd 51bc daa7 31bd
00000350: 75fb 47bd 45bd 84bd 55aa 023c 56de f0bd
00000360: fff7 113e 3b8c 8d3e ee5c 793e 4980 903e
00000370: 43f6 d93d e435 243e 695a 51be c26e aabe
00000380: 35ff 8ebe d3ae 503d fcaf 963d ab16 243e
00000390: 2b4c 543e a050 233d 7027 8a3c b6ea f9bd
000003a0: 7591 a2be 2874 5abe ebf8 98bd e782 9a3d
000003b0: 1d55 3a3d d918 043e 6677 1b3c 83d5 63bb
000003c0: 04e9 61bd a117 d83b b8f5 fcbd 5291 543d
000003d0: 627f 693d bbdf 21be f052 10bb 0aad aa3c
000003e0: 1d34 323d 4fd0 8f3d 1c06 c43c 6174 b9bc
000003f0: ea01 123e 353e bdbb 6fd9 2cbd ce69 043c

fc1.bias f4 [5]
0.01757477 0.018432066 0.016284632 0.015532009 -0.008616495
00000000: f7f8 8f3c d8fe 963c 5967 853c f879 7e3c
00000010: 332c 0dbc

fc2.weight f4 [2, 5]
-0.05298682 -0.54264855 -0.3854555 0.60588413 0.7709784 0.6931596 0.597642 0.39851573
-0.30671018 -0.6902558
00000000: b508 59bd 04eb 0abf 6c5a c5be 391b 1b3f
00000010: d75e 453f e872 313f 11ff 183f 410a cc3e
00000020: 1e09 9dbe 9bb4 30bf

fc2.bias f4 [2]
0.37006763 0.29118308
00000000: 8179 bd3e f315 953e
