5_train_and_test_model/4_2_Ablation Analysis/CNN-3D/model_3D/sb8/fold1.ckpt (torch, 31751 bytes, 6 tensors)

conv1.weight f4 [20, 1, 1, 3, 3]
00000000: e414 49be 5628 47bd 2b44 b9be 1486 afbe
00000010: ecd8 893e 0e82 b1be 8d23 97be 8873 0fbc
00000020: d9d2 0f3e 7e4d 78be a072 eebe 7f07 31be
00000030: f7a4 4b3e 2bc9 ac3e 8653 1a3f b21a be3d
00000040: 433f 723e c8f2 de3e 52f4 0abe eaa6 04bf
00000050: ef88 13bf 63f6 e5be 8742 e93e c3e2 bdbe
00000060: 869a 163f c12a 603d b937 243e 6f0d 143f
00000070: 498c 12bd 750f 21bf 03d3 a53e d4c2 273f
00000080: 70f2 10bf 3ceb 76be 22a4 00bf ab09 c83e
00000090: 8ad8 823e c772 af3e 419c e93e 4ed2 bebe
000000a0: 2686 e4be a133 d1be 4391 b1bb 27f9 6e3e
000000b0: 5088 063e 9c74 dc3e 817c 113f e138 cfbe
000000c0: 8c2a 9c3a 84d4 e5be b9f7 8a3e 4a2e 58bd
000000d0: f2a0 073d 6309 ad3e 1e11 dbbc 6357 0bbf
000000e0: 03a5 b3be 8457 9ebe 9837 9d3d f8bb 4b3e
000000f0: 3013 d9bd e499 083f 2e3e 7d3e d17b 1ebf
00000100: e904 bdbe f009 453e 7da6 f63d 1535 013f
00000110: a1c6 df3e 2e80 163f e371 3bbe f7ad 06be
00000120: e02d bcbe f9ed b5be 961d f5bd 2cc1 a1be
00000130: 3f5f f0be 2a10 b7be 1444 babe 0300 aebe
00000140: 5480 82bd 514c 113f 81a8 de3e 1535 29bf
00000150: ed8f 70be a408 15bf 5084 b53e ec4e af3e
00000160: 5dd6 d1be a40b 9cbd acef 1b3f 786c 30bf
00000170: 925c 853d 5a8d 273f 8758 47bf 276b ecbd
00000180: cee0 c5bd 3ff4 093f bdf6 01bf 3bbe debe
00000190: 7964 0a3f 2e96 1abf 6197 a83d 760e c6bd
000001a0: 16e2 f9be 3bca 0c3e b136 c13e 98d1 753e
000001b0: 6905 d83e c12f 08bf afc8 9ebe 5d80 07bf
000001c0: aa5d dfbb d790 9ebd d5b3 0a3f 5e21 e5be
000001d0: 7084 573f 1bf5 bf3e 7f92 13bf e3bc 053d
000001e0: 6482 c73e cae4 f93e 035b a7be 15d5 56be
000001f0: bd04 cbbe 7b5d 28bf 8726 82bd b0ba 87be
00000200: 6e80 e73e b3ac da3e 917b 023f 8a12 963e
00000210: f692 803e 16ae 82be 5c08 6ebe 8f23 ab3e
00000220: 05d1 0f3f e15e dc3e 28af 373d 51c1 6cbe
00000230: 9fa5 b1be 6f7f 08bd 3256 87bd 461c a73c
00000240: 1cc6 11bf a53d 42be bbe0 1cbf e63c 50be
00000250: e3be a83e aaa5 eb3e 0318 e13d ce12 e33e
00000260: 6ad8 fe3e d093 a8be 50b0 ddbe 9506 edbe
00000270: 9bdc adbe 5b06 aebd 69c2 d73d e27c e33e
00000280: a806 54be e21f 3fbe 7d60 053f 4858 e2be
00000290: 78be 10bf 449a 1fbf 1012 c0bc 90e2 f4be
000002a0: 8246 d0bd c142 d63e 0bf0 83bd e1a4 aabe
000002b0: 7689 cfbe 943e 9f3e 47af 8c3e 081c 583e
000002c0: 48cd 88be 661c aabd eca6 02bd efd8 133e
-0.19636875 -0.04862245 -0.3618482 -0.3428198 0.2692331 -0.34669536 -0.2951931 -0.008755572
0.14045276 -0.24248311 -0.46571827 -0.17288016 0.19887148 0.3374723 0.60283697 0.092824355
0.23656945 0.43544602 -0.13569763 -0.5181719 -0.5763082 -0.4491454 0.4555857 -0.37087068
0.58829534 0.054728273 0.16036882 0.57833 -0.035778318 -0.6291421 0.32387552 0.6553166
-0.5661993 -0.24113172 -0.50250447 0.39069876 0.2555583 0.34267256 0.45627025 -0.37269825
-0.44633597 -0.40859702 -0.005418928 0.23337232 0.13137937 0.43057716 0.568306 -0.40473083
0.0011914535 -0.448887 0.27142122 -0.05277852 0.033112474 0.33796224 -0.02674156 -0.54430217
-0.3508683 -0.30926144 0.07676619 0.19895923 -0.10599363 0.5335982 0.24730751 -0.6190768
-0.3691781 0.19242072 0.12043474 0.5047162 0.4370623 0.58789337 -0.18305163 -0.131523
-0.3675375 -0.3553312 -0.11968534 -0.3159269 -0.46947667 -0.3575452 -0.36380064 -0.33984384
-0.06372133 0.56757075 0.43487933 -0.6609662 -0.23492403 -0.5821631 0.3545251 0.342399
-0.4098386 -0.07619408 0.60912585 -0.6891551 0.06511797 0.6545006 -0.77869457 -0.11543875
-0.09662019 0.53888315 -0.5076712 -0.4350451 0.5405956 -0.60385406 0.08231998 -0.09670727
-0.48805302 0.1374902 0.3773704 0.24005735 0.42191628 -0.53197867 -0.31012484 -0.5293024
-0.0068165855 -0.0774247 0.5418065 -0.4475202 0.8418646 0.37491688 -0.5764541 0.03265084
0.38966668 0.48807365 -0.32686624 -0.20979722 -0.39652053 -0.6576764 -0.06355005 -0.2650962
0.45215172 0.42709884 0.509698 0.2931102 0.25112122 -0.25523442 -0.23245376 0.33425567
0.56178313 0.43041137 0.044844776 -0.2312062 -0.3469667 -0.033324655 -0.06608237 0.020399224
-0.56942916 -0.18968828 -0.6128041 -0.20335731 0.32958135 0.4602483 0.10990908 0.44350284
0.49774486 -0.32925272 -0.43298578 -0.46294084 -0.3395737 -0.08497306 0.10535128 0.44431216
-0.20705664 -0.18664506 0.52100354 -0.44207978 -0.5654063 -0.62344766 -0.023446113 -0.47829103
-0.10169698 0.41847804 -0.06442269 -0.33328918 -0.40534562 0.3110243 0.27477476 0.21104443
-0.26719117 -0.08306198 -0.03189747 0.14438222

conv1.bias f4 [20]
00000000: b29a 0fbe 5108 313e 0b5e 2dbd e369 fdbd
00000010: ee5d 143e aa8f 0dbe f5ab da3c 498f 98bc
00000020: 145c 8ebe adb3 35bd 793f 71bd 1189 6abd
00000030: cede d0bd 8aac cbbb 645d b1bd d680 09bd
00000040: e319 a6bd 9324 83be 6b43 9ebb e80c 703e
-0.14023855 0.17288329 -0.042326014 -0.12373712 0.14488956 -0.13824335 0.026693324 -0.018623011
-0.27804625 -0.044360805 -0.058898423 -0.057259623 -0.101987466 -0.0062156366 -0.08660391 -0.033570133
-0.08110406 -0.2561384 -0.004829814 0.23442423

fc1.weight f4 [5, 1440]
00000000: 662b 12be 7eb8 a6bd 6b86 4ebe ef66 8abb
00000010: f886 47be cc65 833d cc1f af3d a8f3 8e3d
00000020: db86 133d 7b11 43be a99c 68bd ff6f 80bc
00000030: 8321 a8bd d5e0 c23c b555 8d3d 1e0c ac3d
00000040: 580d 6f3d 7258 203d 51a7 86bd 5c58 4ebd
00000050: 5092 c63b f224 1fbd ed55 fc3c 400b 173d
00000060: 2f1a 473d de92 5e3d ec9d 8c3d 73a0 ca3d
00000070: f045 333c 8ab0 8d3d dd04 983d ab16 063d
00000080: d7b0 173d 0c86 923d 4a69 b23d ed11 d73d
00000090: 8e73 f43d 3210 283d d1c3 803d 3cbf 283d
000000a0: fe8e 973c b696 903d 1bc3 8d3d 4554 c83d
000000b0: 3ced d33d 7b62 e83d de2c 963d def5 3f3d
000000c0: 7bcf 5b3d f230 933d 8b72 aa3d 310a ff3d
000000d0: 479f b73d ee4b 733e 65dc 9f3d f260 aa3d
000000e0: e741 3b3e 86b1 293d 6424 c43d ddbf 1b3d
000000f0: 62fc 843e ac55 4bbe 94d5 353e bd45 9a3c
00000100: 93e0 6c3d 8a7b f13d ef23 4c3c a44d 4abe
00000110: 096e 78bd 9f22 cbbe a302 85be 7f09 c0be
00000120: 0aa3 33bc 014d 5cbd 1308 bfbd 1408 08bd
00000130: 3071 10bd f485 283c 665b 943b 1ba4 4f3d
00000140: ff62 8f3c 4808 c2bd b35c a5bd 1358 4dbd
00000150: 5e7d 17bd e829 c6bc 8817 233d 53f4 3e3d
00000160: 693f a1bb a11e e8bb 62cf 0b3c 3f0e 47bc
00000170: 1d94 c6bb 38af edbc 6d2e b1bc 05b0 863b
00000180: 9211 593d dd75 4d3d ddb0 503d 2852 9e3c
00000190: 414b 023a 7e20 003d 9bb1 c13a c522 91b9
000001a0: 0c27 003d 7b99 5d3d ab18 3b3d e86c 99bc
000001b0: 60ec b83b 7849 1d3d c23b b2bc e686 bbbc
000001c0: 4808 0e3b e901 e83b 16bc 2c3d 70e7 313c
000001d0: 362f 7e3d ae6c 803d db7a 803c da02 0a3d
000001e0: 5175 4b3c fa78 13bc 8b42 be3c 0416 ea3b
000001f0: 86f7 b3bd adea 57bc a854 babc 9ae4 e93c
00000200: 4ea9 8fbc cdbc ac3b cefa 24bc f83c 96bd
00000210: fc97 b1bc 8f32 a6bd 70c0 83bc c455 163d
00000220: d7bb 71bc ae63 4b3c f70d 7c3c c275 bb3c
00000230: 93e5 b1bd 491d 16bc 8985 4ebb dbf7 b5bd
00000240: a2bb 00be 8906 f9bd 143c cebd 87f5 c1bd
00000250: de73 d6bd cf46 513d 7dab b83c 6e3b f53b
00000260: beb2 763d 23e4 08be 7c83 b6bd c6f9 2cbe
00000270: ae8f a8bb 4864 f43c 9b05 9d3d 2d4b b23d
00000280: e4b4 013d 4f9e 1f3d c872 12bd 9857 cdbd
00000290: 53f3 3ebd 3f37 1a3c 5a6d f53c 7e9b 363d
000002a0: 3eca 1b3d 9a59 843d 2d5c e93d 31b3 653d
000002b0: da53 b03b a1bf e23a fb5e 713b 0318 9f3c
000002c0: 0c11 063d 17b4 a03d 4b76 9c3d 3192 d33d
000002d0: 228e b93d dbc4 9a3d 875b 4a3d 14ce 643c
000002e0: bfcc fd3c 550e 593c 9ec5 383d 5f82 cf3b
000002f0: 2856 093d 1f6e 063d e7e2 bd3d 68d7 b73c
00000300: ec88 8bba 0b2f 2c3c 0eee e23c 6439 903d
00000310: 1b01 ac3c d1f2 313e ecb3 783d f273 2f3d
00000320: ffd5 323d 54da 2a3c 1923 823c 4423 363d
00000330: a851 023e 0fc8 043c 1c4d e83d 1f31 023e
00000340: d21b ce3b 3e64 9d3d 6b28 debc 1e0e 5a3d
00000350: e2e7 56be bc28 18be cca9 72be f494 9cbe
00000360: 602d f0bd f45f 20be af3a 5dbe d58f 17be
00000370: cac4 8cbd 1665 77ba 3cc8 d23d d259 e73d
00000380: 02b9 313c b371 ecbc ba43 70be bc03 48be
00000390: 8783 3ebe dff8 8fbc 0ca8 8c3d 3403 013e
000003a0: ba47 283c 359e 1a3e 929e 54bd dff7 1dbe
000003b0: 2d71 93bd 2ca0 23be 4ae6 f6bc febc 953d
000003c0: 5355 cf3d 67c6 bd3d 265c 873d 0683 b23d
000003d0: 3dd5 d93d 1a82 143e 4562 b03d 00e2 f93d
000003e0: 0d33 fc3d cb1d f43d 515f 073e 8f9c cb3d
000003f0: dcf1 453e 169c c43d 4f91 0a3e 3c62 a73d
-0.14274368 -0.08140658 -0.20168464 -0.0042236964 -0.1948508 0.064159006 0.08550987 0.069800675
0.03601728 -0.19049637 -0.056790028 -0.015678404 -0.08209517 0.023788849 0.06901113 0.08400749
0.058362335 0.039146848 -0.06574882 -0.050377235 0.0060599223 -0.038853593 0.030802691 0.036875963
0.048608955 0.054339282 0.06866059 0.098938845 0.010941967 0.06918438 0.074228026 0.03273646
0.037033882 0.07154474 0.087114885 0.10501466 0.11936103 0.04103107 0.06287349 0.041198
0.018500801 0.07059996 0.06921979 0.09781698 0.10347983 0.11346909 0.073327765 0.046865337
0.053664666 0.0718707 0.083226286 0.12453116 0.089659266 0.23759434 0.07805709 0.08319272
0.18286858 0.041429065 0.095772535 0.038024772 0.25973803 -0.198569 0.17757255 0.018832082
0.05783136 0.11791141 0.012459739 -0.1975618 -0.060651813 -0.3967485 -0.25978574 -0.37507245
-0.0109641645 -0.053784374 -0.09327712 -0.03321083 -0.035264194 0.010285843 0.004527497 0.050693613
0.01750326 -0.09474236 -0.080743216 -0.050132822 -0.036984794 -0.024189904 0.039817363 0.046619724
-0.004920889 -0.0070837294 0.008533331 -0.012149393 -0.006060137 -0.029014215 -0.021628583 0.0041103386
0.052995272 0.05016123 0.05094992 0.019326285 0.000497032 0.031280987 0.0014777662 -0.0002768246
0.031287238 0.05410145 0.045677822 -0.018728688 0.0056434125 0.038400143 -0.02175701 -0.022891473
0.0021672416 0.007080306 0.04217156 0.010858402 0.062056743 0.06270729 0.015683582 0.033694126
0.012418107 -0.009001011 0.02322509 0.0071437377 -0.08787446 -0.01317851 -0.022745445 0.028551389
-0.017536785 0.0052715302 -0.010069562 -0.073358476 -0.021678917 -0.08115112 -0.016082972 0.036702886
-0.014754257 0.012413902 0.015384189 0.0228833 -0.08686366 -0.009162256 -0.0031512699 -0.08885165
-0.12571576 -0.121594496 -0.10070053 -0.09470659 -0.10471319 0.05109292 0.02254271 0.007483891
0.060229056 -0.13368277 -0.089117974 -0.16892156 -0.005144081 0.029832974 0.07667085 0.08705745
0.03166665 0.038969334 -0.035753995 -0.10026473 -0.04661877 0.009412586 0.02995937 0.044581883
0.03803467 0.06462403 0.11394534 0.056079093 0.0053810896 0.0017299542 0.0036830294 0.01942063
0.0327311 0.078468494 0.0763975 0.10330618 0.09060313 0.075570785 0.049403694 0.0139651485
0.03098142 0.013248046 0.045110337 0.00633268 0.03352943 0.032819863 0.09271794 0.02244158
-0.0010645664 0.010509263 0.027701404 0.070421964 0.02099662 0.17377783 0.060718462 0.042835183
0.043661114 0.01042803 0.015885876 0.044467226 0.12726462 0.008104338 0.113428324 0.1271405
0.0062899375 0.07685135 -0.027118882 0.05323612 -0.20986894 -0.14859289 -0.23697585 -0.30582392
-0.117274046 -0.15661603 -0.21604417 -0.14800961 -0.06873472 -0.0009437365 0.10292098 0.11296429
0.010847332 -0.02886281 -0.23463336 -0.19532675 -0.18604861 -0.017574726 0.0686799 0.12598878
0.010271007 0.15099414 -0.051909037 -0.15426587 -0.07199321 -0.1597907 -0.030139107 0.07311438
0.10123696 0.09266358 0.06609373 0.08716397 0.10636375 0.14502755 0.086124934 0.12201309
0.12314425 0.11919745 0.13219954 0.099419706 0.19330543 0.096000835 0.13531993 0.081730336

fc1.bias f4 [5]
00000000: 417c 7cbc ad19 de3c c48b 17bd 2323 9bbb
00000010: 5104 0dbc
-0.015410484 0.027111853 -0.036998525 -0.004734413 -0.008606986

fc2.weight f4 [2, 5]
00000000: a737 283f 1378 06bf 0a0d c73e 0e53 1abf
00000010: 8719 d0be 6b08 36bf 7b18 8b3e 325c 14bf
00000020: 9946 603e 9c88 283f
0.6570992 -0.5252697 0.38877136 -0.6028298 -0.40644476 -0.71106595 0.27167115 -0.5795318
0.21901931 0.6583345

fc2.bias f4 [2]
00000000: d82c 0d3d 3e3f f33d
0.034466594 0.11877297
