5_train_and_test_model/4_2_Ablation Analysis/CNN-3D/model_3D/sb8/fold3.ckpt (torch, 31751 bytes, 6 tensors)

conv1.weight f4 [20, 1, 1, 3, 3]
0	0xbe5c33df	-0.21504162
1	0xbf14d134	-0.5813172
2	0xbf19db60	-0.60100365
3	0xbec2732b	-0.3797849
4	0xbd093dbb	-0.033506136
5	0x3e757761	0.2397132
6	0xbdad5f8f	-0.08465492
7	0xbeabedf2	-0.33579975
8	0x3e6c563b	0.2307977
9	0xbefdfe6e	-0.49608177
10	0xbedafba9	-0.42770126
11	0x3e8694a8	0.2628529
12	0xbeb52f12	-0.35387474
13	0xbef8ce5d	-0.48594943
14	0x3d001db0	0.031278312
15	0x3ee00b57	0.43758652
16	0x3ef2aed8	0.4739902
17	0x3d83b43f	0.064308636
18	0xbd402e9c	-0.04691945
19	0x3e5085ac	0.20363492
20	0x3f035b07	0.5131077
21	0x3e31bc6a	0.1735703
22	0x3e0c207b	0.13684265
23	0x3ea4d7d8	0.32195926
24	0x3e9699a1	0.29414085
25	0x3e8c1984	0.27363217
26	0x3eb85e4d	0.36009446
27	0x3edf865a	0.4365719
28	0x3f2fe753	0.6871235
29	0x3e8051cb	0.25062403
30	0xbf14cb6d	-0.58122903
31	0xbf12ed72	-0.5739356
32	0xbee987ca	-0.4561141
33	0x3ee619f9	0.4494169
34	0xbef561c6	-0.47926158
35	0x3ec34316	0.3813712
36	0x3e199492	0.14998081
37	0x3f283d0f	0.6571817
38	0x3e127c8c	0.14305323
39	0xbd190e5b	-0.037367206
40	0x3f3dfe79	0.7421642
41	0xbf241078	-0.6408763
42	0x3e620d6f	0.22075437
43	0xbeb4492c	-0.35212076
44	0xbf3d55c0	-0.7395897
45	0xbe95b4ab	-0.292394
46	0xbe1aede8	-0.15129817
47	0xbdc20ef9	-0.09475512
48	0xbedc4e8c	-0.43028677
49	0xbe6f25d9	-0.23354281
50	0x3d941861	0.072312124
51	0x3d1c1b7f	0.03811216
52	0x3d79b074	0.060959294
53	0xbed77a69	-0.4208558
54	0x3e8111dd	0.2520894
55	0xbeb3b6ec	-0.35100496
56	0xbe42e7d9	-0.19033755
57	0x3ee00a0e	0.4375767
58	0xbeb1bb89	-0.3471339
59	0xbe3b3781	-0.18282892
60	0xbe7f02b9	-0.24903382
61	0x3e0235e3	0.12715869
62	0xbdb91c18	-0.090385616
63	0xbec88242	-0.3916188
64	0x3f139b75	0.57659084
65	0x3df6dd28	0.12053901
66	0xbe3ecd08	-0.186329
67	0x3eccc2e1	0.3999243
68	0xbde3b9e8	-0.11119443
69	0x3e5f1971	0.21787049
70	0x3e24fe9b	0.1611275
71	0xbe2a4dfb	-0.1663131
72	0xbe421859	-0.189546
73	0x3e70d61e	0.23519179
74	0xbf04384c	-0.516484
75	0xbf1c5660	-0.610693
76	0xbeced8dc	-0.40399826
77	0x3f224fc2	0.6340295
78	0x3f36408b	0.71192235
79	0xbef36f53	-0.4754587
80	0x3f45a032	0.77197564
81	0xbe180b92	-0.14848164
82	0xbf0f8066	-0.56055295
83	0x3f1ca229	0.61184937
84	0x3f035cc1	0.51313406
85	0xbee7a9f7	-0.4524686
86	0x3ec9b79d	0.39397898
87	0x3edb7ed7	0.4287021
88	0x3d1fec6f	0.03904384
89	0x3e78cbc0	0.24296474
90	0x3eb8b4de	0.3607549
91	0x3f094ff5	0.5363763
92	0xbf2a52b6	-0.66532457
93	0xbf12d25a	-0.5735222
94	0xbf02aa54	-0.5104115
95	0xbebb1b07	-0.36544058
96	0xbeb79fd8	-0.3586414
97	0xbed91302	-0.42397314
98	0x3e46b0ad	0.19403334
99	0x3f0295e8	0.5100999
100	0x3f0f7e8a	0.5605246
101	0x3f0b5226	0.54422224
102	0x3e3c2685	0.18374069
103	0xbeae426a	-0.34035045
104	0xbeae7463	-0.3407317
105	0x3e0ce864	0.13760525
106	0xbce3b4c0	-0.02779615
107	0xbe4106ca	-0.18850246
108	0xbd13416a	-0.035951056
109	0x3ed328ba	0.4124201
110	0x3ee1505c	0.44006622
111	0xbe8554fe	-0.26041406
112	0x3e249ad7	0.16074692
113	0x3d41726e	0.04722827
114	0xbf1ec71f	-0.62022585
115	0x3ebea46a	0.37234813
116	0x3d4671c4	0.04844834
117	0x3f125837	0.57165855
118	0xbe370614	-0.17873412
119	0x3e9ef92e	0.31049484
120	0xbefbe03b	-0.49194512
121	0x3f1d233b	0.6138188
122	0x3ec6eb61	0.38851455
123	0x3ec061e9	0.375747
124	0xbe942f84	-0.28942502
125	0xbe93a794	-0.2883879
126	0x3eee297f	0.46516034
127	0x3d598c41	0.053112272
128	0xbed4d7c4	-0.41570866
129	0x3eded037	0.4351823
130	0x3e947768	0.2899735
131	0xbf0febff	-0.56219476
132	0xbf09b758	-0.53795385
133	0xbe9c82d8	-0.30568576
134	0xbed8ec3e	-0.42367738
135	0x3ea0cd8f	0.3140683
136	0x3e8561a8	0.26051068
137	0xbedbc616	-0.42924565
138	0x3f24f5af	0.64437383
139	0x3f045af4	0.51701283
140	0xbf3ce1dd	-0.7378214
141	0xbf0d68d9	-0.5523811
142	0x3eb90809	0.36138943
143	0x3e9c6cf0	0.30551863
144	0x3e6c12c5	0.23054035
145	0x3f175224	0.5910971
146	0x3e2975ec	0.1654889
147	0xbf08534d	-0.53252107
148	0x3eee6b14	0.4656607
149	0x3f1f608b	0.6225669
150	0xbd6f67f3	-0.058448743
151	0xbde7b0d5	-0.11313025
152	0xbf01c7a5	-0.5069526
153	0xbeb580e5	-0.354499
154	0xbef2186a	-0.4728425
155	0xbed7b72e	-0.42131943
156	0x3e44e115	0.19226487
157	0xbe0d572e	-0.13802788
158	0x3f044ecb	0.5168273
159	0x3ede400f	0.43408248
160	0xbec1e791	-0.37871984
161	0x3f160691	0.5860377
162	0x3edc2a75	0.43001142
163	0x3f0f48d8	0.55970526
164	0x3eb24f14	0.34825957
165	0x3ee55b07	0.4479601
166	0xbc02641a	-0.007958436
167	0xbe8b1733	-0.27166137
168	0xbf1311de	-0.5744914
169	0x3e5750bc	0.21026891
170	0x3d108323	0.03528131
171	0xbf07c4ea	-0.5303484
172	0x3f0d8ed6	0.55296075
173	0x3ef4d987	0.4782221
174	0x3f01bc5e	0.5067805
175	0xbd6a631d	-0.057223428
176	0xbf5276e7	-0.8221268
177	0xbedd8620	-0.43266392
178	0xbe91e503	-0.28495035
179	0x3eb46e4b	0.35240397

conv1.bias f4 [20]
0	0xbe2a8473	-0.16652088
1	0xbd35e974	-0.04441209
2	0xbc8c6277	-0.017136795
3	0xbcb4db50	-0.022077233
4	0xbce4af1b	-0.027915528
5	0xbd50b68e	-0.050955348
6	0x3e6a3cf6	0.22874817
7	0xbdfb96d5	-0.12284628
8	0xbcfbe374	-0.030748107
9	0xbd9472cc	-0.07248458
10	0xbe2718f6	-0.16318116
11	0x3e1d3748	0.1535312
12	0x3d81a7c0	0.06330824
13	0xbca47c95	-0.020078937
14	0xbe4c5e62	-0.19957879
15	0xbcc5eade	-0.024159845
16	0xbd984a13	-0.074360035
17	0xbd249d89	-0.0401893
18	0xbd8731dc	-0.06601307
19	0xbd102f10	-0.035201132

fc1.weight f4 [5, 1440]
0	0x3df1df81	0.11810208
1	0x3e29fe8b	0.16601007
2	0x3daba788	0.083815634
3	0x3d5ad876	0.05342909
4	0x3d88e1f7	0.066837244
5	0xbd2f3754	-0.042777374
6	0xbd21fe73	-0.039549302
7	0xbcfec56b	-0.031099996
8	0xbe07dd0c	-0.13267916
9	0x3e0f33a9	0.1398455
10	0x3db671d9	0.089084335
11	0x3e1fd6d2	0.15609291
12	0x3df8a56f	0.12140929
13	0xbb878e51	-0.0041368385
14	0xbda06763	-0.078322195
15	0xbd8ddf25	-0.06927327
16	0xbd8728c8	-0.06599575
17	0xbcd8c5b2	-0.026461456
18	0x3d01e415	0.031711657
19	0x3dba28c7	0.09089809
20	0x3ddb6fe6	0.10714702
21	0x3db5e21d	0.08881018
22	0xbcbd7eb0	-0.023131698
23	0xbd2e8dea	-0.04261581
24	0xbd0b0e8f	-0.03394943
25	0xbd61451a	-0.05499754
26	0xbd924b1d	-0.07143233
27	0xbd48ecc7	-0.049053933
28	0xbc63476a	-0.013872007
29	0xbca431ce	-0.02004328
30	0xbcc01292	-0.023446355
31	0x3c137a10	0.00900127
32	0xbbfaa8c5	-0.0076495134
33	0xbd98b637	-0.0745663
34	0xbd8d7479	-0.06906981
35	0xbd855a57	-0.065113716
36	0xbd4556fa	-0.04817865
37	0xbccfc6a3	-0.025363272
38	0xbd95fbbd	-0.07323406
39	0xbd30d9e6	-0.043176554
40	0xbc4fb589	-0.012677559
41	0xbd349dde	-0.044095866
42	0xbd661724	-0.056174412
43	0xbdad4418	-0.084602535
44	0xbb97a53b	-0.0046278513
45	0xbd9932c8	-0.07480389
46	0xbdb02814	-0.08601394
47	0xbd86e766	-0.065871045
48	0xbb7dac88	-0.0038707573
49	0xbc4c95bc	-0.012486871
50	0xbd2d482d	-0.04230516
51	0xbd6dcea5	-0.0580584
52	0xbdb2a1fc	-0.08722302
53	0x3dec50c5	0.11538843
54	0xbddd3966	-0.108019635
55	0xbde23bbc	-0.1104655
56	0xbcd5197b	-0.026013127
57	0xbd4bac00	-0.04972458
58	0xbd4b8fb5	-0.049697597
59	0xbdb3ec63	-0.087853216
60	0x3d8e1f81	0.06939603
61	0x3ca06f06	0.01958419
62	0xbdf2af7d	-0.11849878
63	0xbe360b45	-0.17777736
64	0xbd9acd57	-0.07558697
65	0xbd5f8be4	-0.05457677
66	0xbd7ec869	-0.062202845
67	0xbdf75a41	-0.120777614
68	0xbcbc45f0	-0.022982568
69	0x3db2b71a	0.0872633
70	0x3e912569	0.28348854
71	0x3ebc8a3d	0.36824217
72	0x3e4ccbed	0.19999667
73	0x3e0a740b	0.1352083
74	0x3e1ab57a	0.1510829
75	0x3e0168a9	0.12637581
76	0x3df4c664	0.119519025
77	0x3df93e79	0.12170119
78	0xbd5cab7a	-0.05387447
79	0xbcb66c28	-0.02226837
80	0xbd367bbd	-0.0445516
81	0x3e0b75c8	0.13619149
82	0x3e1a81ac	0.15088528
83	0x3e2e5c66	0.17027435
84	0x3e2700fc	0.1630897
85	0xbcb05076	-0.021522742
86	0xbbf78805	-0.0075540566
87	0xbdaf6065	-0.08563308
88	0xbd8078b8	-0.06273025
89	0xbdfa0518	-0.12208003
90	0xbd9eb8f0	-0.07750118
91	0xbc534253	-0.012894231
92	0x3dba45a9	0.09095318
93	0x3dea308f	0.11435043
94	0x3bb92c3a	0.005651024
95	0xbce6bcc8	-0.02816619
96	0xbd642515	-0.055699427
97	0xbd257f28	-0.04040447
98	0xbd9cb2df	-0.076513045
99	0xbe12fdfd	-0.14354701
100	0xbdef13cf	-0.116737
101	0xbd8ca650	-0.06867659
102	0xbc85c952	-0.016331349
103	0xbcbd05c8	-0.023074046
104	0xbc844253	-0.016144907
105	0xbd76f8fe	-0.06029605
106	0xbdcb62ea	-0.09930976
107	0xbd919a25	-0.07109479
108	0xbe2f2e06	-0.171074
109	0xbdf169eb	-0.117877804
110	0xbde50ba7	-0.11183863
111	0xbd468882	-0.048470028
112	0xbce20a9d	-0.027592951
113	0x3ce0fe6b	0.027465066
114	0xbd5b75e1	-0.053579215
115	0xbd0a43f3	-0.033756208
116	0x3c1c43ea	0.009537676
117	0x3ccf4860	0.025303066
118	0xbb60618b	-0.0034237828
119	0xbda1ff8e	-0.07910071
120	0xbd9ba546	-0.07599883
121	0x3cd30340	0.025758386
122	0x3b03461b	0.00200308
123	0xbd98a452	-0.074532166
124	0xbdd5fbe1	-0.10448433
125	0xbd8becdd	-0.068322875
126	0xbe092401	-0.1339264
127	0xbdcb79a5	-0.09935311
128	0xbdcc19a8	-0.09965831
129	0xbd8a6c1c	-0.067589015
130	0xbcf8fcc7	-0.030393971
131	0xbd8b481e	-0.06800865
132	0xbbafccad	-0.0053649754
133	0xbdb8721a	-0.09006138
134	0x3e5a4346	0.21314725
135	0xbe46f08e	-0.19427702
136	0xbe365718	-0.17806661
137	0xbd398ce5	-0.045300383
138	0xbd2d3007	-0.04228213
139	0x3dc74e0a	0.09731682
140	0x3d3ce255	0.046114285
141	0x3e686ee1	0.22698547
142	0x3d7eda37	0.062219825
143	0x3ecba476	0.3977391
144	0xbc212832	-0.009836243
145	0x3c36e10c	0.011162054
146	0x3d4534ec	0.048146173
147	0x3c0d13ed	0.008610708
148	0xbd10fd24	-0.035397664
149	0xbd5bebf6	-0.053691827
150	0xbcbfa7eb	-0.0233955
151	0xbd5adae8	-0.05343142
152	0xbdd6a8de	-0.104814276
153	0xbd4b4064	-0.049621955
154	0x3d91c367	0.07117348
155	0x3d785ac0	0.06063342
156	0x3d013ca1	0.03155196
157	0xbcdf8242	-0.027283791
158	0xbc0ec70d	-0.00871445
159	0xbcfd12cb	-0.03089275
160	0xbd2cb333	-0.042163085
161	0xbd7dccba	-0.06196282
162	0x3c089990	0.008337393
163	0x3d6b21bb	0.057405215
164	0x3d06eda4	0.032941476
165	0x3be1e7f0	0.006894104
166	0x3cbd1f6a	0.023086268
167	0xbb566f64	-0.0032720203
168	0xbca4d8ae	-0.020122852
169	0xbcb07186	-0.021538507
170	0xbd8357f8	-0.06413263
171	0xbcc7b670	-0.024378985
172	0xbc473c6c	-0.012160402
173	0x3c6a6a05	0.014307504
174	0x3d04bfa4	0.032409325
175	0xbc9cb9b4	-0.019131519
176	0xbcede806	-0.029041301
177	0xbcf0155c	-0.02930706
178	0xbcd3f7d3	-0.025875008
179	0xbd2081c2	-0.039186247
180	0xbd558d7e	-0.05213689
181	0xbd3d3bc1	-0.046199564
182	0xbce14238	-0.027497396
183	0x3c6361fd	0.013878343
184	0xbcea083e	-0.028568383
185	0xbc3bcbaa	-0.0114621315
186	0xbd26d85b	-0.040733676
187	0xbd4e449a	-0.050358392
188	0xbde0050e	-0.10938464
189	0xbd899b8f	-0.067191236
190	0xbd0971fc	-0.03355597
191	0xbcda6a91	-0.026662143
192	0xbc5ff291	-0.013668672
193	0xbd3c3c6f	-0.04595607
194	0xbd17e8c0	-0.037087202
195	0xbd238aad	-0.039927173
196	0x3d9234c3	0.0713897
197	0xbc38457c	-0.011247035
198	0xbd85fa51	-0.06541885
199	0xbd023b91	-0.03179509
200	0xbce970c6	-0.028496157
201	0xbce1c021	-0.027557435
202	0xbc2ab29c	-0.01041856
203	0x3d4f5a0c	0.050622985
204	0x3dc289e7	0.09498959
205	0x3e3baf20	0.18328524
206	0xbdef37e4	-0.11680582
207	0xbd90d66f	-0.0707215
208	0xbd44f6b5	-0.04808684
209	0xbd3003d9	-0.04297242
210	0xbd7bb98d	-0.061456252
211	0xbd4b9e2d	-0.049711395
212	0x3d4873b1	0.048938457
213	0x3e04f529	0.12984146
214	0x3e756e64	0.23967892
215	0x3e9690fb	0.29407486
216	0x3dfbc95a	0.12294264
217	0x3dd87294	0.10568729
218	0x3e117994	0.14206535
219	0x3e0f507c	0.13995546
220	0x3e1e7ddf	0.15477704
221	0x3c7a6b73	0.015284407
222	0xbd26ede6	-0.04075422
223	0xbda17280	-0.07883167
224	0xbb50f3e7	-0.0031883658
225	0x3e07c27a	0.1325778
226	0x3dffbf75	0.124876894
227	0x3e3c7820	0.18405199
228	0x3e06817c	0.13135332
229	0xbca13f39	-0.019683467
230	0xbce9de68	-0.028548434
231	0xbd2785ea	-0.040899195
232	0xbd5082c9	-0.050905976
233	0xbd48a0af	-0.048981365
234	0x3a4af010	0.00077414606
235	0x3db3ae95	0.08773533
236	0x3dee07b8	0.11622566
237	0x3d8a1b9d	0.06743548
238	0xbc9fda99	-0.019513415
239	0xbd8f35cb	-0.06992682
240	0xbda1c409	-0.07898719
241	0xbdd68759	-0.10475034
242	0xbdf7e511	-0.12104238
243	0xbd019c7d	-0.03164338
244	0xbd13b078	-0.036056966
245	0xbd0d8bd4	-0.03455718
246	0xbc9fd9a0	-0.019512951
247	0x3a80d475	0.0009828942
248	0xbd6a184c	-0.057152078
249	0xbdccbe98	-0.099972904
250	0xbda77d74	-0.08178225
251	0xbde0b20e	-0.10971461
252	0xbdaf2fb2	-0.08554019
253	0xbd91b2d5	-0.07114188
254	0xbd86ecc2	-0.06588127
255	0xbcf7ae07	-0.03023435

fc1.bias f4 [5]
0	0x3cc0d3d3	0.023538506
1	0xbc8a503c	-0.016883962
2	0xbd158d9c	-0.036512002
3	0x3cab67d3	0.02092353
4	0xbaab6d74	-0.0013078884

fc2.weight f4 [2, 5]
0	0xbedba252	-0.42897278
1	0x3edfd653	0.43718204
2	0x3ddb42d9	0.107061096
3	0xbf46a9ab	-0.7760264
4	0x3f398ba6	0.7247871
5	0x3f0a9c11	0.5414439
6	0xbf34abb4	-0.705745
7	0xbf185af0	-0.5951376
8	0x3dc8528f	0.09781372
9	0xbf24b2c6	-0.64335287

fc2.bias f4 [2]
0	0xbee31197	-0.44349357
1	0x3d9af64d	0.075665094
