5_train_and_test_model/4_2_Ablation Analysis/CNN-3D/model_3D/sb8/fold2.ckpt (torch, 31751 bytes, 6 tensors)

conv1.weight f4 [20, 1, 1, 3, 3]
000000 e8 12 2f bf 96 d1 0c 3f 23 4a 90 3e 26 2b e3 be
       -0.68388224 0.550073 0.28181562 -0.44368857
000010 bc 39 3b 3f c2 2f 53 3e d7 84 b1 be 6a 1b d5 be
       0.7313497 0.20623687 -0.3467166 -0.41622478
000020 7a 66 5f bd ec f6 24 3f e9 d3 16 bf 0a 4e f7 3e
       -0.05454109 0.6443927 -0.589171 0.48301727
000030 aa 41 55 be 9b 08 e0 3e cf 10 0a bf f4 2b 93 be
       -0.2082583 0.43756565 -0.539319 -0.2874447
000040 14 1f b4 be 36 da 03 bf c1 5e 5e be cb f2 51 be
       -0.3517996 -0.5150484 -0.21715833 -0.20502774
000050 e2 38 90 3e eb 12 92 3e 34 3d eb 3d c9 2e e8 be
       0.28168398 0.28530058 0.11486283 -0.45348194
000060 52 69 b8 be f9 2a 3d be 7e a7 66 3d 82 7f 52 3e
       -0.36017853 -0.18473424 0.056312077 0.20556453
000070 0f 9d 13 bf 69 d1 1d bf 89 55 27 bf 6d 6c ba be
       -0.5766153 -0.6164766 -0.6536489 -0.36410847
000080 9f c2 02 3e 18 2b 92 be 96 f7 c2 3e 87 70 ea 3e
       0.12769555 -0.28548503 0.38079518 0.45788977
000090 5a bf b2 3d 50 1a 24 3f e5 b9 de 3e 1d 4c ec 3e
       0.08727904 0.6410265 0.435012 0.4615182
0000a0 2f 40 05 be 69 6e ce 3c 7e 5c 10 bf 18 17 61 be
       -0.13012765 0.025199132 -0.5639113 -0.21981466
0000b0 a3 be 1b bf 1e f2 e2 3d eb a1 19 3f 53 dd 03 bf
       -0.60837764 0.110813364 0.6001269 -0.5150959
0000c0 24 df f2 3d 51 3c cb 3e 40 c4 cf 3e ef 96 2d 3c
       0.11858967 0.39694455 0.40579414 0.010595067
0000d0 f3 cd 6e be 78 19 3a be 6a 73 fa 3e 13 be ab 3e
       -0.23320751 -0.18173778 0.4891618 0.33543453
0000e0 e5 82 fd be 33 b0 9a be 79 5a f8 3e f1 3c b0 be
       -0.49513927 -0.30212554 0.48506525 -0.34421495
0000f0 b3 5e 5a 3e 82 39 fa be 17 f8 4f 3d a1 11 c4 be
       0.21325187 -0.48872 0.050773706 -0.382947
000100 16 3b 02 bf 15 39 03 3e 79 32 97 bd 4a 22 8d be
       -0.5087141 0.12814744 -0.07382674 -0.27565223
000110 8a 11 14 bf d4 67 4e bd f8 a5 29 3e 1a 24 09 3f
       -0.5783926 -0.050391987 0.16567218 0.5357071
000120 a7 24 21 3e f6 85 2b 3f e5 73 08 3f 87 29 78 3d
       0.15736638 0.67001283 0.5330184 0.06058648
000130 9b 5c 48 be 9c 2b 2f bd 5c dd d1 bd 5a fe 1d bf
       -0.19566576 -0.0427662 -0.10247299 -0.61716235
000140 80 31 6c be 4e ca aa 3d 38 17 88 3e 45 49 9e 3e
       -0.23065758 0.08339368 0.26580215 0.30915275
000150 a1 fc 4d 3e 8d cb 10 3e 1f 3a 65 be 16 ba 2a 3e
       0.20115902 0.14140148 -0.22385453 0.16672549
000160 38 6d e8 3d 33 10 10 3e 2b b9 b9 bd 17 bf 01 bf
       0.11348957 0.1406868 -0.09068521 -0.50682205
000170 81 6f d0 3e e8 80 ed 3e 89 a7 11 bf 9c ed ac be
       0.4071007 0.4638741 -0.56896263 -0.33775032
000180 72 3e 09 3e 93 fc d4 3d f4 1c b5 3e 72 28 15 3b
       0.13402727 0.10399737 0.35373652 0.0022759703
000190 42 5c dd be 86 3c 06 3f 3e 3e 28 3e 31 fd 42 3e
       -0.4323445 0.524361 0.16429994 0.19041897
0001a0 d3 fc b1 3e b8 23 5e 3e bd ac d7 3e 1c 3f bf 3e
       0.34763202 0.21693313 0.42123976 0.37352836
0001b0 1d c1 09 bf ec ea b5 be 00 40 ab 3e 7e 1a fc 3e
       -0.5381029 -0.35530794 0.33447266 0.49238962
0001c0 0f d4 bb 3e ee 82 48 3e 96 46 33 bd 7c 83 06 be
       0.36685225 0.19581196 -0.043768488 -0.13136095
0001d0 84 ab e3 3e d2 83 2b 3f 23 0b 13 bf a4 08 35 3e
       0.44466794 0.66998017 -0.5743887 0.17679077
0001e0 e7 1f 30 bf 2d 48 f4 3d 4f f0 aa 3d 23 c2 6e 3e
       -0.6879868 0.11927829 0.083466165 0.23316245
0001f0 99 7b 08 3e 7f ce 06 3f 53 f2 bf be 39 5e b7 3e
       0.13328399 0.5265884 -0.37489566 0.35814074
000200 62 1a 05 3f 51 36 85 be 5e a0 08 bf a0 aa 74 3e
       0.5199338 -0.26018003 -0.533697 0.23893213
000210 8c 68 25 be 43 62 89 3d e7 1b b6 3e 1e d6 f5 be
       -0.16153163 0.06708195 0.35568163 -0.4801492
000220 bc 3d 22 3f 9b 20 b9 3e 2d 6e f8 3e 33 1b 37 be
       0.6337545 0.36157688 0.48521557 -0.1788147
000230 c2 6f 0a bf b0 70 89 3d 82 50 dd bd aa fa 0c bf
       -0.5407678 0.067109466 -0.10806371 -0.55069983
000240 de 6d 5e be 27 56 8a 3d 0a e1 90 bd 14 57 fc bd
       -0.21721599 0.067547135 -0.07074173 -0.12321296
000250 43 4a ef be 7e 9c bb be 45 55 aa be 41 de 58 be
       -0.46736345 -0.36642832 -0.3326818 -0.21178533
000260 70 7c 59 bd 76 dd da 3e 5d 46 18 be 41 69 f9 be
       -0.05309719 0.42747086 -0.14870591 -0.48713115
000270 6a 17 1e bf 16 9d 2c bf 86 1b 50 3e 18 e2 b2 3e
       -0.6175448 -0.67427194 0.20323 0.3493812
000280 2e ee e6 3e 22 61 f0 3e 3c 38 fc bd a9 21 18 bf
       0.45103592 0.46949106 -0.12315413 -0.5942636
000290 2c f9 e7 3e 88 c1 0a 3f f3 73 17 bd 6e 59 2c bf
       0.4530729 0.54201555 -0.036975812 -0.6732396
0002a0 a0 33 8f be 1e cf 31 be 8d fc 0c bf 39 47 09 3f
       -0.27969074 -0.17364165 -0.5507286 0.536243
0002b0 ed 54 f5 be 7e 6e e6 be d5 f3 57 3d 89 71 e8 be
       -0.47916356 -0.45006174 0.05272277 -0.4539912
0002c0 cf 2d 14 3f c7 bc ba 3e f7 8f 00 3e 2a 1d 0f 3f
       0.578824 0.3647215 0.12554918 0.55903876

conv1.bias f4 [20]
000000 03 c9 1f be 1d 2e 7b bd 44 9d 05 bd 16 5e ab bd
       -0.15604024 -0.061323274 -0.032620683 -0.08367555
000010 ac a6 6d bd 5e 6a 9f bd 90 c0 1e 3e 23 0d 25 be
       -0.05802028 -0.0778396 0.15503144 -0.16118293
000020 5a ad 70 bd 2e 58 94 bd 19 88 31 bd c1 fd 28 be
       -0.05875907 -0.072433814 -0.043342683 -0.1650305
000030 41 33 1c 3e af a1 49 bd 38 be e0 3d f8 87 c8 bc
       0.15253927 -0.04922646 0.10973781 -0.024478897
000040 ea e2 35 be f5 b1 c7 3d a6 ad d9 3c f7 5f 9e bd
       -0.17762342 0.097507395 0.02657206 -0.077331476

fc1.weight f4 [5, 1440]
000000 00 e6 50 be 45 67 e6 bd c3 6c 50 be 00 ce ae bd
       -0.20400238 -0.11250166 -0.2035399 -0.08535385
000010 34 d9 f6 bd ff ed da bc be b2 ea 3d bc 94 f7 3c
       -0.12053147 -0.026724814 0.114598736 0.03022229
000020 0c 80 c1 3c 9f e7 44 bd bd dd 42 be cb 80 47 be
       0.023620628 -0.048072454 -0.19029899 -0.19482724
000030 44 99 14 be 16 55 7f 3c 66 f4 7d 3c aa 76 ab 3d
       -0.14511591 0.015584251 0.015500164 0.08372243
000040 06 e2 92 3d fb 59 f4 3c 87 b4 a5 3d 1a 81 c1 bd
       0.07172017 0.029828062 0.080910735 -0.09448452
000050 98 57 3d bd f4 5e ca bd 8d aa 47 3c 57 32 31 3d
       -0.046226114 -0.09881392 0.012186659 0.0432609
000060 06 5d 8e 3d ed 0d 8c 3d 22 f7 5c 3d c9 55 d5 3d
       0.069513366 0.06838594 0.05394662 0.10416753
000070 85 6c e4 3d c7 bc b1 3d 6f 89 41 3d a5 47 90 3d
       0.11153511 0.086785845 0.047250208 0.07044915
000080 fc 98 26 3d 7a 79 cb 3d bd 52 4f 3d b8 a8 06 3e
       0.04067324 0.09935279 0.050616015 0.13150299
000090 ff b4 dd 3d ce 7f 78 3d 90 09 01 3d 17 26 f3 3c
       0.10825538 0.06066876 0.03150326 0.029681249
0000a0 11 4a 49 3d 55 0b 15 3d 0d e5 ac 3d 17 e4 41 3d
       0.0491429 0.03638776 0.084421255 0.047336664
0000b0 35 41 f6 3d d8 ae e5 3d 20 df db 3d de 2c ca 3d
       0.12024156 0.112149894 0.10735917 0.09871839
0000c0 3e 28 a4 3c 74 67 e6 3d 30 6a a7 3d e1 af d3 3d
       0.02003872 0.11250201 0.081745505 0.103362806
0000d0 64 b9 9d 3d 9d ee 77 3d cc 37 9f 3d 7f 5c 63 3e
       0.07701376 0.060530294 0.07774314 0.22203253
0000e0 f1 d9 f0 3d 2a 55 74 3d 92 8b f2 3d cd da 9f 3d
       0.11760319 0.05965153 0.11843027 0.07805405
0000f0 08 17 12 3e a0 74 3d bc b8 d9 29 bd 52 9c 8f 3e
       0.14266598 -0.01156345 -0.0414674 0.2804895
000100 27 8b 8f 3e 80 5f f5 3d ff 7d a7 3d 98 0d db bd
       0.28035852 0.11981106 0.08178329 -0.10695952
000110 f8 03 b9 3d 4c 22 6e be 6e 43 7e bd ee 20 f8 be
       0.0903396 -0.2325527 -0.062076025 -0.48462623
000120 22 a6 23 be 21 66 81 bd aa 82 a6 bd 4e 81 17 be
       -0.15981343 -0.06318308 -0.08130391 -0.1479542
000130 ee 6d c6 bb cf 2c 9e bc 83 d6 a5 3d 85 3a a2 3d
       -0.006055585 -0.019308476 0.080975555 0.07921318
000140 7d 8c 1f 3d 37 64 6a ba 60 0b 0c be ac 36 5c bd
       0.03895234 -0.0008941325 -0.13676214 -0.053763077
000150 a7 0b d3 bd 1d ce d1 3c ee 42 68 3d ca 08 24 3d
       -0.10304957 0.025610978 0.056704454 0.040047444
000160 0c 1f a8 3d 2b 14 32 3d 3d f8 7c 3d 51 54 a8 3b
       0.08209047 0.043476265 0.061760176 0.0051370044
000170 37 9e 93 bd d8 32 8a bd 38 a1 28 3d ce 8f a2 3d
       -0.072079115 -0.06747979 0.041169375 0.07937585
000180 89 a3 c8 3d 03 6b ce 3d 9c 7f 94 3d d8 3c 5e 3d
       0.09796817 0.100790046 0.07250902 0.054257244
000190 8e f9 90 3d 1e 5a 1e 3d 33 fb 92 bc c0 a3 a6 3c
       0.07078849 0.03866016 -0.017942047 0.020341754
0001a0 07 bc aa 3d 02 c3 de 3d 93 67 8b 3d 35 da 1e 3e
       0.083366446 0.108770385 0.068068646 0.15512927
0001b0 43 8c cd 3d 30 8c 50 3d 5f 6a 50 3d c3 2c dd 3b
       0.100365184 0.050914943 0.050882693 0.006749721
0001c0 58 e2 d4 3c 1d 9a 28 3d fe 62 55 3d e9 cd 6a 3b
       0.025986835 0.0411626 0.05209636 0.0035828298
0001d0 81 1b d6 3d e9 93 e8 3d 7a 60 ac 3d c7 8e ec 3d
       0.10454465 0.113563366 0.08416839 0.1155067
0001e0 28 62 83 3d 82 fd 37 3d de 1f 05 bd c1 78 99 bc
       0.06415206 0.0449195 -0.032501094 -0.018734338
0001f0 bb 75 4c be cf ef 34 3d 67 29 ce 3d e6 c1 a9 3d
       -0.19966786 0.04417401 0.100664906 0.08288936
000200 ae 76 ee 3d 16 56 1c 3d 7c fa 8d 3c 05 8c f0 bd
       0.1164373 0.038168035 0.017331354 -0.117454566
000210 f9 88 c7 3c fc a4 9d be 19 f2 29 bc e2 87 05 3e
       0.024357306 -0.30789936 -0.010372662 0.13040116
000220 5a 04 c5 3d 0e 6a 0d 3e bc 38 ec 3d 92 9c 90 3d
       0.096199706 0.13809988 0.11534259 0.070611134
000230 3d d8 4d 3d f7 1a 91 bc da 27 0a be 6a 2f 99 be
       0.05025505 -0.017713053 -0.13491765 -0.29918987
000240 85 85 1f be df 5e f3 bd a2 17 ce bd 67 4c a8 bd
       -0.15578277 -0.118833296 -0.10063101 -0.082176976
000250 00 1c 33 3c a8 b6 79 3d 0c 68 94 3d 0a 56 7f 3c
       0.010931969 0.06096521 0.07246408 0.015584478
000260 96 bc 3e 3d a8 9e 9e 3c bd c6 a9 bd 94 a7 89 bd
       0.04656657 0.019362763 -0.082898594 -0.06721416
000270 ac 06 b6 bd 14 ce 95 3c 32 c0 5a 3d 85 0f 09 3d
       -0.08887991 0.018286742 0.053405948 0.033462066
000280 be d2 7c 3d 03 f8 99 3d 3a 83 01 3d 73 58 b1 3b
       0.061724417 0.075180076 0.031619288 0.0054121553
000290 f7 fe f6 bb d7 ac 98 bd e9 7c a8 3b be 14 30 3d
       -0.0075377184 -0.074548416 0.0051418436 0.04298853
0002a0 83 cc a7 3d 7b 18 41 3d 83 79 6f 3d 1f d4 fc 3c
       0.081933044 0.047142487 0.058465492 0.030862866
0002b0 1c 8e 6e 3d e7 db 53 3d 8b 99 1b bc 0f a0 e4 3b
       0.058240995 0.051723387 -0.009497057 0.0069770883
0002c0 e0 d1 26 3d 5e f2 72 3d a4 16 a4 3d f2 6c 53 3d
       0.040727496 0.05931317 0.08012131 0.05161757
0002d0 02 5c 50 3d 4d 90 0f 3d ee d2 fa 3c f3 a0 0f 3d
       0.050868995 0.035049725 0.030618157 0.035065603
0002e0 b1 d8 05 3d 10 4c 39 3d 5f aa 12 3d 9a 33 c1 3d
       0.032677356 0.045238554 0.03580701 0.0943367
0002f0 1d d3 f5 3c 41 63 22 3d f6 e6 28 3d cb c4 e6 3c
       0.030007893 0.039645437 0.041235887 0.02817001
000300 de 90 96 3c 44 21 ad 3c 87 67 33 3d 0c f0 01 3c
       0.018379625 0.021134026 0.043799903 0.007930767
000310 f2 0c 20 3a 49 fe 2b 3e 78 09 3f 3c 45 99 94 3d
       0.00061054446 0.16796221 0.011659972 0.07255796
000320 d0 c3 4d 3d d2 ac 37 3d 51 16 8d 3c ee 76 25 bd
       0.05023557 0.04484255 0.017222555 -0.040396623
000330 e4 a8 87 bd 4a 2d 72 be 81 83 85 3d a6 6d 22 3e
       -0.0662401 -0.23650089 0.06519223 0.1586214
000340 60 2d cd 3d 07 71 ea 3d 3e 81 71 bd 4e f6 ff 3d
       0.1001842 0.114473395 -0.058961146 0.12498151
000350 23 b3 36 3d 4d 73 34 3e 84 74 9d be d0 f8 ba be
       0.04460443 0.17622109 -0.30752957 -0.36517954
000360 15 a6 45 be e8 e1 0f be b4 13 06 be d6 56 1e be
       -0.19301637 -0.1405102 -0.13093454 -0.15462813
000370 d0 6e 94 bd 3d 99 e4 bc 66 f2 91 3d 18 eb 25 3d
       -0.07247698 -0.027905101 0.07126312 0.040507406
000380 a1 74 53 3d 0c 3e 34 be 80 0f 27 be 76 30 e7 bd
       0.051624898 -0.17601794 -0.16314507 -0.1128854
000390 b1 dc 29 be df 89 3f bd 37 ea a5 3d 2a 06 7e 3d
       -0.16588093 -0.046762343 0.081013136 0.062017597
0003a0 cc 47 6c 3d 52 c2 4c 3d a1 52 06 bd c8 73 b8 bd
       0.05768566 0.049990006 -0.032793645 -0.090064585
0003b0 01 62 e7 bd 75 75 c5 3c 08 dc 1a 3d df 78 29 3d
       -0.1129799 0.02410386 0.037807494 0.041375037
0003c0 53 16 2b 3d 4c 0d c3 3d 89 b3 5e 3d 9f e8 03 3d
       0.041769337 0.095240206 0.054370437 0.032204267
0003d0 4f 29 36 bc 8e 9a 1a 3c bb 04 6c 3d 39 83 5c 3d
       -0.011118247 0.009436263 0.0576217 0.05383608
0003e0 82 f9 c0 3c 54 1e 66 3d dd eb cf 3d 78 2c 93 3d
       0.023556475 0.056181267 0.10152409 0.07186216
0003f0 69 cb 2c 3d d1 44 f6 3c c1 ea 9b 3d a3 ad 18 3d
       0.042186175 0.030062111 0.07613135 0.037274968

fc1.bias f4 [5]
000000 4a 37 9e b9 3b ac cd 3c 69 b3 07 3d 14 e1 b8 3b
       -0.00030177302 0.02510654 0.033130083 0.005642066
000010 0f 96 49 bc
       -0.012303843

fc2.weight f4 [2, 5]
000000 b1 1b 16 3f 3d 0c bc be 41 82 e3 be b2 f6 2e 3f
       0.58636004 -0.36728087 -0.44435313 0.6834518
000010 e1 49 15 be 08 c9 2f bf af b9 d5 3e 21 ad 21 3f
       -0.14578964 -0.68666124 0.41743228 0.631548
000020 f2 ca 82 be 6c e4 20 3f
       -0.2554546 0.62848544

fc2.bias f4 [2]
000000 2d 98 48 bd 15 42 11 3c
       -0.04897325 0.008865853
