5_train_and_test_model/4_2_Ablation Analysis/CNN-3D/model_3D/sb4/fold1.ckpt (torch, 31751 bytes, 6 tensors)

conv1.weight f4 [20, 1, 1, 3, 3]
00000000: 6d87 90bd 0bda ba3e 2585 643e 28c8 b2be
00000010: 0fab 743e 8e80 d5be 895d fb3e ad7f ecbe
00000020: 43c1 f53e 2f67 d93e 384e 703e a2ed 1b3f
00000030: 5be8 2fbf 6c82 be3e 1792 ae3e d2c8 35be
00000040: 8f08 a43c 509d cfbe b124 a2be cb6e d9be
00000050: b39f abbe 7e59 7fbe 0072 2dbf c694 febe
00000060: 1112 803e 4098 da3e 92a0 a03e 4695 b7be
00000070: 2901 313f c98b 19bf 660e b6be bdd9 18bf
00000080: c8f3 b1be 0188 c53d f0f0 0a3f e692 3f3e
00000090: 28af 573e 4f8e a1be ee66 0ebf bd80 8b3e
000000a0: 088c 0fbf 0b85 1c3f f8e0 b8be 32f9 483e
000000b0: 5c54 e53e 7ace cabe 8287 02bf d395 19bd
000000c0: 533e 0cbe 626a 0d3f 21e5 fa3e ee71 f93e
000000d0: 77f0 063f 58b4 e83e 9603 ba3d 8bea 0fbf
000000e0: 738c 0d3f 35a0 ad3d c9bb a03e dfc9 9bbe
000000f0: 395e 9e3e e0f9 12bf bf7d d0be cb48 8a3e
00000100: df1b e13e db56 17bf e7b0 17bf 6dc6 e43e
00000110: 7f71 c43e 5400 693b dcd5 bebe d890 983e
00000120: a687 86bd bf1c 233f 8561 223f 525d 45bd
00000130: e909 d23d 72b0 0fbf 148e e2be 362f 133f
00000140: 293e c4be 4d2c 18be 1d18 183f 1b20 e1be
00000150: bd17 1dbf 298f ba3e 4383 06bf d303 d63d
00000160: 8a0d 063f 18b7 c13e e4f1 d73e 689c 1f3f
00000170: e854 33bf bf9f 013f 4412 09bf d7f8 493e
00000180: ca01 a6be a9bf b6bd b2d4 0f3e ccd9 82be
00000190: 9a3f 663e e093 ecbe 42da e33c 159e 063f
000001a0: 12ec fdbe ebb2 d6be 5660 c73d 8174 22be
000001b0: ec9a 5e3e fc94 c7bd 6c77 6fbd 4e65 91be
000001c0: 7589 103f b016 dcbe 7e32 bebe 25f2 df3e
000001d0: b7cc 5b3e d51a ce3e 0947 25bf c452 eabe
000001e0: 3686 f4be d8ad fdbe 0579 db3d e4d5 3b3e
000001f0: 7b5d 7c3d f4bb 1f3f 8200 8cbd 2dbc 0d3f
00000200: 3631 0b3f 35ab 03bf ebd2 d03e 239b b9be
00000210: d34e f3bd c67f 07bc c7b9 ddbe c953 c2be
00000220: 3fa0 a5be 8a50 263f aa2f f93d c43a c6be
00000230: 3351 143f fbc7 b2bc 39f0 9abe e307 4cbe
00000240: 5427 00bf a367 b13d 90b7 0e3f 3a29 fd3e
00000250: f555 c43e 0c12 f3be 26ac ddbe d5dd c73e
00000260: 659c f8be 945e a1be 8ace f73e b612 003f
00000270: b153 02bf 1a8c 24bf 0b0a 4e3e 1c67 3c3e
00000280: 4904 03be abd6 883e 0b63 b13e dc42 79be
00000290: 3066 d73e 7799 1fbd f789 c0be 38cc 223e
000002a0: 6a96 96be eed2 0ebe a78e 803e eb14 c7be
000002b0: bcb2 083f 9edb a73d f7e4 b2be a027 13bf
000002c0: 47ae dc3e 6e85 0d3e bba6 833b a28e a73d
-0.070570804 0.3649448 0.22316416 -0.34918332 0.23893379 -0.41699642 0.490948 -0.4619116
0.4799901 0.42461535 0.23467338 0.60909474 -0.6871392 0.3720888 0.34095833 -0.17752388
0.020023612 -0.40549707 -0.31668618 -0.4246734 -0.33520278 -0.24936482 -0.67752075 -0.4972288
0.25013784 0.42694283 0.31372505 -0.35856074 0.69142395 -0.5997892 -0.3555786 -0.5970724
-0.34756303 0.09645081 0.5427389 0.18708381 0.2106291 -0.31553885 -0.5562581 0.27246657
-0.56073046 0.6114051 -0.36109138 0.1962631 0.44790924 -0.39610654 -0.5098802 -0.0374964
-0.1369565 0.5524045 0.49002936 0.48719734 0.5271067 0.4545009 0.09082715 -0.5621726
0.55292434 0.08477823 0.3139327 -0.30427453 0.3093126 -0.5741253 -0.40720937 0.27008662
0.43966576 -0.59116906 -0.59254307 0.44682637 0.3836784 0.0035553174 -0.37272537 0.29798007
-0.06568842 0.6371574 0.63430053 -0.0481847 0.102557965 -0.5612861 -0.44249022 0.57493913
-0.38328674 -0.1486065 0.59411794 -0.43969807 -0.61364347 0.36437348 -0.5254404 0.10449948
0.5236441 0.37835002 0.42176735 0.6234803 -0.7005143 0.5063438 -0.53543496 0.19723831
-0.3242324 -0.08923275 0.1404598 -0.2555679 0.224852 -0.4620657 0.027814034 0.52584964
-0.4959417 -0.4193338 0.097351715 -0.15864755 0.21738786 -0.097452134 -0.0584635 -0.28397602
0.5645974 -0.4298606 -0.37147897 0.4373943 0.21464811 0.40254846 -0.64561516 -0.4576627
-0.47758645 -0.49546695 0.10716442 0.18343312 0.061612587 0.6239617 -0.06836034 0.5536526
0.54371965 -0.51433116 0.40785918 -0.36251172 -0.11880269 -0.00827021 -0.433058 -0.37954548
-0.3234882 0.6496664 0.12167294 -0.3871671 0.579364 -0.021823874 -0.302614 -0.19924884
-0.5006001 0.08662345 0.55748844 0.49445516 0.3834683 -0.47474706 -0.432954 0.39036432
-0.4855682 -0.3151747 0.48399764 0.5002855 -0.5090895 -0.6427628 0.20121019 0.18398708
-0.12794603 0.2672628 0.34645876 -0.24341911 0.4207015 -0.038964715 -0.3760526 0.15898216
-0.29411632 -0.13947651 0.25108835 -0.38883147 0.53397727 0.081961855 -0.3494031 -0.5748234
0.43101713 0.1382043 0.0040176786 0.08181502

conv1.bias f4 [20]
00000000: 1300 853b 6cbb 16bd a3a0 cdbc 5d65 bcbc
00000010: 5f44 183e cd99 02bd 5327 0f3d 3ca2 d4bc
00000020: 2225 86bd a66f 2bbd 8bdb fdbc 0d29 bd3d
00000030: ee2e f2bd 1612 92bc 147c 0cbd 9595 d0bd
00000040: f04f dcbb 09ec 69bd ddbc 933e f664 f6bd
0.0040588467 -0.036799833 -0.025101012 -0.022997553 0.14869832 -0.031884957 0.034949612 -0.025956266
-0.06550051 -0.041854523 -0.030988475 0.092363454 -0.118253574 -0.01783089 -0.034298018 -0.101847805
-0.0067233965 -0.057109866 0.2885503 -0.120309755

fc1.weight f4 [5, 1440]
00000000: e4b1 723d 48db b63d d1ed edba 2069 963d
00000010: 0afd 493c a54b c7bd c3d9 80bd 67fa b9bd
00000020: a517 a0bc b4e2 b23d 8ad7 36b8 ba95 00bd
00000030: 72ef 36bb d08f b43b 6aff 46bd 8213 7bbd
00000040: 1fb2 1abe 88d9 35be 86a7 363d 7e3d 933c
00000050: 21d6 c13c 56a2 d0bc 490a 6bbb 7413 9d3b
00000060: 6b78 8abc 887d c7bd 8b82 58bd 7f37 823d
00000070: f69c 123d d184 333d 4f6c 123c 11c0 9abb
00000080: 2ebd 513c b224 1ebc 01dc 1fbc 212b 9cbd
00000090: 31bb 023e c80e 923d 32cb b73c e7c0 fdbb
000000a0: 0624 893c 8ab1 e83c f628 5b3d 5e11 a23c
000000b0: 1873 5f3c 5e25 1f3d 9215 293c 35da d93c
000000c0: b6af 3fbc e530 3bbb 84a7 9dbc d95a 51bc
000000d0: a702 c73c 0910 77bd d5e6 ddbc 69b0 3c3d
000000e0: de7f fabb d244 5d3d 7fd4 493c 1151 193e
000000f0: b1f2 383d 3302 323d 50d1 053d f17b 7bbd
00000100: f0be efbb 4fd0 e1bb 284d 8d3c 9069 00bd
00000110: 0b15 9d3d cc68 893d a73d db3c 88f9 a83c
00000120: 0508 6c3e adaf 5a3e e81d 933d 5a81 053e
00000130: 7bd3 b03c 87f0 03be b5b2 35be 7933 7dbe
00000140: 540b 82be 6a36 8c3c 5a0e 823d 6720 433d
00000150: 34e6 7f3d e4c2 87bc 68bb 8fbd 1cea efbd
00000160: 363e 78be 61ee 21be 5deb 4d3d 2290 45bd
00000170: 57e2 e7bc 50e8 d03c 4aeb 963c 2377 0cbd
00000180: 630f b7bd 9d92 113c caae 45be 3d49 0c3d
00000190: 86ab 993d 7e56 37bc 51ff b9bb aa7c 703c
000001a0: 328a bc3c 30ff 57bd 5403 82bd 2e3d d3bc
000001b0: ebdf 273d af92 f03c bedb 8d3d 1408 2e3c
000001c0: af52 1cbc 9282 b93b 718d ae3d 328d 17bd
000001d0: b6b6 0fbd 449a e63d 3db9 1a3d 1590 99bb
000001e0: f909 db3c 0f55 d5bc 6410 933b 3362 da3c
000001f0: 9126 ab39 9bc4 763c 6f3e 333c 06ea b83d
00000200: 8cb1 f5bc 5f58 6b3d 6c6c 19bd 76fa 193e
00000210: 1177 a63c 081b 163c 5694 49bd c381 3cbd
00000220: d0f8 19bd b119 af3c 8a09 173b f57a 953d
00000230: 1f0b 6d3d 68bd 073e 845d 4a3d 3a97 653d
00000240: 7974 a33e 762c 3c3e c50f d33d 5273 533d
00000250: a524 073c ad54 33be c86d 8dbe 4d9f 93be
00000260: 6ae9 8bbe 499a 853d 472e 673c 16b7 00bc
00000270: bc35 adbb b88e d8ba 9ecc 2f3c 717f ecbc
00000280: 6dce 78bd ca04 1bbe 9ff7 a93d 2c43 5cbd
00000290: 5f09 58bd b840 efbc aff5 babb f3b4 afb9
000002a0: e708 cebd 4089 35bd ae2a 48bd a7a6 913d
000002b0: 34f5 df3c 38c3 55bd a51c a1bb 8e54 863c
000002c0: 8bff 9d3c fa31 0cbd 2df2 5e3d 5194 843b
000002d0: 3c90 eb3d 03e0 913d 4d5f 883d d9b1 253d
000002e0: 90a3 103d f716 34bc 30a6 3d3d 4ef8 9abb
000002f0: 7e34 8dbd 06f8 863d 41fd 813d 4648 ba3c
00000300: 67fa c9bc 7960 4f3b 9b75 0db9 0782 ba3c
00000310: 2d39 28bc bc12 253d 099c 39bd 75ef 973c
00000320: 31a6 8a3b 7a52 3fbd dad4 ad39 ce1d 03bd
00000330: a508 49bc 63f0 e93c 9e42 833b 8db1 f8bc
00000340: 2db4 a8bc 0dbb 0ebc bb68 d8bc b6bb ad3c
00000350: e83f 903d 4ce8 0f3e ae99 8d3d 7b43 a83d
00000360: a8d4 873e ddf0 593e c6ad b83c 5c43 4b3d
00000370: c3f3 043e ad08 2dbe 8652 1fbe 1653 6ebe
00000380: 4140 5fbe e021 933e d4d6 953b 654c 403e
00000390: 5eed 673c c71c 2b3d 3acb 53bd 0bd6 82be
000003a0: eca0 f0bd 35b1 9bbe 457e b13d ff50 ed3d
000003b0: b52f 83bc 8ffe c1bc af10 0d3c 6ca3 31bd
000003c0: b4a2 dfbd 4828 19bd 40c5 14be 10a5 74bd
000003d0: 1558 063c 3162 eabc 9b4a 683c c3a1 963c
000003e0: 9b70 7f3c fa02 aabd 514b 65be 1e41 5ebe
000003f0: 807f d33d 4608 083e 1d26 bf3d 885c 703d
0.05925168 0.08928543 -0.001815254 0.0734427 0.012328396 -0.09731225 -0.06291535 -0.090809636
-0.019542525 0.087346464 -4.3592918e-05 -0.03139279 -0.0027913717 0.005510308 -0.048583426 -0.0612979
-0.1510701 -0.17758763 0.044593357 0.017973658 0.023661675 -0.025468033 -0.0035864285 0.0047935788
-0.016903123 -0.0974074 -0.05285887 0.06358241 0.03579422 0.043827835 0.008936956 -0.004722603
0.012801452 -0.0096523035 -0.009757043 -0.07625414 0.1276672 0.071317255 0.022435758 -0.007743943
0.01674081 0.02840497 0.05350586 0.019783672 0.01363828 0.038853996 0.010320084 0.026593307
-0.011699608 -0.002856308 -0.019244917 -0.012778007 0.024293257 -0.060318027 -0.027087608 0.046066675
-0.0076446375 0.05402071 0.012318729 0.1497233 0.045153324 0.04345913 0.03267032 -0.061397497
-0.0073164627 -0.0068912874 0.017248705 -0.031350672 0.07670029 0.067094415 0.026762797 0.020626798
0.23049934 0.21356077 0.071834385 0.13037625 0.021585217 -0.12884723 -0.17743953 -0.24726667
-0.25399268 0.01711579 0.063503936 0.047638323 0.0624754 -0.016572423 -0.07018167 -0.11714575
-0.24242482 -0.1581359 0.050273288 -0.04823316 -0.02830617 0.0255014 0.018422741 -0.034293305
-0.08938482 0.008885053 -0.19304958 0.034249533 0.075034186 -0.011190055 -0.005676188 0.01467816
0.023015115 -0.0527336 -0.06348291 -0.025786009 0.04098503 0.02936682 0.06926678 0.010622043
-0.009541198 0.005661317 0.085230716 -0.03699989 -0.035086356 0.112598926 0.037774313 -0.0046863654
0.026738154 -0.026041536 0.004488038 0.026658153 0.00032644396 0.015061523 0.010940178 0.090290114
-0.029991888 0.057457324 -0.037456915 0.1503695 0.020320447 0.009161718 -0.04921373 -0.046022188
-0.0375908 0.021374555 0.0023046457 0.07298843 0.057871934 0.13255847 0.04940559 0.056052424
0.319248 0.18376336 0.10305742 0.05162365 0.008248483 -0.1751277 -0.2762282 -0.28832474
-0.27326518 0.06523568 0.0141101545 -0.007856151 -0.0052859467 -0.0016522026 0.010729937 -0.028869363
-0.060743738 -0.15138546 0.08299183 -0.053774998 -0.052743312 -0.029205665 -0.0057055573 -0.0003351342
-0.10060292 -0.044320345 -0.048868828 0.071118645 0.027338602 -0.05218813 -0.004916745 0.01639774
0.019286891 -0.03422735 0.054430176 0.004046001 0.1150212 0.07122805 0.06658802 0.040452812
0.035312235 -0.010991803 0.046301067 -0.0047293073 -0.06894778 0.065902755 0.063471325 0.02273954
-0.024655534 0.0031643196 -0.0001349062 0.02276708 -0.010267538 0.04030107 -0.045314822 0.0185468
0.0042312373 -0.046709515 0.00033155718 -0.032010846 -0.012270127 0.028557008 0.004005744 -0.0303581
-0.020593727 -0.008711589 -0.026417127 0.021207672 0.07043439 0.14053458 0.06914078 0.08215996
0.2652943 0.21283288 0.0225438 0.049624786 0.12983613 -0.16897841 -0.15558824 -0.23273882
-0.21801855 0.28736782 0.0045727286 0.18779142 0.014155714 0.04177549 -0.051707484 -0.25553927
-0.117494434 -0.30408636 0.08666662 0.115877144 -0.01601396 -0.023680953 0.008609935 -0.043368742
-0.10919705 -0.03739193 -0.1452837 -0.05972773 0.008199711 -0.028611274 0.014177944 0.01838768
0.015590812 -0.08301349 -0.22392012 -0.21704528 0.10327053 0.13284406 0.093334414 0.058681995

fc1.bias f4 [5]
00000000: c8a3 e4bc caf9 c0bc 85f7 163b c167 07bc
00000010: e01c c0bc
-0.027910128 -0.023556609 0.0023035717 -0.008264483 -0.023451269

fc2.weight f4 [2, 5]
00000000: 1fc0 21be 07b0 1bbf d06a 2cbf f548 353f
00000010: 236d 01bf bc6a 163f 6601 333f 3b93 cc3e
00000020: a144 59bf c26b d03e
-0.15795945 -0.6081547 -0.6735048 0.7081445 -0.50557154 0.58756614 0.6992401 0.39956078
-0.84870344 0.40707213

fc2.bias f4 [2]
00000000: 1371 193e 7413 0fbf
0.1498454 -0.5588906
