5_train_and_test_model/4_2_Ablation Analysis/CNN-3D/model_3D/sb4/fold0.ckpt (torch, 31751 bytes, 6 tensors)

conv1.weight f4 [20, 1, 1, 3, 3]
0	0xbefb2296	-0.49049824
1	0xbf0a181a	-0.53943026
2	0x3ede9923	0.4347621
3	0x3ecceb04	0.40023053
4	0xbf02b1d1	-0.51052576
5	0x3d1dd8a7	0.038536694
6	0x3f1df1f4	0.61697316
7	0xbdafa8a0	-0.085770845
8	0x3f0e380d	0.55554277
9	0x3f3990de	0.72486675
10	0x3edd86a5	0.43266788
11	0xbeddc9a6	-0.43317908
12	0xbf31ef4e	-0.69505775
13	0x3f0a82fa	0.54106104
14	0xbe8a6b38	-0.27034926
15	0xbe08e967	-0.13370286
16	0x3e30fe6a	0.17284551
17	0x3cc4cc70	0.024023265
18	0x3eac3eaa	0.3364156
19	0xbef00279	-0.46876886
20	0x3ee10c27	0.43954584
21	0xbeeb0d98	-0.4590881
22	0x3f24825e	0.64261425
23	0x3cedd4b7	0.029032094
24	0xbed17aad	-0.40913907
25	0xbf13b89a	-0.57703555
26	0x3ec13eca	0.37743217
27	0xbe9770d2	-0.29578263
28	0x3f2a2f95	0.66478854
29	0x3f0588f9	0.5216213
30	0x3eefa46d	0.46805134
31	0xbf186281	-0.59525305
32	0xbf2f7207	-0.68533367
33	0xbe198803	-0.1499329
34	0xbeb01389	-0.34389904
35	0x3f03b6f1	0.5145102
36	0xbe11d2ff	-0.14240645
37	0xbf061967	-0.5238251
38	0x3ed5b1f9	0.41737345
39	0xbeb962b3	-0.36208114
40	0x3f42f39c	0.7615297
41	0xbdccbe62	-0.0999725
42	0xbda11f3a	-0.07867284
43	0xbec29864	-0.3800689
44	0xbbc083d5	-0.0058750906
45	0xbf0414d0	-0.5159426
46	0x3f347c37	0.70502037
47	0xbeafde08	-0.34349084
48	0x3e3eb3c5	0.18623264
49	0xbeb8ce03	-0.36094674
50	0xbe85e57e	-0.2615165
51	0x3e184c02	0.14872745
52	0x3ef0c1f5	0.47022977
53	0xbe102316	-0.14075884
54	0xbe9c15df	-0.30485436
55	0xbdffbda0	-0.1248734
56	0xbea559c1	-0.3229504
57	0x3cbe60a4	0.023239441
58	0x3f0724e1	0.5279065
59	0x3f0b62bb	0.54447526
60	0x3ec65c27	0.38742182
61	0xbd7c3254	-0.061571434
62	0x3eaab036	0.33337563
63	0xbe334c16	-0.17509493
64	0xbccb3e04	-0.024809845
65	0xbed74c85	-0.42050567
66	0xbea5ce9c	-0.32384193
67	0xbe50eb25	-0.204022
68	0x3f2651cf	0.6496858
69	0xbe814f3f	-0.25255772
70	0x3e02b8ce	0.1276581
71	0x3e104eb8	0.14092529
72	0x3ee16fd0	0.4403062
73	0xbf285fd1	-0.65771204
74	0x3f1a26fe	0.6021575
75	0x3e4e9ba5	0.20176561
76	0x3dcc881e	0.099869
77	0x3dc313aa	0.09525235
78	0x3ea978ee	0.33100075
79	0xbf1e0e2d	-0.6174038
80	0x3ed18fa1	0.40929893
81	0xbf01cfd0	-0.5070772
82	0xbf030242	-0.5117532
83	0xbcdb2f9c	-0.0267561
84	0xbe9782cc	-0.29591978
85	0x3f3edf65	0.74559623
86	0x3c9025d6	0.017596167
87	0x3e912171	0.28345826
88	0x3e670e2e	0.22564003
89	0xbf1d8449	-0.61529976
90	0xbf05d120	-0.52272224
91	0xbf21803e	-0.6308631
92	0xbef15c99	-0.4714096
93	0x3e183054	0.14862186
94	0x3eb084a3	0.34476194
95	0xbe1923e4	-0.14955097
96	0xbdeb91c0	-0.11502409
97	0x3ec508e4	0.38483346
98	0x3d0ab69b	0.033865552
99	0x3e346844	0.17617899
100	0xbda60443	-0.081062816
101	0x3e7a5436	0.24446186
102	0xbdb83694	-0.08994785
103	0xbed7dcd9	-0.4216068
104	0x3f20815c	0.62697387
105	0x3f02d018	0.51098776
106	0xbf01bb38	-0.506763
107	0xbea9ca73	-0.3316227
108	0xbeca14c1	-0.3946896
109	0xbe48bbba	-0.19602862
110	0xbe180dda	-0.14849034
111	0x3d159e0b	0.036527675
112	0x3f19c6f1	0.60069185
113	0xbf1b6b75	-0.6071084
114	0x3de2d9ef	0.11076724
115	0x3eead445	0.45865074
116	0x3edf2e60	0.4359007
117	0x3e88c589	0.26713207
118	0x3ef3948b	0.47574267
119	0xbf1bc503	-0.6084749
120	0x3f057ed6	0.5214666
121	0x3ef01c05	0.46896377
122	0xbe1c6252	-0.15271881
123	0xbe6f1ce8	-0.2335087
124	0x3cd77360	0.026300132
125	0xbeed943a	-0.4640215
126	0xbf03144e	-0.5120286
127	0xbed2e137	-0.4118745
128	0xbef8c5d0	-0.4858842
129	0x3ea6eaf1	0.3260112
130	0x3f142167	0.5786347
131	0x3e486ac6	0.19571981
132	0xbecf9f45	-0.405512
133	0x3efa9342	0.48940474
134	0xbed22d94	-0.41050398
135	0xbf097db7	-0.5370745
136	0xbeba1613	-0.36344966
137	0x3f2e04fa	0.67976344
138	0x3c4d4c80	0.012530446
139	0x3f23f34f	0.64043134
140	0xbf2d0edd	-0.67600805
141	0x3eadfb38	0.33980727
142	0x3bbfdade	0.0058549484
143	0x3cc047a5	0.023471663
144	0x3e6f48a6	0.23367557
145	0x3ee98230	0.45607138
146	0x3ecab1d7	0.39588806
147	0xbec83a06	-0.39106768
148	0xbf360525	-0.711016
149	0xbf0bb818	-0.5457778
150	0xbe9e39f9	-0.30903605
151	0x3ee42d55	0.44565836
152	0x3e4400ca	0.19140926
153	0x3ddd2b2b	0.10799249
154	0xbd306836	-0.043068133
155	0x3e602ec1	0.21892835
156	0xbec374e4	-0.38175118
157	0xbf231502	-0.6370393
158	0xbee1dc0b	-0.44113192
159	0x3e32e2d2	0.17469338
160	0x3e5fa716	0.21841082
161	0x3e3bf2a8	0.18354285
162	0x3e27892e	0.16360924
163	0xbf106dfc	-0.5641782
164	0xbf27eaf9	-0.65592915
165	0x3e11d002	0.14239505
166	0x3e26d6e9	0.16292919
167	0x3f0d06e2	0.5508863
168	0xbe50e9af	-0.20401643
169	0x3eca8270	0.3955264
170	0xbe8a1653	-0.26970157
171	0x3d84a828	0.06477386
172	0xbf194b5d	-0.5988062
173	0x3f2ba823	0.6705343
174	0x3ee6a484	0.4504739
175	0xbecd2d4f	-0.4007363
176	0xbeb60a2c	-0.35554636
177	0xbe1d6d1e	-0.15373656
178	0x3f1dbe87	0.61618847
179	0xbefc4bad	-0.49276486

conv1.bias f4 [20]
0	0xbccf3844	-0.025295384
1	0xbd17d874	-0.03707166
2	0xbdc24b35	-0.09487001
3	0xbc662dab	-0.014048974
4	0xbe07b88b	-0.13253991
5	0xbd1c44b8	-0.038151473
6	0x3d8c802c	0.06860384
7	0x3e5b2e5a	0.214044
8	0xbd95b813	-0.073105
9	0xbd4fb1fe	-0.050706856
10	0xbcde8dff	-0.027167318
11	0x3e063828	0.1310736
12	0x3e120992	0.14261463
13	0x3c43edc3	0.011958542
14	0xbddffe67	-0.10937195
15	0x3d50eb93	0.05100591
16	0xbdad4765	-0.08460883
17	0xbd7c0f1b	-0.061537843
18	0xbc99d145	-0.018776545
19	0xbcc35772	-0.023845408

fc1.weight f4 [5, 1440]
0	0xbe5abf08	-0.21361935
1	0xbb07dad2	-0.0020729792
2	0xbe0a535c	-0.13508362
3	0xbc8f4c55	-0.017492453
4	0xbd1a2a01	-0.037637714
5	0xbc83839e	-0.01605397
6	0x3e698ff0	0.22808814
7	0x3dcb6e57	0.09933155
8	0x3e6a8c81	0.2290516
9	0xbd0d3e2b	-0.034483116
10	0xbda7a142	-0.08185054
11	0x3d490397	0.04907569
12	0x3b48def5	0.003065047
13	0xbcfd02dc	-0.030885153
14	0x3d5935ce	0.053029828
15	0x3e4e3ca3	0.20140319
16	0x3e84afda	0.25915414
17	0x3e80dfaa	0.25170642
18	0xbd0f301f	-0.034958
19	0xbd6ac949	-0.057320867
20	0xbdbc1fc1	-0.09185744
21	0x3cc176ed	0.023616279
22	0x3d1c97f8	0.038230866
23	0xbcb6178a	-0.022228021
24	0x3d8084f5	0.062753595
25	0x3e1c847d	0.15284915
26	0x3e2556ea	0.16146436
27	0x3bc87972	0.006117993
28	0xbe0955eb	-0.13411681
29	0x3d7d4e9e	0.061842553
30	0x3d00ffea	0.03149406
31	0xbce0cfc5	-0.027442822
32	0xbad04ac1	-0.0015891419
33	0xbacf8e30	-0.0015835222
34	0x3e3dd9b3	0.18540077
35	0x3d8bb544	0.06821683
36	0xbe102566	-0.14076766
37	0xbd3dade1	-0.046308402
38	0xbd323dea	-0.043516077
39	0xbc01203e	-0.007881222
40	0x3cc04f80	0.023475409
41	0xbcfec214	-0.031098403
42	0x3ca44a3a	0.020054925
43	0xbd6159d5	-0.05501731
44	0x3e0101da	0.12598363
45	0xbe098f8f	-0.1343367
46	0xbd44d2a2	-0.048052438
47	0xbd5d75ab	-0.054067295
48	0x3b41a7b6	0.0029549426
49	0xbd1b34ab	-0.037892025
50	0x3ce769a3	0.028248614
51	0xbd1c211d	-0.038117517
52	0x3c544248	0.012955256
53	0xbc06dcb3	-0.00823133
54	0x3d1aef41	0.037825827
55	0xbda4e57d	-0.08051584
56	0xbc8fede9	-0.0175695
57	0xbdd28173	-0.10278597
58	0x3d267377	0.04063746
59	0xbe2241b8	-0.15845382
60	0xbbd3ac75	-0.0064597675
61	0xbdd76c26	-0.105186746
62	0x3cb4a67d	0.022052044
63	0x3cc51cee	0.024061646
64	0xbc6bad33	-0.014384556
65	0xbcc90252	-0.02453724
66	0xbe204aad	-0.15653487
67	0xbe08c716	-0.13357195
68	0xbe5858d5	-0.21127637
69	0xbdb0ea7c	-0.08638474
70	0xbe2d65dd	-0.16933389
71	0xbd098f5c	-0.033583984
72	0xbe0cbce9	-0.13743939
73	0xbdce9b4c	-0.10088214
74	0xbcd0d54d	-0.025492335
75	0xbe41fe90	-0.18944764
76	0xbc4f4228	-0.01265005
77	0xbd14d39c	-0.03633462
78	0x3de91b30	0.11382139
79	0x3ead11bd	0.33802596
80	0x3e7ecbf7	0.24882494
81	0xbd9edd02	-0.07756998
82	0xbdb22943	-0.08699276
83	0xbe4ece4b	-0.20195882
84	0xbe0dc124	-0.13843209
85	0xbd674de5	-0.05647077
86	0x3dd8f252	0.10593094
87	0x3e4c54d6	0.19954237
88	0x3e890517	0.26761696
89	0x3e4b47da	0.19851628
90	0x3af48e14	0.0018658065
91	0xbd60f005	-0.0549164
92	0xbd28242e	-0.04105013
93	0x3c238783	0.009981039
94	0xbcc514b4	-0.024057724
95	0x3c1b2a6f	0.009470566
96	0x3dc4c324	0.096075326
97	0x3e58ab1c	0.21159023
98	0x3e84926b	0.25892958
99	0xbc637aef	-0.01388429
100	0xbe3914f9	-0.18074407
101	0x3dec87f9	0.11549372
102	0x3cb26a95	0.021779338
103	0xbcfd5a94	-0.03092698
104	0xbc4543f4	-0.012040127
105	0xbd345137	-0.044022765
106	0x3e5688ed	0.2095067
107	0x3d443522	0.047902234
108	0xbe1a7243	-0.1508265
109	0xbdfaedd7	-0.122523956
110	0xbd8bf167	-0.06833153
111	0x3c36cb27	0.011156834
112	0xbd7685ad	-0.060186077
113	0xbd9dccec	-0.07705101
114	0xbda2ce17	-0.07949465
115	0x3d82add8	0.06380814
116	0x3d378ef0	0.04481405
117	0xbe36a0d4	-0.17834789
118	0xbde0e5ba	-0.10981317
119	0xbe21a4f5	-0.15785582
120	0xbc235dc9	-0.009971091
121	0xbd0207e4	-0.031745806
122	0xbd952a1e	-0.07283424
123	0xbd0ab05a	-0.03385959
124	0xbbdb3b79	-0.0066904393
125	0xbd65950c	-0.056050345
126	0x3ca3813b	0.019959083
127	0xbd9ada15	-0.07561127
128	0xbd2525d3	-0.040319275
129	0xbd066f0d	-0.03282075
130	0x3d1c1e70	0.038114965
131	0xbd5cf898	-0.053948015
132	0x3ccf9a76	0.025342207
133	0xbda28d75	-0.07937137
134	0x3cb0e7fb	0.021594992
135	0x3d113420	0.0354501
136	0xbd4548b0	-0.048165023
137	0xbce2341d	-0.02761274
138	0xbde91c88	-0.11382395
139	0xbe15d64f	-0.14632533
140	0xbe6d4100	-0.23169327
141	0xbdef03e6	-0.116706654
142	0xbe84cb16	-0.25936192
143	0xbcd369a0	-0.025807202
144	0xbe179a41	-0.14804937
145	0xbe2958c9	-0.16537775
146	0xbde571a8	-0.11203319
147	0xbdd5e9b4	-0.10444966
148	0xbe11fa87	-0.14255725
149	0x3d33b53f	0.04387402
150	0x3e87322f	0.26405475
151	0x3e1f5806	0.15560922
152	0x3e7a1c16	0.24424776
153	0xbd74b940	-0.05974698
154	0xbddc8f1d	-0.10769484
155	0x3d5caafb	0.053873997
156	0xbcc6462b	-0.02420338
157	0xbd19132b	-0.037371796
158	0x3d542544	0.05179335
159	0x3d5b8cde	0.05360114
160	0x3ea40be2	0.32040316
161	0x3d53510e	0.05159097
162	0xbe15e1bf	-0.14636897
163	0x3ce9baf0	0.028531522
164	0xbd449f79	-0.048003647
165	0xbb9dd6d5	-0.0048168697
166	0xbcb0e94c	-0.02159562
167	0xb9c239e2	-0.0003704569
168	0xbc8d3583	-0.01723743
169	0xbcf16292	-0.029465947
170	0x3e208ffa	0.15679923
171	0x3c2cad0b	0.0105393035
172	0xbdab9ac3	-0.08379128
173	0xbce2112e	-0.027596083
174	0xba243425	-0.00062638737
175	0xbc3fe3c3	-0.0117120175
176	0xbd0f210e	-0.034943633
177	0x3ca986c0	0.020694137
178	0x3e75f8d0	0.24020696
179	0x3dccebcf	0.100059144
180	0xbd9611b5	-0.07327596
181	0xbd5849bd	-0.052804697
182	0xbd911c0c	-0.07085428
183	0x3c0d85f3	0.008637893
184	0x3ac5bdc3	0.0015086461
185	0xbd10b559	-0.035329197
186	0xbda42b7e	-0.08016108
187	0x3cc5a3bd	0.024125928
188	0x3d13e5b2	0.036107726
189	0xbe23938b	-0.15974252
190	0xbd1a2f40	-0.037642717
191	0xbdd169ca	-0.10225256
192	0xbc0fb88e	-0.008772029
193	0xbda7e1be	-0.08197354
194	0xbd1272fd	-0.035754193
195	0xbd86f385	-0.065894164
196	0x3d26538a	0.040607013
197	0xbd389616	-0.045065008
198	0xbbaefebc	-0.0053404253
199	0xbe19e003	-0.1502686
200	0xbdc4d0fe	-0.096101746
201	0xbdd01fd6	-0.10162322
202	0xbe182f4a	-0.1486179
203	0xbdb357b3	-0.08756962
204	0xbe129fcd	-0.14318772
205	0xbd9ba2f7	-0.075994425
206	0x3cc54e18	0.02408509
207	0x3cbd798b	0.023129245
208	0x3cb4b25c	0.022057705
209	0xbdde9cfe	-0.10869788
210	0xbdea9d9d	-0.114558436
211	0xbe202903	-0.15640645
212	0xbe136b5e	-0.14396426
213	0xbed654cd	-0.41861573
214	0x3d1592c1	0.03651691
215	0xbdacdc94	-0.084405094
216	0xbe1568cc	-0.14590758
217	0xbe75327a	-0.23945037
218	0xbe41bd08	-0.18919766
219	0xbe950285	-0.29103485
220	0xbe6bec4f	-0.23039363
221	0x3e9a1a02	0.30097967
222	0x3e4b4e1c	0.19854015
223	0x3e1b20db	0.15149252
224	0x3d3a7efa	0.04553125
225	0xbe1d7adb	-0.15378897
226	0xbcd28b21	-0.025701107
227	0xbdefb5fe	-0.11704634
228	0xbd7c1d4f	-0.06155139
229	0xbd38b0f6	-0.045090638
230	0x3e17f233	0.14838485
231	0x3e2e591d	0.17026182
232	0x3ead0428	0.33792233
233	0x3dc13e67	0.094357304
234	0xbe1ec95a	-0.15506497
235	0xbc3e7703	-0.011625054
236	0x3cb163d0	0.02165404
237	0xbbee5a21	-0.007273928
238	0xbcdaf21b	-0.026726773
239	0x3ba2c3cb	0.004967188
240	0x3da7ef5b	0.0819995
241	0x3e229b0b	0.15879457
242	0x3e925f9b	0.28588566
243	0xbe14cfed	-0.14532442
244	0x3ca5d7c9	0.020244496
245	0xbb525b6a	-0.0032097944
246	0xbc629dde	-0.013831584
247	0x3c095926	0.008383071
248	0xbcffd6d3	-0.031230366
249	0x3dc5d00c	0.096588224
250	0x3dd72c0c	0.10506448
251	0x3e8ab810	0.27093554
252	0xbd9bff05	-0.076170005
253	0xbe11b639	-0.14229669
254	0xbd23242b	-0.039829414
255	0xbca4b4d9	-0.020105766

fc1.bias f4 [5]
0	0x3b5f8ef3	0.0034112304
1	0x3b1f24cd	0.002428341
2	0xbcba99a3	-0.022778338
3	0x3aa3bb5a	0.0012491748
4	0x3c975576	0.018473368

fc2.weight f4 [2, 5]
0	0x3d4286c3	0.0474918
1	0x3e87ac37	0.26498577
2	0xbf48a825	-0.7838157
3	0xbebfeba1	-0.37484458
4	0x3ef0bc7f	0.4701881
5	0xbf488f9e	-0.7834414
6	0xbf39ec35	-0.7262605
7	0x3d7bb4ef	0.06145185
8	0x3f03460d	0.51278764
9	0xbf50d4e9	-0.81574875

fc2.bias f4 [2]
0	0x3e0b89de	0.13626811
1	0x3f031dda	0.51217425
