5_train_and_test_model/4_2_Ablation Analysis/CNN-3D/model_3D/sb4/fold3.ckpt (torch, 31751 bytes, 6 tensors)

conv1.weight f4 [20, 1, 1, 3, 3]
000000 4c 84 88 be b8 1b cd 3e 94 62 f7 bd 18 af d7 be
       -0.26663435 0.4006021 -0.12079349 -0.42125773
000010 3a db 07 3f ea 04 29 bf 4d d3 05 3f 47 fc 2d 3c
       0.5306889 -0.66023123 0.52275544 0.01061923
000020 65 0a 80 3d 9c 7e db 3d 7c fc ff 3e e4 3c 82 3e
       0.062519826 0.10717508 0.49997318 0.2543708
000030 d2 b7 c2 3d ed ab 0a 3f 16 89 ac 3e a6 63 c7 bd
       0.09507717 0.5416859 0.33698338 -0.09735803
000040 3f a3 03 bf b9 0b 60 be e3 b5 a2 be fd 5f 14 3f
       -0.5142097 -0.21879472 -0.31779394 0.57958966
000050 9d cb ac be 96 00 92 3e e1 27 1e bf e2 8c 16 3f
       -0.33749095 0.28516072 -0.617796 0.5880872
000060 1d 61 7f 3d 69 fc ca bd 9d b3 cf 3d 7f fa 32 be
       0.062348474 -0.09911425 0.101416804 -0.17478369
000070 49 83 f5 3d 72 72 39 3f 19 9e 01 bf ad 78 e2 3e
       0.11987931 0.72440255 -0.5063186 0.44232693
000080 fb 40 08 bf 35 bf 0c be 46 9e 26 3f 35 6c 95 be
       -0.5322415 -0.13744815 0.65085256 -0.29184118
000090 cd f9 c7 b9 08 52 c0 be 66 55 1d 3f f2 c1 0f bd
       -0.00038142354 -0.37562585 0.6145843 -0.03509707
0000a0 86 fb e7 3e 73 bc 22 bf ee 3d de 3e af 6e f8 be
       0.45309085 -0.635688 0.43406624 -0.48521945
0000b0 8b 26 2a 3d 83 4e 90 bc 5c d9 7c 3e 28 9d 60 3e
       0.041540664 -0.017615562 0.24692291 0.2193495
0000c0 18 b3 07 3f f5 f7 b0 be 9f 38 af 3e 76 9b 16 bf
       0.5300765 -0.34564176 0.34222886 -0.58830965
0000d0 d3 f6 df be c1 91 af be 06 d5 03 be 40 67 cc 3c
       -0.43743 -0.3429089 -0.1287423 0.024951577
0000e0 23 11 f4 3e c4 04 19 bd 6d 88 a9 be 13 1f f5 3e
       0.47669324 -0.03735806 -0.33111897 0.4787527
0000f0 18 9f 03 3f 11 7e f1 be 90 c7 04 3f 71 60 a9 be
       0.5141463 -0.47166494 0.5186701 -0.3308139
000100 cd 35 e6 3e 72 b2 7e 3e d0 84 ef 3e 40 fa 39 bf
       0.44962922 0.24872759 0.46781015 -0.72647476
000110 2d 71 2e bf 96 05 b0 3d 64 dd a9 bd bd 70 cc 3e
       -0.6814144 0.085948154 -0.0829418 0.39929762
000120 be db f1 3e 2b 2d 08 3f 68 47 dc be d4 8f e9 be
       0.47237962 0.5319392 -0.4302323 -0.45617545
000130 1d b6 62 3e 97 65 0c 3f 00 66 be be 86 ac 19 3f
       0.22139783 0.54842514 -0.37187195 0.60028875
000140 a3 c8 08 bf 22 44 f2 3d f5 85 ba be 90 35 33 bf
       -0.5343115 0.118294016 -0.36430326 -0.70003605
000150 ae 34 1a 3f d2 60 e4 be 07 d6 03 3f ec 49 e0 3b
       0.6023663 -0.44605118 0.51498455 0.0068447497
000160 b6 d0 6c be a4 87 54 bd 19 57 92 3e f2 6d a2 3e
       -0.23126492 -0.05188717 0.28582075 0.31724507
000170 e4 d2 da be d5 8d 26 bf 62 dc 12 bf d1 e6 18 3f
       -0.42739022 -0.6506017 -0.5736753 0.597272
000180 c5 7a c7 3e 32 6f 9e bd fc 5f 17 3d 1d 40 db 3e
       0.38960853 -0.077360526 0.036956772 0.42822352
000190 94 19 70 3e 74 d8 af be 7b 6f 85 be 14 8f d0 3e
       0.23447257 -0.34344828 -0.26061615 0.4073416
0001a0 81 20 0f bf 51 4a a1 3e 40 75 04 3f f5 c9 13 bf
       -0.5590897 0.3150201 0.5174141 -0.57730037
0001b0 3c c6 03 3f eb 8a 0c bf 29 68 d0 3e e9 07 ef bd
       0.51474357 -0.5489947 0.40704468 -0.116714306
0001c0 55 61 ee be a9 d1 22 bf 0a 5c cf be 53 6f 04 3f
       -0.46558633 -0.63601166 -0.40499908 0.5173237
0001d0 81 b2 4a 3e cd 35 ef be 1d 26 7e bd d3 8b 93 be
       0.19794656 -0.46720734 -0.062048066 -0.28817615
0001e0 05 7f 5b bd 2c a2 04 3f 80 f7 22 bf 27 12 ac 3e
       -0.053587932 0.51809955 -0.63658905 0.336076
0001f0 6b 18 c7 3e d5 0b b1 3e f6 a2 ec be ee 3b 17 3f
       0.38885817 0.3457934 -0.4621808 0.5907582
000200 c5 40 f5 be 72 09 04 be 33 bc 9b 3e 16 f4 21 3f
       -0.47900978 -0.12894228 0.30417022 0.6326307
000210 f9 48 c6 3e ed aa 39 be 28 4e 71 be 3a 50 7f be
       0.3872755 -0.1813161 -0.2356497 -0.24932948
000220 85 e0 10 3f 6b 4f 8e be 04 b5 5a 3b 9b 04 fd 3e
       0.5659259 -0.27794966 0.0033372054 0.49417576
000230 90 7a f9 be 3a bb da be c6 67 fa 3e 78 70 7f be
       -0.4872632 -0.42720968 0.48907298 -0.24945247
000240 68 eb b9 be 4c 93 f5 be 19 23 ca 3e 8f 40 0f 3f
       -0.36312413 -0.4796394 0.39479902 0.55957884
000250 23 55 fc be 1f 92 cc be f3 c1 0f 3f 3c 5e 17 3f
       -0.49283704 -0.39955232 0.5615532 0.59128165
000260 ac d8 0c bf a2 02 e5 3e 36 f5 87 3e 50 5b 31 bf
       -0.55018115 0.4472857 0.2655427 -0.69279957
000270 ea c1 af be d1 f0 89 3e 3c 64 20 3f c5 cd ae be
       -0.34327632 0.2694154 0.62652946 -0.34141365
000280 b4 8f ae 3e 8f ce e1 be cb 5b 37 3d d0 65 10 bf
       0.34094012 -0.44102904 0.044765275 -0.56405354
000290 ae 09 0c 3f 72 9c 22 bf 0b 6b 06 3f da b4 12 bf
       0.5470227 -0.63519967 0.52507085 -0.5730721
0002a0 d1 f1 94 3e b3 10 91 3e e3 1a a6 bd 80 34 65 3e
       0.2909074 0.28333053 -0.08110597 0.22383308
0002b0 00 d8 2e bf 21 e0 67 3e c4 e1 ad bc a2 9c 11 3f
       -0.6829834 0.22644092 -0.021225818 0.5687963
0002c0 17 a0 ba 3e db b8 ec bd 4a c6 6b bd 08 e8 92 be
       0.36450264 -0.11558696 -0.05756215 -0.2869265

conv1.bias f4 [20]
000000 f2 1a a5 bd a7 c0 00 be 78 ec c1 bd 76 ad a0 bd
       -0.0806178 -0.12573491 -0.09468931 -0.07845585
000010 55 49 96 3d 6a 12 a5 bd 4e 15 85 bd 36 b4 05 bd
       0.07338206 -0.08060153 -0.06498204 -0.032642566
000020 29 15 74 bd b1 f8 92 bd 9c ea 10 bc 17 41 5e 3c
       -0.059590492 -0.0717634 -0.008844998 0.013565323
000030 f3 fe 04 3e fc 72 b0 3d 19 8a 1a bd 9b fd ec bd
       0.1298788 0.086156815 -0.037729356 -0.11571809
000040 cd 20 8a bd 9c 6e 29 3d 41 79 6d bc cd 9d 87 bc
       -0.067445375 0.04136525 -0.014494241 -0.016554737

fc1.weight f4 [5, 1440]
000000 ca 14 1b be fd 6f 2c be e0 20 98 bb 40 7b 69 bd
       -0.15144649 -0.16839595 -0.004642591 -0.057002306
000010 40 f1 54 bb d6 c6 01 3e e6 d1 7a 3d 0d aa 73 3e
       -0.003249243 0.12673506 0.06123533 0.23795338
000020 51 f6 b6 3d 70 88 29 be 58 f0 1c be fe cf 85 bb
       0.089337 -0.16555953 -0.15326059 -0.0040836325
000030 6b 07 74 bd 5a 52 20 bd a6 ee a9 3d a7 47 13 3e
       -0.059577387 -0.039141037 0.08297472 0.14382802
000040 2f 79 63 3d bd 95 df 3d 08 09 c7 3d f7 8e 84 bd
       0.05553549 0.10917232 0.097185194 -0.06472581
000050 5c 04 dd bd be 3d 95 bc 80 5d 8a 3b 4c 21 41 3b
       -0.10791847 -0.018217918 0.004222572 0.002946931
000060 9c fa cc 3d c4 7e 7f 3e d4 d9 5c 3e ea f8 96 bd
       0.100087374 0.24950701 0.2156747 -0.07371695
000070 aa ec bc bd 9a 46 03 be ef 61 fc bc 27 ce 8a bc
       -0.092248276 -0.12819901 -0.030808417 -0.016944004
000080 81 ae 9a bd 63 ee 06 be ab f1 00 3e 01 48 60 3e
       -0.07552815 -0.13176875 0.12592189 0.21902467
000090 9b 53 1d be 93 19 68 be 02 62 ee bd ca ce 41 bd
       -0.15363924 -0.22666006 -0.11639787 -0.04731635
0000a0 87 c9 10 bd 3f 3e 6d bd cb e4 da bd 68 fd b7 3d
       -0.03534844 -0.05792069 -0.1068817 0.0898388
0000b0 16 95 ce 3d 86 3c 1b be cf 67 20 be f8 16 e9 bd
       0.1008703 -0.15159807 -0.156646 -0.11381334
0000c0 c1 0e 36 be 64 87 ee bc b6 aa ac bd 17 f4 1a bc
       -0.17779066 -0.029117294 -0.08430998 -0.00945761
0000d0 28 6c 29 bd f4 79 b1 3d e0 6c 3d bd 3a 6c 17 bc
       -0.04136291 0.08665839 -0.04624641 -0.009242112
0000e0 c4 c6 51 bc b5 9e 12 3b 84 bb 09 bc 04 f0 31 bd
       -0.012803737 0.0022372429 -0.008406524 -0.043441787
0000f0 cb 8a 41 3c 26 f6 31 3b 13 bc 6b bd eb 76 27 3c
       0.011812876 0.0027154773 -0.05755241 0.010221223
000100 64 9a d1 bc 6e 83 58 bd bc f5 c5 bd fe 56 09 be
       -0.025586314 -0.052859716 -0.09666011 -0.13412091
000110 3d 19 e6 bd 73 fa 04 be c4 ff fa bd 56 8e af bd
       -0.112352826 -0.12986164 -0.12255815 -0.0857207
000120 13 8f 98 be 71 d7 34 be b7 d2 2c be 57 05 8e bd
       -0.29796657 -0.1766031 -0.16877256 -0.06934612
000130 60 44 a1 bd 80 26 81 3e a4 2e 8d 3e 80 c8 7f 3e
       -0.078743696 0.25224686 0.27574646 0.24978828
000140 9d d6 5f 3e 93 72 e4 bd 26 40 b2 3c 17 3f 3e bd
       0.21859212 -0.11154666 0.021759104 -0.046446886
000150 7b 74 72 bd 2a 7e ac bd 36 e3 81 3d 74 c2 e6 3d
       -0.059193116 -0.084225014 0.06342165 0.11267558
000160 8d d8 36 3e 75 7c 56 3e 86 35 d2 bd 37 9f 70 bc
       0.17856045 0.20945914 -0.10264115 -0.014686397
000170 ae 0a 82 3d 99 34 9c b9 b3 da a8 3c 29 73 ce 3c
       0.06349693 -0.00029793827 0.020612096 0.025201397
000180 29 03 c1 3d d9 0a 86 3d 21 9d c9 3d a6 1d d2 bd
       0.09424431 0.06545038 0.09844423 -0.10259561
000190 c9 36 f2 3c 60 d7 81 3d bf 6e 06 3d 1f b4 93 bc
       0.02956714 0.06339908 0.03282046 -0.018030224
0001a0 b6 dc 90 3b dc 12 6f 3d 8f 41 95 bc a8 dd dc 3d
       0.004420842 0.058367595 -0.018219737 0.10784465
0001b0 15 e7 14 be bd 40 c9 bd eb 2d 44 bd 06 45 53 bd
       -0.14541276 -0.09826801 -0.047895353 -0.051579498
0001c0 5f 6f 0b bd 7e 7b 54 bd ab ad 0d bd f4 0d ef 3c
       -0.03404176 -0.051875584 -0.03458945 0.029181458
0001d0 31 c7 88 3d f9 fd 0b be 7b b6 a9 bd c0 b3 9f bd
       0.06678618 -0.13671102 -0.082867585 -0.077979565
0001e0 1d 01 d8 bc 21 de cd bb 0a e8 7b 3c 02 73 49 bd
       -0.026367718 -0.0062825833 0.015375147 -0.049181946
0001f0 b4 5e 20 bc 3f c8 d6 3b a3 35 91 39 c4 a3 79 bd
       -0.009788204 0.006554633 0.00027696518 -0.060947195
000200 5c 82 16 bd 88 53 c0 ba 7b 2e 4a bd 79 bb e3 3b
       -0.036745414 -0.0014673332 -0.049360733 0.0069498387
000210 ea bd 55 bd e9 ac c4 3c 50 2e c6 bc d1 85 b3 3c
       -0.05218307 0.024008231 -0.024192005 0.021914395
000220 9c 09 11 bc c2 c1 77 bc 1e 40 04 bd 42 1e 13 3c
       -0.008852389 -0.015121879 -0.03228771 0.008979382
000230 52 ff 83 bd 0e 53 00 be f0 34 76 bd 7f bc b5 bd
       -0.06445183 -0.12531683 -0.06010908 -0.088738434
000240 5b b0 57 be 1a ca 8f bd 0b 91 97 be ec 59 64 be
       -0.21063368 -0.0702097 -0.29602847 -0.22299927
000250 a9 53 c9 be 6b 83 23 3e fe 7c 90 3e be 40 64 3e
       -0.3932164 0.159681 0.2822036 0.22290322
000260 ae 68 61 3e 09 e0 89 bd b3 51 6a be af d1 41 bd
       0.22012588 -0.067321844 -0.22882728 -0.04731911
000270 34 6d de bd a7 ca 30 3c 18 a4 83 3e 76 25 4c 3e
       -0.108606726 0.010790504 0.2571113 0.19936165
000280 2e cf e6 3d eb 9b 2b 3e 64 56 5e 3c d2 87 10 be
       0.11269985 0.16758697 0.013570402 -0.14114311
000290 68 3f 01 be 46 ce 9c bd 86 89 1a bd 58 58 ad bd
       -0.12621844 -0.07656531 -0.03772881 -0.08464116
0002a0 ad 45 29 3e b9 2f 8a 3e 9f bb 97 3e ec aa 40 be
       0.16530485 0.26989534 0.2963533 -0.18815202
0002b0 2c 8e 58 3d 93 48 03 bd de d8 b1 bd 4c 12 b2 bd
       0.05286996 -0.032051634 -0.08683942 -0.08694896
0002c0 ff aa d1 bd 1b 3e 51 bd 21 45 1c 3e 98 44 88 3e
       -0.10237693 -0.05108462 0.15260746 0.26614833
0002d0 e9 7b 5c be ae 0c 31 be 21 1f 19 be b0 a3 88 bd
       -0.21531643 -0.17289993 -0.14953281 -0.06671846
0002e0 c4 ed 31 bd 7b 6a d3 bd a1 9e 8a bd 5e ad f4 3c
       -0.04343964 -0.10323044 -0.06768537 0.029867824
0002f0 f1 41 cb 3d 93 1b 67 be 98 c7 0c be d1 07 2d be
       0.09924687 -0.22569112 -0.13748014 -0.16897513
000300 43 d8 fd bc 72 a9 18 be 3e 1d 2f bd 8e 04 81 bd
       -0.03098691 -0.14908388 -0.042752497 -0.06299697
000310 26 93 66 bd 71 cf 57 3d 7c 1f d4 bd a4 a3 1c bd
       -0.056292675 0.052688066 -0.10357568 -0.038241997
000320 6d 78 ce bd 09 fa ec bb 0d 54 8a bd c4 13 26 bd
       -0.10081563 -0.007231955 -0.06754313 -0.040546194
000330 9f bf 7d bd 03 93 37 bd 49 a2 11 bc 2c b7 25 bc
       -0.061950322 -0.044817936 -0.008888789 -0.010114472
000340 32 82 89 be 21 88 22 be 27 9c 78 be 21 ec a6 be
       -0.26857144 -0.15872242 -0.24278317 -0.32602027
000350 56 01 a9 be fd a2 d3 be c8 50 97 bd 7f b8 8e bd
       -0.33008832 -0.41335288 -0.07388455 -0.069687836
000360 ed cc 03 be 4e 93 99 be e8 82 3b bd 56 43 a5 be
       -0.12871142 -0.29995197 -0.04577914 -0.32277936
000370 73 50 61 bc 9d b2 6f 3e 2b e2 be 3d 44 4e 23 3e
       -0.013752091 0.2340798 0.09320482 0.15947825
000380 de 4d 15 3e 2d 8a 12 bd 57 77 61 3c 1c af 7d be
       0.14580485 -0.035776306 0.013761363 -0.2477383
000390 cd 79 28 be 6c 86 03 3d f1 0b 8b 3e 65 07 06 3e
       -0.16452713 0.032110617 0.27157548 0.13088758
0003a0 72 cc 29 3e 6e 33 44 3e 9b 12 c2 bd c5 2e 3c bd
       0.16581896 0.19160244 -0.09476205 -0.04594304
0003b0 f3 c9 8a 3c d5 41 5b bd 7d 81 35 bd 93 be cb 3d
       0.016942 -0.05352958 -0.044312943 0.099484585
0003c0 5b 37 0b 3d e6 2f 2a 3e 17 fe 5f 3e dd 28 29 be
       0.033988338 0.16619834 0.21874271 -0.16519494
0003d0 8d e9 bd bd e1 92 c8 bd c6 75 5a bd c1 3e d9 bc
       -0.09273062 -0.0979364 -0.053334974 -0.026519181
0003e0 18 8c ed bb 42 63 31 3e 0d a2 14 3e e7 f0 0c 3e
       -0.0072493665 0.1732302 0.14514942 0.13763772
0003f0 40 f8 1b be ed ca 54 be 7f 42 fe bd 1c 1a c3 bd
       -0.15231419 -0.20780535 -0.12415027 -0.09526464

fc1.bias f4 [5]
000000 44 5a de 3c d4 c1 44 3b 23 40 ff 3b 23 0f 3e 3b
       0.027142651 0.0030022757 0.007789628 0.0029000721
000010 b0 24 0f 3d
       0.034947097

fc2.weight f4 [2, 5]
000000 7a 61 f6 3e 80 5f a7 3e e5 af 18 bf 8b 6c 17 3f
       0.48121244 0.32690048 -0.59643394 0.5915
000010 ff b0 12 3f c4 8d c6 be e1 08 43 bf e2 18 14 3f
       0.57301325 -0.38780034 -0.76185423 0.5785047
000020 4d 6e 3a be ec 8c 2d be
       -0.18206139 -0.16948289

fc2.bias f4 [2]
000000 d6 a3 ab bd 25 84 2e 3f
       -0.083808586 0.68170387
