5_train_and_test_model/4_2_Ablation Analysis/CNN-3D/model_3D/sb4/fold4.ckpt (torch, 31751 bytes, 6 tensors)

conv1.weight f4 [20, 1, 1, 3, 3]
0.35079893 0.12618586 -0.5517886 -0.6443536 0.61824274 -0.17452413 -0.4423519 0.23702219
-0.33003822 -0.5391147 -0.070952 0.078827254 0.36848578 -0.6319785 -0.13809592 0.40151656
0.10167278 0.5200485 -0.38691646 0.07350255 0.7020774 -0.3226287 -0.3532215 -0.48181
0.41896546 -0.056148704 0.26383048 0.54647017 -0.6301771 0.61112314 0.5236267 -0.13562915
-0.5961247 -0.19338809 -0.4895406 0.079620995 0.3438577 0.2874383 -0.46348208 -0.6199123
-0.48759115 0.6300659 0.4359404 -0.61315453 0.4895495 0.70285916 0.41188216 -0.35742414
-0.4393878 -0.5946053 -0.5537905 0.2908782 0.08297029 0.07194333 0.121719286 0.5569182
0.5338817 -0.36459428 0.19387925 -0.41294673 -0.527998 0.6084359 -0.32620344 -0.35513383
0.5669742 -0.608181 0.41178823 -0.34106743 -0.22968662 0.20451775 -0.05130442 -0.24398686
0.20810403 0.4399536 -0.057201937 -0.3952811 0.6240164 -0.24245177 -0.4970331 -0.12017076
-0.42685366 0.21148759 -0.56341994 0.12474412 0.44579965 -0.2629643 0.52578557 0.18425731
-0.21783516 0.4802967 -0.57596093 -0.55649716 -0.40111688 0.30046788 0.6448881 -0.3216008
-0.1444679 0.2644541 0.22428593 0.60706306 -0.58933634 0.4943182 -0.6404816 -0.45568722
-0.6648313 0.16467427 0.36703858 0.18250379 0.63107383 0.5640479 -0.5377533 -0.4350006
-0.47272226 0.22416767 -0.106805645 0.0059476173 0.17298882 -0.46789435 0.06015985 0.6654638
-0.5061369 0.47432998 0.2356738 0.35773435 -0.22232245 -0.18657568 -0.17881541 0.5406391
-0.6403136 0.3608374 -0.4180945 0.2639126 0.40025476 -0.37714067 0.04835262 -0.48673674
-0.2540423 -0.36074552 0.47104374 -0.4196951 0.65907663 0.42107815 -0.40768275 0.48451793
-0.46760198 0.4111272 -0.49972755 0.5563281 0.45399955 0.46171564 -0.43878463 -0.028566742
-0.30923104 0.20946252 -0.26993665 -0.40747777 -0.38540936 -0.6838922 0.26053444 0.33483848
0.11495986 0.477347 0.19276401 0.5840757 0.64130825 -0.14743665 -0.17726687 -0.6578021
-0.40174884 -0.011579808 0.31030193 0.11615416 -0.50982296 0.6173565 -0.36100638 0.54286295
-0.5502286 0.36520237 -0.597147 0.22792888
00000000: eb9b b33e de36 013e 0542 0dbf 5cf4 24bf
00000010: 2845 1e3f 74b6 32be f37b e2be f2b5 723e
00000020: c5fa a8be 6c03 0abf 484f 91bd 2f70 a13d
00000030: 2baa bc3e 58c9 21bf 0469 0dbe 9493 cd3e
00000040: d239 d03d e621 053f ea19 c6be 8188 963d
00000050: 58bb 333f 972f a5be 73d9 b4be cdaf f6be
00000060: a482 d63e 2ffc 65bd ca14 873e 78e5 0b3f
00000070: 4953 21bf 9172 1c3f 660c 063f 5ee2 0abe
00000080: a19b 18bf 8707 46be 11a5 fabe 5510 a33d
00000090: 1e0e b03e 1d2b 933e 864d edbe 93b2 1ebf
000000a0: 8ca5 f9be 004c 213f 9533 df3e b2f7 1cbf
000000b0: 3ba6 fa3e 94ee 333f 38e2 d23e 4c00 b7be
000000c0: 70f7 e0be 0e38 18bf 37c5 0dbf fded 943e
000000d0: 54ec a93d 0657 933d f647 f93d 3192 0e3f
000000e0: 79ac 083f 1aac babe 4888 463e c16d d3be
000000f0: e02a 07bf 75c2 1b3f 2304 a7be 1ad4 b5be
00000100: 3925 113f c0b1 1bbf e8d5 d23e 64a0 aebe
00000110: f832 6bbe 1a6d 513e 9524 52bd b1d7 79be
00000120: 3919 553e 9941 e13e 944c 6abd 4962 cabe
00000130: 8abf 1f3f 4745 78be 1f7b febe 161c f6bd
00000140: 908c dabe 3490 583e 4a3c 10bf d879 ff3d
00000150: da3f e43e 42a3 86be e299 063f f3ad 3c3e
00000160: 2e10 5fbe 73e9 f53e 2d72 13bf 9976 0ebf
00000170: 315f cdbe edd6 993e 6317 253f dca8 a4be
00000180: 65ef 13be 8766 873e 36ab 653e 7c68 1b3f
00000190: bfde 16bf 4617 fd3e 9af6 23bf d64f e9be
000001a0: 6232 2abf 5fa0 283e 7bec bb3e 46e2 3a3e
000001b0: 0e8e 213f 7165 103f 33aa 09bf 66b8 debe
000001c0: a708 f2be 368c 653e ebbc dabd 3be4 c23b
000001d0: fb23 313e d98f efbe 2d6a 763d d65b 2a3f
000001e0: 3092 01bf 61db f23e 7954 713e f528 b73e
000001f0: 7fa8 63be b20d 3fbe 631b 37be 5367 0a3f
00000200: 98eb 23bf aebf b83e 7b10 d6be 8d1f 873e
00000210: 31ee cc3e 9518 c1be 660d 463d 8f35 f9be
00000220: d511 82be a3b3 b8be a52c f13e 47e2 d6be
00000230: 3fb9 283f 8e97 d73e cbbb d0be bc12 f83e
00000240: 8769 efbe 447f d23e 4adc ffbe 856b 0e3f
00000250: a172 e83e fe65 ec3e 61a8 e0be cd04 eabc
00000260: 8853 9ebe 587d 563e 2335 8abe eda0 d0be
00000270: 6054 c5be 8f13 2fbf c564 853e f36f ab3e
00000280: 1370 eb3d d366 f43e ee63 453e fc85 153f
00000290: c72c 243f a2f9 16be 7285 35be b865 28bf
000002a0: 06b2 cdbe 3cb9 3dbc e5df 9e3e 3be2 ed3d
000002b0: c283 02bf 130b 1e3f d4d5 b8be 11f9 0a3f
000002c0: c8db 0cbf cefb ba3e a0de 18bf 3066 693e

conv1.bias f4 [20]
0.19766843 -0.164901 0.06753496 -0.10410448 -0.01018985 0.00057822606 0.041255295 0.19507396
-0.01102007 -0.13536431 0.13505049 0.001969422 -0.040281534 -0.087977864 -0.011590969 -0.044743195
0.0056292177 0.00034506645 0.026647378 -0.023346314
00000000: 9869 4a3e cfdb 28be c54f 8a3d bb34 d5bd
00000010: 54f3 26bc 1894 173a 50fb 283d 78c1 473e
00000020: 868d 34bc f19c 0abe ad4a 0a3e 6b11 013b
00000030: 40fe 24bd bd2d b4bd 0ce8 3dbc a444 37bd
00000040: 4d75 b83b 09ea b439 9a4b da3c c540 bfbc

fc1.weight f4 [5, 1440]
-0.09570379 -0.06576248 -0.052335232 -0.032699436 -0.01682202 0.040181782 0.106938235 0.06085801
0.15383616 0.030463824 -0.039910216 -0.047161467 -0.029189942 0.008948672 0.09495603 0.021148441
0.18543783 0.09239334 -0.029886281 -0.005194584 0.007849589 -0.010540439 -0.0017743674 0.06543994
0.010406515 0.09953077 0.17338285 -0.009267423 -0.06578525 0.005863294 0.0058038 0.027681435
0.016776413 0.061225265 0.09919449 0.04502118 -0.0763848 -0.047484096 -0.055284098 0.023506949
0.030506194 -0.032172404 -0.02277612 -0.009775193 0.05316388 -0.047156394 -0.008937169 -0.015122387
0.029629128 -0.013696325 -0.023769336 -0.041498147 0.04359795 -0.053542595 0.0033069965 0.019035826
-0.024089485 -0.029469432 -0.02103783 -0.05100163 -0.011092571 -0.008221826 0.030647673 0.03039265
-0.011944624 -0.0070732543 -0.04057864 -0.08870758 -0.10782196 -0.06841554 -0.07869711 -0.0061177886
-0.2833261 0.0039796326 -0.11953612 -0.078085184 0.038913522 0.016404733 0.22530545 0.20956893
0.2794071 -0.04383002 -0.19219553 0.006601235 -0.06975177 -0.050389312 -0.10462691 0.16856684
0.2614389 0.18727706 -0.17875375 0.048009075 -0.08372094 -0.016089488 -0.023535166 -0.02464325
0.071647376 0.18588616 0.2212246 -0.19664834 -0.18981792 0.14609787 0.0530515 -0.03244617
0.012168138 -0.001724378 0.049714744 0.05686084 -0.16516311 -0.06953589 -0.119918846 0.008123767
-0.03245954 -0.03880607 -0.027039625 -0.0538864 0.12988195 -0.22877815 -0.15430374 -0.13540839
-0.061172754 -0.026553176 -0.0076497095 -0.011069331 -0.069826804 -0.067697056 0.014169165 -0.21359093
-0.013054187 -0.21403623 0.049690075 -0.2848959 0.0025301457 -0.3002582 -0.007711196 0.039088435
0.013048291 -0.055072997 -0.17284337 -0.22835666 -0.14725995 -0.29749888 -0.07018614 0.19756755
-0.11674065 -0.09190294 -0.015458247 -0.23945722 0.01291105 0.17871177 0.08834241 0.17931215
0.1549783 -0.022077393 -0.056276977 0.010854303 -0.023450166 -0.002470009 0.12979375 0.02833264
0.25060448 0.12548093 -0.086573884 -0.10485953 0.027248865 -0.030486623 -0.013688837 0.00857519
0.08007139 0.14818437 0.015109809 0.06170013 -0.027530007 0.033242885 0.005497567 -0.028082274
-0.016621618 0.057878543 0.15196179 0.026958985 -0.057492837 -0.059440807 -0.056326725 -0.03824368
-0.03081564 -0.0070448252 -0.040279154 -0.032512937 0.00081851234 0.0074962704 -0.06890801 -0.05091289
-0.046709727 0.0029622552 -0.017422521 0.014961684 -0.004983966 -0.025235213 -0.020186407 -0.024812138
-0.033754673 -0.04208953 -0.027751137 -0.105312824 0.009760921 -0.02404861 0.09846136 0.03405583
0.011903561 0.025840504 -0.041280624 -0.09031234 -0.05525471 -0.06654953 0.011077339 0.021739496
-0.054570697 -0.25417444 0.019612836 -0.1942049 -0.07027387 0.18113206 0.05152454 0.17230412
-0.011038837 -0.06205259 -0.1435029 -0.015159364 -0.04374655 -0.03210394 0.18405584 0.08705869
0.17198937 0.1968287 -0.059112888 -0.05070318 -0.06808682 -0.021669934 -0.013229101 -0.0676741
0.13148637 0.1342388 0.1756853 -0.0032529535 -0.025956465 -0.016277872 0.0124376165 0.0291678
-0.049530882 0.021539234 0.18829845 0.26735595 -0.05716055 -0.13496895 -0.012688177 0.008260535
00000000: 5900 c4bd 7bae 86bd 785d 56bd d8ef 05bd
00000010: 55ce 89bc a795 243d 6f02 db3d 4046 793d
00000020: 3a87 1d3e 458f f93c e578 23bd 622c 41bd
00000030: bf1f efbc 739d 123c 4f78 c23d 7f3f ad3c
00000040: 6ae3 3d3e b838 bd3d 13d4 f4bc 5437 aabb
00000050: 909b 003c ceb1 2cbc e491 e8ba 6005 863d
00000060: 1680 2a3c cad6 cb3d 468b 313e 64d6 17bc
00000070: 6bba 86bd e020 c03b ce2d be3b 2dc4 e23c
00000080: b06e 893c 58c7 7a3d 7b26 cb3d 2168 383d
00000090: a26f 9cbd af7e 42bd 9471 62bd a591 c03c
000000a0: 20e8 f93c 36c7 03bd fc94 babc 2228 20bc
000000b0: 5ec2 593d 1027 41bd 346d 12bc e3c3 77bc
000000c0: c9b8 f23c 8d66 60bc e9b7 c2bc f6f9 29bd
000000d0: c493 323d 7b4f 5bbd 32ba 583b 05f1 9b3c
000000e0: 5057 c5bc e169 f1bc 8757 acbc 16e7 50bd
000000f0: 9dbd 35bc d6b4 06bc d410 fb3c 02fa f83c
00000100: 62b3 43bc c2c6 e7bb ca35 26bd 52ac b5bd
00000110: c2d1 dcbd 721d 8cbd f32b a1bd bb77 c8bb
00000120: 1e10 91be 9467 823b 5acf f4bd 20eb 9fbd
00000130: c963 1f3d 3863 863c 79b6 663e 3d99 563e
00000140: 730e 8f3e 1b87 33bd e8ce 44be 2c4f d83b
00000150: 04da 8ebd 0665 4ebd a246 d6bd c99c 2c3e
00000160: 52db 853e 8fc5 3f3e 390b 37be 2aa5 443d
00000170: e275 abbd 1ace 83bc d2cc c0bc a4e0 c9bc
00000180: dcbb 923d f158 3e3e b488 623e 2f5e 49be
00000190: a15f 42be ae9a 153e 884c 593d 46e6 04bd
000001a0: df5c 473c 8604 e2ba b0a1 4b3d eae6 683d
000001b0: 8520 29be d568 8ebd 0398 f5bd 8c19 053c
000001c0: 4bf4 04bd 1df3 1ebd 3482 ddbc fcb7 5cbd
000001d0: c6ff 043e d244 6abe cd01 1ebe 7fa8 0abe
000001e0: 4890 7abd 0c86 d9bc 6aaa fabb 245c 35bc
000001f0: 5b01 8fbd c1a4 8abd c925 683c 95b7 5abe
00000200: 3be1 55bc 502c 5bbe d287 4b3d e0dd 91be
00000210: cdd0 253b 71bb 99be 33ae fcbb 321b 203d
00000220: 80c8 553c 3994 61bd dafd 30be 54d6 69be
00000230: 50cb 16be c651 98be c0bd 8fbd 264f 4a3e
00000240: b915 efbd 9c37 bcbd 9644 7dbc 4634 75be
00000250: de88 533c 3800 373e deec b43d 9b9d 373e
00000260: a2b2 1e3e a6db b4bc b082 66bd 3fd6 313c
00000270: 901a c0bc e0df 21bb a7e8 043e da19 e83c
00000280: 3b4f 803e 137e 003e a64d b1bd 98c0 d6bd
00000290: 0339 df3c 15bf f9bc 2547 60bc f47e 0c3c
000002a0: 78fc a33d a5bd 173e 228f 773c 47b9 7c3d
000002b0: 9c86 e1bc b129 083d ef24 b43b cc0c e6bc
000002c0: 0f2a 88bc 0d12 6d3d df9b 1b3e 17d9 dc3c
000002d0: 9c7d 6bbd 3478 73bd dab6 66bd 68a5 1cbd
000002e0: 1571 fcbc 47d8 e6bb c1fb 24bd 492c 05bd
000002f0: 6f91 563a 46a3 f53b a51f 8dbd 098a 50bd
00000300: b352 3fbd 6522 423b adb9 8ebc da21 753c
00000310: 8950 a3bb 14ba cebc f75d a5bc d342 cbbc
00000320: 5742 0abd 1266 2cbd 5a56 e3bc 40ae d7bd
00000330: 45ec 1f3c 9701 c5bc 1ca6 c93d 207e 0b3d
00000340: 2707 433c 77af d33c df15 29bd adf5 b8bd
00000350: c352 62bd 1f4b 88bd ba7d 353c 0717 b23c
00000360: 8685 5fbd 2723 82be 19ab a03c a6dd 46be
00000370: bfeb 8fbd af7a 393e 650b 533d 7e70 303e
00000380: 3ddc 34bc db2a 7ebd 6df2 12be fb5e 78bc
00000390: 952f 33bd 6c7f 03bd 2279 3c3e d44b b23d
000003a0: fb1d 303e 768d 493e 5b20 72bd 23ae 4fbd
000003b0: 1a71 8bbd 2585 b1bc dfbe 58bc b898 8abd
000003c0: 5da4 063e e575 093e d9e6 333e 812f 55bb
000003d0: a7a2 d4bc 2c59 85bc 25c7 4b3c 4ff1 ee3c
000003e0: e5e0 4abd 0c73 b03c 4fd1 403e e1e2 883e
000003f0: 2e21 6abd 4d35 0abe 12e2 4fbc 3257 073c

fc1.bias f4 [5]
0.006339337 -0.018067326 0.019119617 -0.025260206 0.007081771
00000000: 37ba cf3b ee01 94bc bea0 9c3c 7eee cebc
00000010: 330e e83b

fc2.weight f4 [2, 5]
0.77840763 0.63253355 -0.75696945 -0.51407874 0.70015514 0.0631746 -0.53006715 0.59895504
0.28810206 -0.17972404
00000000: b945 473f b8ed 213f c0c8 41bf aa9a 03bf
00000010: 5e3d 333f af61 813d 7bb2 07bf 1e55 193f
00000020: 1d82 933e 9409 38be

fc2.bias f4 [2]
-0.45098656 -0.2329293
00000000: b6e7 e6be 0585 6ebe
