5_train_and_test_model/4_2_Ablation Analysis/CNN-3D/model_3D/sb2/fold1.ckpt (torch, 31751 bytes, 6 tensors)

conv1.weight f4 [20, 1, 1, 3, 3]
00000000: 0808 6d3e 456f bdbe 0505 113e 2699 d6be
00000010: 3351 77be cd9a 04be 3464 ea3e 980a b8bd
00000020: 1b54 19be 334d 8f3d 512e 0cbf 84bc 8a3e
00000030: a5c5 d43e a1be fc3e cdaf cabe 1121 89bd
00000040: 99c0 efbe 9dfe d93e ff9f 083f db23 e1be
00000050: a252 d53e 9b7b 293e d3e0 1bbf 2a3b 2dbe
00000060: 4401 5fbe c376 293f 6509 90be eab0 efbe
00000070: 228e 0f3f 2ac9 15bf 1ba7 e7be d0b5 1c3f
00000080: 4b56 433f a98d 913e 47af eebe 3600 b8be
00000090: 186f c03e 4316 2abf c172 b63e 8cce df3e
000000a0: d501 abbe f5cd e4be 14c0 b2bd b2f8 0b3f
000000b0: 3925 f2be 1b6e db3e 5912 113f 2451 12bf
000000c0: 9cc3 67bc 3ee3 84be 0100 cb3e 0ca6 cebd
000000d0: 0b9d bc3e e81e e9be 6c5e b03e 4420 25bf
000000e0: 2eeb 2cbf 4931 843d 42d6 993e 7448 f83e
000000f0: d801 cc3e 897a 24bf a8f1 363e 69e1 2b3f
00000100: 1ece 01bf 6967 f33e 5573 f4be c4a0 d1be
00000110: 70db 4b3e b110 c83e 25bc 19bd 75f0 7abe
00000120: 976b 1f3d 4306 103f 4ec6 60be f05b dbbe
00000130: 6f5b d5be b551 a33c faf1 333e 5fcc acbe
00000140: e08b b03e abc5 c83e 7945 f53e 6593 1d3f
00000150: 0aaa 1fbf ada7 1fbf 8ea7 a0bd 56a2 903e
00000160: a4c8 83be 86df d73e 718f e53e 7bd7 19bf
00000170: 7f23 0dbe b11b 6bbe 05c7 1c3e b3bf b7be
00000180: 5503 9e3d f1e8 6dbe c368 fa3e 834c 223f
00000190: baff 003f 0230 0bbf adb5 84be 928a 11bf
000001a0: 0f0d b53e cd16 54be 6126 fb3e 65d1 89be
000001b0: 3cbc 2bbf 0e9b aa3e 8d6f 213f e95e 9c3d
000001c0: 0a11 2bbf 6e3e 103f 33eb 113f 17ef 0cbf
000001d0: dd16 9c3e 9599 ab3e 6811 f9be ee9f eb3e
000001e0: c0df 7bbd ff04 e8be d18b 0b3f b810 853d
000001f0: 3b04 153e 1796 ffbe 8e50 0cbf a0cc 29bf
00000200: 0c6a debe f768 113f 0457 1f3f 8c96 c43e
00000210: ac09 a83c 8117 ffbe 143e 5a3e 7eec 18bf
00000220: 4295 fe3e 48cc 1d3f 3661 ee3e 3678 003f
00000230: 4906 e2be 1896 22be 775f f8be b70d 6d3d
00000240: 438a ee3e 6dda dabe 8c36 223f 0c4c f1be
00000250: 0ccd 91be e330 04bf 9e7a 053f d62f 2abe
00000260: c076 2f3e 8512 293e f018 f3be 42e8 09bf
00000270: ac97 61be eda6 cbbe 0659 f93e 1d20 20be
00000280: 172a 083f 68c8 223e 46e8 cfbe 6fee c83e
00000290: 2db0 16bf 20ea 24be 5b85 b93e 7f79 263f
000002a0: a314 7a3e 6f69 23bf 8d14 b93c d850 1b3f
000002b0: 4252 17bf b2f1 113f 5bfb 30be 3736 953e
000002c0: 9844 1cbf a714 bfbe b2d1 df3e 36da 38bd
0.23147595 -0.36998954 0.14162071 -0.41913718 -0.24152069 -0.12949677 0.45779574 -0.089863956
-0.1497349 0.069971465 -0.54758173 0.2709695 0.4155704 0.49364188 -0.3958725 -0.0669576
-0.46826628 0.42577067 0.53369135 -0.43972668 0.41664606 0.16551058 -0.6088993 -0.169171
-0.21777827 0.6619684 -0.28132167 -0.46814662 0.5607625 -0.58510077 -0.4524468 0.61214924
0.7630355 0.2842839 -0.466181 -0.3593766 0.37584758 -0.6644022 0.35634425 0.4371227
-0.33399835 -0.44688383 -0.08728042 0.54676354 -0.47294024 0.4285744 0.5666862 -0.5715506
-0.014145758 -0.25954622 0.3964844 -0.10090265 0.36838564 -0.45531392 0.34447038 -0.6450236
-0.67546356 0.06454713 0.30046278 0.48492777 0.39845157 -0.64249474 0.17865622 0.67140824
-0.50705135 0.47539833 -0.4774424 -0.40942967 0.19907928 0.39075235 -0.037532944 -0.2450579
0.038920965 0.56259555 -0.21950647 -0.4284358 -0.4167132 0.019936422 0.17572775 -0.33749673
0.34481716 0.3921331 0.47904566 0.6155303 -0.62368834 -0.6236523 -0.078444585 0.28248852
-0.25739014 0.42162722 0.44836 -0.6009442 -0.13783072 -0.22959782 0.15310295 -0.35888442
0.07715479 -0.23233391 0.48908052 0.63398 0.5039021 -0.5437013 -0.25919858 -0.56852067
0.35361525 -0.20711823 0.49052718 -0.26917568 -0.670841 0.33321422 0.6306084 0.0763529
-0.66822875 0.5634526 0.5699951 -0.5505232 0.30486193 0.3351561 -0.48646092 0.46020454
-0.06149268 -0.45316312 0.5451022 0.064973295 0.14552395 -0.49919197 -0.54810417 -0.6632786
-0.43440282 0.5680079 0.6224215 0.38396108 0.020512424 -0.4982262 0.21312743 -0.5973586
0.4972325 0.61639833 0.4655854 0.5018343 -0.4414542 -0.15877569 -0.48510334 0.057874408
0.4658986 -0.4274477 0.6336448 -0.47128332 -0.2847675 -0.51637095 0.52140224 -0.1661981
0.17135143 0.16510971 -0.47479963 -0.5387002 -0.22030514 -0.39775792 0.48700732 -0.1563725
0.53189224 0.15896761 -0.40606898 0.3924441 -0.5886257 -0.16104937 0.36234555 0.6502914
0.24421935 -0.63832754 0.022592807 0.6067023 -0.5910989 0.5700942 -0.17283385 0.29142925
-0.61042166 -0.37320444 0.43714672 -0.045129977

conv1.bias f4 [20]
00000000: 52ca e7bd 6176 e6bd 3b33 6fbd f8a4 df3d
00000010: 1258 87bd 991b 503d cd20 be3c fcf1 35bc
00000020: f9e6 3abe f2c9 19bc 1fd3 adbd 75f9 ef3d
00000030: 2c14 da3c 9c2e 43bc c8bb 1fbb 64a2 8abc
00000040: 8dae 52bd 87b2 823c b771 81bd f16f a7bc
-0.113178864 -0.11253048 -0.058398467 0.10920137 -0.06608595 0.05080757 0.023209 -0.011105057
-0.18252172 -0.009386526 -0.08487534 0.11717502 0.026620947 -0.011912968 -0.00243734 -0.016923137
-0.051435996 0.01595427 -0.063205175 -0.02043912

fc1.weight f4 [5, 1440]
00000000: cabb 8e3d b574 b53d 0538 203e ba67 733e
00000010: 863f ebbc ca1d b0bd e261 9dbd 4068 78be
00000020: ea66 a0be 2b9e 7d3c be50 f93d c2ce fd3c
00000030: 39b7 de3d a00b 513d a08a 513d 279d e4bc
00000040: 6823 ecbd 5cdf a2bd aeb9 f2bc f77b 403e
00000050: ffa7 923d 0e48 be3c e639 2f3d 76ff 5e3d
00000060: 7939 b6bc 3b02 eabc 0ca6 e1bd b6cc 4f3d
00000070: 25af 1f3d 19d8 903d 6d2d 163d 6be6 3f3c
00000080: 5bac 683d bfc6 6f3c bb0f 2bbc eef3 d4bd
00000090: 1aac df3d 2a1e c4bc b4d7 923c 30e9 383c
000000a0: 8c54 5a3c 94dd a53c 2377 6a3d e545 d73c
000000b0: e994 49bd 01da a8bd 5536 80bd ae89 8a3c
000000c0: 7949 513c a21e 623c 982c 213d bfe9 483d
000000d0: 1d2f ff3c 41e5 513c d7db 91bd 8d10 1abc
000000e0: f717 72bc faaf 533a e0b5 bd3c fe44 3bbc
000000f0: 8eda 973c 0e3f 063c 323b 6ebd 16be 13bd
00000100: 1874 8bbc 40bf 62bd cbfd 80bc 24ad b23b
00000110: 92fd 27be 3e16 133c 5dfe 00be 42b1 fbbc
00000120: 027f 0b3e ac11 943e 1c30 c43e bb0d 513e
00000130: b390 84be 76eb b9be 047a c8be d028 bebe
00000140: 8516 d5be 2419 573e f2aa 973d 384b 953e
00000150: f5b2 e43d 8654 6c3c 3300 b1bd 2823 d0be
00000160: b0a2 4abe 18ec a7be 1920 a33e 91c4 103e
00000170: b9e2 193e a52a 003e ca2c 81bd 6464 59bd
00000180: 1944 0dbe 7b6a 9cbe 18fb 86be 3089 8e3d
00000190: 443f 683e 75cd 473e 15e4 faba 9377 d1bd
000001a0: 2ccc 04be 773e 31bd 9d30 87be 45bc a7be
000001b0: 72bc 553e 280c 113d 2212 3abd 71b4 5dbc
000001c0: f2c8 afbd bd30 10be dc55 debd 40bd 98bd
000001d0: 6fac 7ebe a1dc a8bd 2d9c 8ebd ebf0 25be
000001e0: b908 123d 629d 46bd e82e 563c 2127 3fbd
000001f0: 25d2 dd3a cb8d 96bd bdd9 1d3d 7c19 90bd
00000200: 5a42 08be 8972 d2bd d336 80be 937c 99bd
00000210: 3364 6fbe 9aba 07bd f329 97be 103c 66bd
00000220: 2349 043e aa7c 48be 5bb6 4fbd 6cb6 adbd
00000230: c259 9abc be73 dbbd f713 8ebd 80d5 8cbd
00000240: 71eb 3a3e 5f00 213e 2012 413e 7dda 053e
00000250: f54c 0abd a8e5 f9bd aa32 5abe 359f 5bbe
00000260: c91c 9bbe 620f d13d deb5 503e db84 343e
00000270: bff7 1c3e e7ea e53b 5d94 53be 5046 ecbd
00000280: 83e3 a3be cd4c 83be 3968 943e f83e 633e
00000290: 479c 363e 2c24 1e3e 07fb 3b3c 4f60 11be
000002a0: 23f9 68be 6068 89be f010 88be a48f e43d
000002b0: e854 373e 4f57 0c3d 3a69 273d 55b6 8cbd
000002c0: 3a2a 40bd 7f45 c9bd d0a0 8fbd 344f 91be
000002d0: 69ad 5e3b a740 673e 8ebd d23d f57a 59bc
000002e0: 224a 66bd ce50 e0bc 1ecf 9fbb d911 47be
000002f0: d5b1 02be 3e43 75bd 5274 babd d0d9 e5bd
00000300: 527e bbbb acd1 b23a 5f5b 043a 625e f0bc
00000310: 1840 d9bc ed9c f6ba 2f9c 813d 6deb 85bd
00000320: 9b64 05be 5783 77bd 7591 f8bd b15d d0bd
00000330: d99e f7bd 1d10 0bbc f1d6 d0bd b8ab 39bd
00000340: 9c7c 243c 2984 38bd 3d76 4fbd 0b41 85bd
00000350: 0313 a43c de17 d3bc bc07 b3bb 6e88 bbbd
00000360: 2e09 463e e04a fa3d b458 d73d d242 a53d
00000370: b852 3d3b c4be f1bd 37fb 20be 317b 05be
00000380: 8ef3 ebbd fd6f 2d3d a888 333e b04e b33d
00000390: 6631 133d e944 433c 04da 24be 5707 d7bd
000003a0: a680 16be 801c 30be 08e1 023e 2f59 1f3e
000003b0: b1cf c13d 8dc6 573d acb9 813c bf8a 653c
000003c0: b1e7 fdbd 8739 09be 27df 4cbe bc83 8b3d
000003d0: 6b73 303e af63 1ebc 46a0 61bb 2890 ad3c
000003e0: 46e7 e7bb 46cb 87bd 18c7 c9bd 0e9b 03be
000003f0: f3c0 4a3d 598d c93d fe38 0f3d 14db ecbb
0.06969412 0.08860151 0.1564637 0.23770037 -0.028716814 -0.08599432 -0.07684685 -0.24258518
-0.31328517 0.015479605 0.121736035 0.030982379 0.10874791 0.051036477 0.051157594 -0.027906967
-0.11530191 -0.07952759 -0.029629555 0.18797289 0.07160949 0.023227718 0.042779826 0.054442845
-0.022244202 -0.028565517 -0.11017999 0.050732337 0.03898539 0.07072467 0.036664415 0.011712651
0.056804996 0.014634787 -0.010440762 -0.103980884 0.10921498 -0.023940165 0.01792512 0.011286065
0.013325822 0.020247258 0.057242524 0.026278445 -0.049214277 -0.08244706 -0.06260363 0.016911354
0.012773865 0.013801249 0.03934917 0.049051043 0.031150395 0.012811006 -0.07122009 -0.00940336
-0.0147762215 0.0008075234 0.023158014 -0.011430023 0.018536832 0.008193744 -0.05816192 -0.036069952
-0.017023131 -0.05535817 -0.015746018 0.005452769 -0.16405323 0.008977471 -0.12597032 -0.030724172
0.13622668 0.28919733 0.38317955 0.20415394 -0.25891647 -0.36312455 -0.3915559 -0.37140512
-0.41618744 0.21005684 0.07405652 0.2915895 0.11166946 0.014424449 -0.08642616 -0.40651822
-0.19788623 -0.32797313 0.31860426 0.14137484 0.15027894 0.12516268 -0.06307371 -0.053074256
-0.13795508 -0.30549988 -0.26363444 0.0695976 0.22680384 0.1951197 -0.001914146 -0.10227885
-0.1296851 -0.04327246 -0.26404276 -0.32760826 0.20872667 0.035411984 -0.04542745 -0.01353179
-0.08583249 -0.14081092 -0.1085622 -0.074579716 -0.24870466 -0.082452066 -0.06963382 -0.16205184
0.03565285 -0.048489936 0.013072707 -0.046668176 0.001692359 -0.073512636 0.03853773 -0.07036111
-0.13306561 -0.10275752 -0.25041828 -0.07494464 -0.23378067 -0.03313694 -0.29524192 -0.056209624
0.12918524 -0.19578806 -0.050711017 -0.0848206 -0.018841628 -0.107154354 -0.06937402 -0.068766594
0.18253876 0.15722798 0.1885457 0.13071628 -0.0337648 -0.122020066 -0.2130839 -0.21447451
-0.302954 0.10208012 0.20381877 0.17628805 0.15328883 0.007016528 -0.20662065 -0.115368485
-0.32009515 -0.25644532 0.28985766 0.2219199 0.17833053 0.15443486 0.011473424 -0.14196895
-0.22751288 -0.26837444 -0.26575422 0.1116021 0.17903483 0.03426295 0.040871836 -0.068707146
-0.04691527 -0.098277085 -0.070130944 -0.2838074 0.0033977872 0.22583257 0.10290061 -0.013273944
-0.056223042 -0.02738228 -0.004876985 -0.19440402 -0.1276315 -0.05987858 -0.091042176 -0.11223185
-0.0057218457 0.0013642809 0.0005049016 -0.02934188 -0.02651982 -0.0018815078 0.06328618 -0.065390445
-0.13026659 -0.06042799 -0.12137119 -0.1017412 -0.12090845 -0.008487728 -0.10197247 -0.04532978
0.010039475 -0.045047913 -0.05064987 -0.065065466 0.020028597 -0.025768217 -0.0054635685 -0.09156881
0.1933944 0.122213125 0.10514966 0.080693856 0.0028888416 -0.11803964 -0.15720831 -0.13035275
-0.11521064 0.04234313 0.17532599 0.08755243 0.035935782 0.011918285 -0.16098791 -0.10499447
-0.14697513 -0.17198372 0.12781155 0.15561365 0.09463442 0.052679587 0.015835606 0.01401013
-0.12397707 -0.13400851 -0.20007001 0.06812236 0.17231528 -0.009667321 -0.0034427806 0.021186903
-0.0070771305 -0.06630568 -0.09852427 -0.12852117 0.049500417 0.09841413 0.03496646 -0.0072282646

fc1.bias f4 [5]
00000000: 7fc5 4d3c 4e36 31bc 4982 09bd 9900 44bc
00000010: 4552 3c3c
0.012559294 -0.01081617 -0.033571515 -0.011963033 0.011494224

fc2.weight f4 [2, 5]
00000000: 0b61 febe fab5 9cbe 4b6b 993e cdac 323f
00000010: 5dcd 1bbf 1c84 953e d23c ff3e 1531 4dbf
00000020: 5d54 4ebf 094f 3d3f
-0.49683413 -0.30607587 0.2996467 0.69794923 -0.60860234 0.29202354 0.4985109 -0.8015302
-0.8059748 0.73948723

fc2.bias f4 [2]
00000000: f5f3 9e3e 7d4d 493e
0.310455 0.19658466
