5_train_and_test_model/4_2_Ablation Analysis/CNN-3D/model_3D/sb2/fold4.ckpt (torch, 31751 bytes, 6 tensors)

conv1.weight f4 [20, 1, 1, 3, 3]
-0.06136408 0.43739992 0.010660092 0.57891643 -0.16163287 -0.34292278 -0.43461192 0.52008915
-0.34023774 -0.37165698 0.41568115 0.39159542 0.1487987 -0.15172885 -0.44085255 -0.36447057
0.058885258 0.36032915 -0.5562064 -0.5445476 -0.18905932 -0.27799845 0.4652528 0.63796747
0.30123433 -0.53611356 0.2809014 0.6560989 0.5367887 -0.3013808 0.024822416 -0.64027876
-0.6191707 0.025174597 -0.16548686 0.5656097 -0.54005814 0.5246427 0.11627929 0.46051905
-0.57912815 -0.476281 -0.19344194 0.5187644 -0.065897495 -0.583691 0.69399434 0.50930893
-0.061515413 -0.61909014 0.19387574 0.42500103 -0.080379896 -0.19987148 0.18380868 0.40318945
-0.573493 0.59051347 -0.65663654 0.4513713 -0.4286919 0.21911019 -0.031266455 0.6755219
-0.5339823 -0.4071036 -0.34426716 0.65860355 0.36688578 0.11195031 -0.4665656 0.071795836
0.6299751 0.7289678 -0.5353009 -0.05809434 -0.21619019 -0.41376483 -0.42480254 0.67674524
-0.43892652 0.46009186 -0.63204074 -0.412932 -0.06448987 0.5977571 0.4220083 -0.2669349
0.3277872 -0.44603035 0.51498896 -0.47370932 -0.17127258 0.51781654 0.4564108 -0.5591619
0.12045189 -0.46823075 -0.29173857 -0.21991684 0.44131336 0.36505073 0.46542445 -0.5228966
-0.49289978 -0.48021272 0.66990644 -0.19920607 -0.657465 0.5718049 0.46381098 0.5665282
-0.43288258 -0.2972855 0.27460134 -0.47968343 0.34361443 0.68544245 -0.62196743 0.5656705
-0.57731813 0.09703017 -0.42611882 0.04577885 0.32696694 -0.08131179 -0.68757814 -0.5053748
0.32009485 0.41801253 0.075973175 0.5592894 -0.43319875 0.37919122 -0.4979802 6.4516265e-05
-0.024707165 -0.20810385 0.19182931 0.40685079 0.29164755 0.2789901 -0.6336786 0.106780775
0.49218985 -0.41793078 0.6811672 -0.62357 0.6036991 -0.27586746 0.04515491 0.33355916
-0.5414819 -0.20262845 0.68537277 -0.5110877 0.42128742 -0.2663696 -0.27752185 -0.04059294
0.2886547 -0.30610722 -0.58430797 -0.2329226 0.28907102 0.5002212 0.3252886 -0.57765645
-0.5007925 0.6563154 -0.2337103 -0.42377222 0.68553865 -0.33848637 -0.015516422 -0.13129543
-0.07196954 0.20899065 -0.37750036 0.08045731
00000000: e758 7bbd e2f2 df3e aba7 2e3c de33 143f
00000010: 1683 25be 9393 afbe 7485 debe 9024 053f
00000020: a433 aebe d349 bebe 29d4 d43e 327f c83e
00000030: b05e 183e cf5e 1bbe 6db7 e1be e39b babe
00000040: ab31 713d 107d b83e 8b63 0ebf 7967 0bbf
00000050: c498 41be d055 8ebe 9d35 ee3e d651 233f
00000060: 633b 9a3e bd3e 09bf 4fd2 8f3e 19f6 273f
00000070: fc6a 093f 964e 9abe 6158 cb3c 4fe9 23bf
00000080: f981 1ebf f53a ce3c 6375 29be cccb 103f
00000090: 4041 0abf fc4e 063f d623 ee3d 27c9 eb3e
000000a0: be41 14bf 1adb f3be a515 46be becd 043f
000000b0: 44f5 86bd c66c 15bf 9da9 313f 1262 023f
000000c0: 96f7 7bbd b17c 1ebf 5d87 463e bc99 d93e
000000d0: 379e a4bd 1cab 4cbe 5838 3c3e d96e ce3e
000000e0: 70d0 12bf e42b 173f 5519 28bf 241a e73e
000000f0: 817d dbbe 6c5e 603e 4111 00bd 01ef 2c3f
00000100: 10b3 08bf e26f d0be c943 b0be 3e9a 283f
00000110: 74d8 bb3e 3446 e53d b0e1 eebe b209 933d
00000120: 0c46 213f a29d 3a3f 7b09 09bf 55f4 6dbd
00000130: f660 5dbe fcd8 d3be b87f d9be 2d3f 2d3f
00000140: faba e0be 2991 eb3e 6ccd 21bf d36b d3be
00000150: 4413 84bd 9c06 193f 7911 d83e b1ab 88be
00000160: b9d3 a73e 175e e4be 51d6 033f 078a f2be
00000170: 1462 2fbe a08f 043f adae e93e 3c25 0fbf
00000180: 7baf f63d f1bb efbe c25e 95be e131 61be
00000190: d3f3 e13e eee7 ba3e 1d4c ee3e 8ddc 05bf
000001a0: 5c5d fcbe 71de f5be fd7e 2b3f adfc 4bbe
000001b0: a04f 28bf ce61 123f a278 ed3e fe07 113f
000001c0: c9a2 ddbe ce35 98be 8c98 8c3e 1199 f5be
000001d0: 3bee af3e 2879 2f3f 4239 1fbf c8cf 103f
000001e0: 1fcb 13bf c1b7 c63d 3f2c dabe 9a82 3b3d
000001f0: 3668 a73e cc86 a6bd 1f05 30bf 3e60 01bf
00000200: 79e3 a33e bd05 d63e d397 9b3d 972d 0f3f
00000210: 3acc ddbe 5a25 c23e 43f7 febe e84c 8738
00000220: ae66 cabc 2d19 55be e76e 443e bf4e d03e
00000230: d452 953e cad7 8e3e c338 22bf e1af da3d
00000240: 4f00 fc3e 06fb d5be f960 2e3f 49a2 1fbf
00000250: 068c 1a3f 803e 8dbe 5bf4 383d 44c8 aa3e
00000260: 8f9e 0abf d57d 4fbe 9774 2f3f a5d6 02bf
00000270: fcb2 d73e 9961 88be 5817 8ebe c844 26bd
00000280: 8dca 933e 16ba 9cbe 3595 15bf 4383 6ebe
00000290: 1e01 943e 7f0e 003f 3a8c a63e 4be1 13bf
000002a0: f033 00bf 4904 283f c151 6fbe acf8 d8be
000002b0: 767f 2f3f 164e adbe 9738 7ebc 4f72 06be
000002c0: c464 93bd a501 563e ba47 c1be cdc6 a43d

conv1.bias f4 [20]
-0.13098523 -0.050005067 0.12558931 -0.104073845 -0.07850793 -0.11831192 -0.019755432 -0.015838522
-0.004424448 -0.103505716 -0.051270936 0.008371455 -0.045931045 -0.076438844 -0.023729024 -0.0914333
0.08738548 0.12346369 -0.013010058 0.09494576
00000000: fe20 06be 1dd2 4cbd 7c9a 003e ab24 d5bd
00000010: c4c8 a0bd 854d f2bd 25d6 a1bc cabf 81bc
00000020: f6fa 90bb cefa d3bd 7901 52bd 6d28 093c
00000030: 3122 3cbd f88b 9cbd 5f63 c2bc 6241 bbbd
00000040: 29f7 b23d 88da fc3d 2328 55bc ec72 c23d

fc1.weight f4 [5, 1440]
0.20953947 0.24893092 0.24061833 0.24421775 -0.18787356 -0.2733017 -0.37422174 -0.3398982
-0.38862246 0.25021157 0.13804251 0.16093068 0.19668637 -0.018592821 -0.20711331 -0.3139304
-0.38693392 -0.1856986 0.3347364 0.2156175 0.060826488 0.067149036 -0.012467477 -0.03059598
-0.053307302 -0.12369477 -0.12300648 -0.048414744 0.12990591 0.17496838 0.010830242 0.002041272
0.03003438 0.06157216 -0.12048328 -0.16543493 0.24898487 -0.1031684 0.021066364 -0.04702903
-0.0067484207 0.043787792 -0.027517539 -0.066069305 -0.16050248 -0.071153365 -0.051460795 -0.014300898
-0.06848012 0.022141451 -0.008431052 0.07755497 -0.033620592 0.0034487199 -0.16152182 -0.047622792
-0.041081313 -0.080482945 -0.0443643 -0.050659504 -0.00017216036 0.057140455 -0.09068235 -0.036880635
0.023784662 -0.11229213 -0.13202381 -0.01850683 -0.22435018 0.05963001 -0.050116424 -0.031552255
0.19035159 0.13912265 0.13958801 0.08844369 -0.0147528425 -0.24344476 -0.18734258 -0.09434598
-0.07388888 0.19290759 0.097905025 0.07894404 0.042867415 0.012883706 -0.07795006 -0.12626557
-0.064235575 -0.13994396 0.13367821 0.18217649 0.07177763 0.04361409 -0.0037807603 -0.02895906
-0.07550899 -0.11490834 -0.100894265 0.0038929456 -0.038004663 0.025318172 0.04803349 0.033611223
0.021354146 -0.04023346 -0.07301652 -0.0803672 0.03209772 0.14686364 -0.0116776265 0.025371667
0.011068215 0.032800768 0.028876957 0.007917261 -0.054514516 -0.14923137 -0.068581186 -0.012856361
-0.030182645 -0.030587306 -0.016730629 -0.023969881 0.040722176 -0.0755674 0.011675532 -0.027702034
-0.02471059 -0.048897177 0.009403555 -0.002187581 0.02423798 -0.04908202 -0.040110983 -0.042007428
-0.047353067 -0.063221484 -0.057189975 0.004159205 -0.052951727 0.05312792 0.007314075 -0.05519588
0.089501105 0.1560618 0.13911667 0.115452185 -0.044550497 -0.11968513 -0.18918648 -0.15999922
-0.097621135 0.10844741 0.12670818 0.10402642 0.0930734 0.02557602 -0.034985352 -0.163952
-0.15415722 -0.10494502 0.2197353 0.12899795 0.05535358 0.045809083 0.02055926 -0.010883228
-0.0018222629 -0.028905079 -0.05761911 0.009995621 0.08275052 0.033765215 0.013641078 0.029770916
0.0134216 0.023037268 -0.03398113 -0.08061902 0.058946982 0.0399316 0.06325723 0.02356726
0.032705165 0.04241057 0.025843833 0.032500528 -0.02266416 -0.044394653 -0.022404024 -0.029614625
0.022082247 0.02482921 0.04327114 0.03415432 0.015497139 -0.01786516 0.012234124 -0.045547053
0.014081095 0.006798314 0.041348174 0.025943512 0.0343212 0.0433628 0.034873325 -0.008020033
0.04800136 0.002282866 -0.004979532 0.007814149 -0.008182778 -0.01157906 0.015285203 0.016454056
0.20641324 0.1988276 0.24468316 0.2401447 -0.1552038 -0.32404038 -0.32155344 -0.30163607
-0.099127375 0.16033489 0.20663711 0.2036393 0.16554357 -0.049314544 -0.079308525 -0.20408024
-0.18611851 -0.22836491 0.17263639 0.14751269 0.13253552 0.09980789 0.026515435 0.023069149
-0.17027801 -0.20506112 -0.14764579 0.10924222 0.10739575 0.037360378 0.03923289 0.011106853
-0.038590495 0.03456306 -0.12377983 -0.16481146 0.03497302 0.1896804 0.12314154 -0.02244826
00000000: 8491 563e bfe7 7e3e a764 763e 3814 7a3e
00000010: ed61 40be 33ee 8bbe fe99 bfbe 2307 aebe
00000020: 86f9 c6be bb1b 803e 045b 0d3e 03cb 243e
00000030: 2768 493e f94f 98bc 8315 54be 7cbb a0be
00000040: 341c c6be c627 3ebe 9262 ab3e d5ca 5c3e
00000050: 3225 793d 6f85 893d 6344 4cbc 6ca4 fabc
00000060: c258 5abd af53 fdbd d2ea fbbd 8a4e 46bd
00000070: 0e06 053e e92a 333e 5471 313c dcc6 053b
00000080: a90a f63c 1733 7c3d f0bf f6bd c667 29be
00000090: e4f5 7e3e f449 d3bd 5e93 ac3c 83a1 40bd
000000a0: db21 ddbb d45a 333d 766c e1bc 584f 87bd
000000b0: c35a 24be dbb8 91bd 8ec8 52bd 504e 6abc
000000c0: 4e3f 8cbd fd61 b53c 6522 0abc 24d5 9e3d
000000d0: bfb5 09bd eb03 623b fa65 25be 1e10 43bd
000000e0: e144 28bd 3ed4 a4bd 57b7 35bd 5780 4fbd
000000f0: f285 34b9 1c0c 6a3d abb7 b9bd 2610 17bd
00000100: 0dd8 c23c 6bf9 e5bd 4031 07be a39b 97bc
00000110: 0ebc 65be 993e 743d e146 4dbd f03c 01bd
00000120: 87eb 423e 2b76 0e3e 29f0 0e3e f721 b53d
00000130: e8b5 71bc 9549 79be bcd6 3fbe 7738 c1bd
00000140: 0e53 97bd 9189 453e 6e82 c83d 6aad a13d
00000150: be95 2f3d 2e16 533c 48a4 9fbd c34b 01be
00000160: f18d 83bd 784d 0fbe f1e2 083e 798c 3a3e
00000170: 2600 933d b0a4 323d a2c6 77bb 8d3b edbc
00000180: 75a4 9abd 1055 ebbd a7a1 cebd ca20 7f3b
00000190: c7aa 1bbd 0e68 cf3c c4be 443d ecab 093d
000001a0: e4ee ae3c d7cb 24bd af89 95bd 8f97 a4bd
000001b0: e678 033d 6c63 163e 8453 3fbc 3ed8 cf3c
000001c0: 7557 353c 195a 063d 5e8f ec3c 66b7 013c
000001d0: 9d4a 5fbd 1cd0 18be 4b74 8cbd 7da3 52bc
000001e0: 9841 f7bc 3b92 fabc ac0e 89bc 7c5c c4bc
000001f0: 4ccc 263d 15c3 9abd bb4a 3f3c 60ef e2bc
00000200: dd6d cabc 6848 48bd 5e11 1a3c 855d 0fbb
00000210: ba8e c63c 3a0a 49bd 6a4b 24bd fb0f 2cbd
00000220: 4af5 41bd 447a 81bd 0940 6abd f149 883b
00000230: e9e3 58bd a99c 593d e8aa ef3b 1315 62bd
00000240: 5b4c b73d aace 1f3e 9a74 0e3e 3272 ec3d
00000250: 957a 36bd 7a1d f5bd 1aba 41be d6d6 23be
00000260: 97ed c7bd ad19 de3d cabf 013e ce0b d53d
00000270: 449d be3d cd84 d13c cd4c 0fbd 08e3 27be
00000280: 64db 1dbe 6aed d6bd 4a02 613e 0a18 043e
00000290: 6fba 623d 4ea2 3b3d e56b a83c 914f 32bc
000002a0: ffd8 eeba 58ca ecbc 0402 6cbd acc4 233c
000002b0: 1b79 a93d 654d 0a3d d47e 5f3c 23e2 f33c
000002c0: 45e6 5b3c a7b8 bc3c cc2f 0bbd 961b a5bd
000002d0: 6472 713d 518f 233d 028d 813d 2010 c13c
000002e0: daf5 053d b5b6 2d3d 72b6 d33c 461f 053d
000002f0: 30aa b9bc 2bd7 35bd a588 b7bc 5f9a f2bc
00000300: d4e5 b43c a166 cb3c 143d 313d 66e5 0b3d
00000310: b6e7 7d3c f559 92bc a371 483c 8c8f 3abd
00000320: 65b4 663c 64c4 de3b b45c 293d 7d87 d43c
00000330: 6394 0c3d 319d 313d 55d7 0e3d 7566 03bc
00000340: 139d 443d 239c 153b 582b a3bb eb06 003c
00000350: 0f11 06bc 19b6 3dbc ca6e 7a3c a8ca 863c
00000360: fe5d 533e 7699 4b3e 398e 7a3e 7ee8 753e
00000370: bfed 1ebe 9fe8 a5be a7a2 a4be 0b70 9abe
00000380: 4b03 cbbd d42e 243e ae98 533e d286 503e
00000390: 4184 293e 0cfe 49bd 826c a2bd 69fa 50be
000003a0: da95 3ebe 7ed8 69be 98c7 303e 910d 173e
000003b0: 64b7 073e 1468 cc3d e636 d93c 83fb bc3c
000003c0: 5c5d 2ebe 8bfb 51be 7530 17be 63ba df3d
000003d0: 4ef2 db3d 3207 193d abb2 203d 85f9 353c
000003e0: 1111 1ebd ff91 0d3d 4880 fdbd 56c4 28be
000003f0: df3f 0f3d 943b 423e a231 fc3d 6ae5 b7bc

fc1.bias f4 [5]
0.027159546 0.013500786 -0.015326995 -0.0071926406 -0.021850195
00000000: b27d de3c 6732 5d3c 141e 7bbc 3eb0 ebbb
00000010: 2eff b2bc

fc2.weight f4 [2, 5]
-0.44885555 -0.21024196 0.7228336 -0.38821986 0.8223856 0.50014806 0.6646232 -0.6932748
0.528553 -0.065939486
00000000: 65d0 e5be ab49 57be 9f0b 393f c1c4 c6be
00000010: dd87 523f b409 003f bf24 2a3f 757a 31bf
00000020: 404f 073f 480b 87bd

fc2.bias f4 [2]
-0.03957071 -0.21701854
00000000: e614 22bd 1c3a 5ebe
