5_train_and_test_model/4_2_Ablation Analysis/CNN-3D/model_3D/sb7/fold2.ckpt (torch, 31751 bytes, 6 tensors)

conv1.weight f4 [20, 1, 1, 3, 3]
00000000: 2aa9 0f3f 378a 35bf 277c 2f3e 4dd6 1b3f
00000010: eabb e03e bbde e6be 54b5 2fbe b94e afbd
00000020: 2b9a c1be f198 d63e c3f9 1b3f 3edd bf3e
00000030: 1bbd 6a3c 04aa 3fbe 9247 773c c238 2dbe
00000040: 10d9 f4bd 018b cc3e 0653 1dbf 8e6d 1e3f
00000050: 1211 24bf c72c f53e 24c3 c83e ba12 aebe
00000060: 054f 893d dc3a 713c 4a3a a4be 1b0d 293f
00000070: ec3b 39bf 5ddb 3fbf d044 c13e cd7b cdbe
00000080: a9e9 333d cf3f ccbc b9b0 023d 7e91 0f3e
00000090: 4b1e b2be a54d 17bf d5cd 2dbf 9d35 953e
000000a0: 7e66 fabe eede f33e aa10 88bc 74a1 253d
000000b0: 1d84 c53c 3a54 f0be 3207 1fbf d9ec b2be
000000c0: cf74 1bbc 7924 c9bd 1270 ef3e 5787 903e
000000d0: a8c8 66be a77a e63d a8d4 d73e 57d3 0e3f
000000e0: 39f8 25be b1d9 ccbe 7b0f cabe 84c0 27bd
000000f0: 220f 74bd ce52 8e3e f06f c03e dfcd 1d3f
00000100: c4a0 d23e 937c f9be 27b5 adbd bb31 fcbe
00000110: 1a7b 8bbe e63f 003d bb93 9e3e 7648 ba3d
00000120: 2be6 bbbe d66a 2bbf 5e2b 33bf 26f6 5d3e
00000130: 489f 093f fe0f 023f 5b13 3c3e c005 3abe
00000140: 9cbc 63be e9d1 b13e 28d7 6b3e 6524 983e
00000150: 2517 003f 9ed2 cc3e 16de 3dbe d681 16bf
00000160: d367 9dbe f390 8ebe 317a 1c3f 863d 193f
00000170: eeb0 283f a756 95be d46b 8fbe 699c ae3e
00000180: 3db7 0fbd 6ef2 e3bc a532 903e d78f 983e
00000190: 013a e5bc 823d 273f 4498 943e 16a9 acbe
000001a0: d807 c43d e4b6 16bf 9d59 18bf 37a1 9fbe
000001b0: 3ea3 143f 5581 1abf e545 3abe 5b61 a73e
000001c0: 8fa4 fc3e 3bc8 143f 6eae d7be 81fb c23e
000001d0: dbc3 e23e 6ec0 e23e 9ed6 cfbe e7ea 123f
000001e0: 36bd b6be ce7f 123f 083a aebe f05d 89be
000001f0: fad6 57bc 9be8 723e 1c73 ebbe 310b 063f
00000200: aede f43e cb52 02bf 1812 9bbe 6041 c5bd
00000210: 30aa 043f ec2f d63e a869 0d3e 4293 0ebf
00000220: aa66 bfbe ddf7 023f dfbe 88be 13db 1b3f
00000230: 429c ccbe a4f9 f0bb 911a af3d ca38 363e
00000240: d7aa bdbe aed8 17bf f8e0 14bf a165 903e
00000250: 53d6 fdbe bf54 aabe 1e8e 023f 8820 303e
00000260: 54e0 a83e e1aa f43b 4f1b 1c3f d31d 3a3f
00000270: ff98 14be 1f18 1b3f 30b8 01be dcbe 95be
00000280: e8fb 23be 2552 293d 9144 193f bd54 19bf
00000290: 2274 d23e a768 3dbe 7c71 1dbf 5c7c 99be
000002a0: 3501 4f3d 08a1 743e e4f9 b23c 0571 d53e
000002b0: fb42 c53e 32af dfbc 6345 9dbe f651 20bf
000002c0: 7fde 20bf e14e f0ba 37cd 273e b8ce 123f
0.561175 -0.70914024 0.17137204 0.6087387 0.43893367 -0.45091805 -0.17159015 -0.08559937
-0.37812933 0.4191356 0.6092798 0.37473482 0.014327313 -0.187172 0.015092747 -0.16916183
-0.11955464 0.39949802 -0.6145481 0.6188592 -0.6408855 0.47885725 0.3921138 -0.33998662
0.06704525 0.014723506 -0.3207572 0.6603562 -0.7235706 -0.74944097 0.37747812 -0.40133515
0.043924008 -0.02493277 0.031906817 0.14020345 -0.34788737 -0.5910285 -0.678922 0.29142466
-0.4890632 0.4763102 -0.016609509 0.040437177 0.024110848 -0.4693926 -0.62120354 -0.34946325
-0.009488299 -0.0982141 0.4676519 0.28228256 -0.22537482 0.11253863 0.4215443 0.5579123
-0.1620797 -0.40009835 -0.39464936 -0.04095508 -0.059584744 0.2779755 0.37585402 0.6164226
0.4113828 -0.48727855 -0.08481818 -0.4925669 -0.27242357 0.03131094 0.30972084 0.09095852
-0.36699042 -0.66959894 -0.6998805 0.2167593 0.5375867 0.5080565 0.18366759 -0.18166256
-0.22239918 0.3473046 0.23031294 0.29715267 0.50035316 0.40004438 -0.1854175 -0.58791864
-0.30743274 -0.27844962 0.6112395 0.598595 0.65894973 -0.29167673 -0.28011954 0.34103706
-0.03508686 -0.02782556 0.2816364 0.2979724 -0.02798176 0.6532823 0.2902242 -0.33722752
0.095718086 -0.5887282 -0.5951174 -0.31177685 0.5806159 -0.60353595 -0.18190725 0.32691464
0.49344298 0.5811803 -0.42125267 0.38082507 0.4429005 0.44287437 -0.40593427 0.5738968
-0.3569123 0.57226264 -0.3402865 -0.2682948 -0.013173813 0.23721544 -0.4598626 0.52360827
0.4782614 -0.5090758 -0.30287242 -0.0963161 0.51822186 0.41833436 0.13809836 -0.5569345
-0.37383014 0.5115946 -0.26708123 0.60881156 -0.39962965 -0.007353978 0.08549989 0.17795101
-0.37044403 -0.59315 -0.58155775 0.28202537 -0.4957758 -0.3326778 0.50998104 0.1719991
0.3298365 0.0074666594 0.6097917 0.7270176 -0.14511488 0.6058368 -0.12667918 -0.29247177
-0.16014063 0.041338105 0.5987025 -0.59894925 0.41104227 -0.18496953 -0.6150129 -0.2997769
0.05053826 0.23889554 0.021847673 0.4168779 0.38527665 -0.02730522 -0.30717 -0.6262506
-0.628395 -0.0018334055 0.16386877 0.5734668

conv1.bias f4 [20]
00000000: e128 04be c9f0 253e 2266 3d3c 67df abbd
00000010: 5cf4 973d c10a 43bd 3643 153d 4c77 89bd
00000020: ff7f 61bd d7a0 dbbd 42e2 e1bd be4d cfbd
00000030: 27ba fd3b ba0d 1f3d 1769 afbd 44fb 94bd
00000040: 38c2 38bd 8e48 d9bc 9642 95bd e740 abbd
-0.12906219 0.16205133 0.011559995 -0.0839222 0.07419655 -0.047617678 0.03644105 -0.06712207
-0.055053707 -0.10724037 -0.110294834 -0.1012225 0.0077431384 0.03883145 -0.08564966 -0.072744876
-0.045107096 -0.026523855 -0.07288091 -0.083619885

fc1.weight f4 [5, 1440]
00000000: 84f5 08be a589 12be 43c1 05be a56f 25bd
00000010: 608d d03d c75b 963d 4711 c23d 8692 8d3d
00000020: 0838 ad3e db01 00bc a8a1 17bd 579c cabd
00000030: 584e 8cbd ed8d d73b bf51 853d 02dc 173d
00000040: 95ac dd3d 7c64 823e 6484 51bc 4278 083e
00000050: 63b1 d0b9 9141 b0bc 51de 96bc b825 0e3e
00000060: 5e29 863d 5b9a 063e 4254 8dbc 5842 753d
00000070: f2c9 043d a89a a9bc 5d44 84bd e08d fa3c
00000080: fbd3 093b 5ed4 913b b46c 91bc 4a50 98bc
00000090: 2cf0 3dbd 8c15 08bd 4378 c9bd d810 c93c
000000a0: 507c 6d3d 55d6 b73c 71da 42bc 21a6 ad3c
000000b0: 5d93 98bd 2392 95be 1d8f b2bd 572b adbd
000000c0: d1a4 81bd 3f8c 1b3d 9c11 133d 5c28 a93c
000000d0: 8079 00bd 2e9f 8e3d 0317 95be 37c5 0abe
000000e0: 7bcb 77bd f490 30bd 5fde 5c3c 698b cabd
000000f0: 64ff a13c 71e5 9cbd 52fb 15bc 3bfc 7fbe
00000100: 00b7 8bbe 7702 75bd eca0 a9bd eedc 3fbd
00000110: cb4b 0bbb c2a5 333d 857f bbbb 4795 97bb
00000120: b37d febc 73cc cebb 7d2c 83bd fff2 303c
00000130: d2df 1d3d 97bf db3d 3661 223e f626 9e3d
00000140: 5a43 993d 1e9a 823c bf3e 85bc 36f7 0ebc
00000150: 6e65 a1bb b84c 9c3c 2f48 b3bc a5b4 1b3b
00000160: 4924 cb3d 0dd8 3b3e 8ff6 ca3c 6145 e5bc
00000170: f7bc 00bd 4d86 a63c 9f18 26ba 000e 9d3c
00000180: cda5 473d 4434 063d f88b f83c 6ec2 1c3d
00000190: c81f 753b af09 90bc 5926 9a3c 6809 5a3d
000001a0: 3150 273d 27ce 9b3c 4bf0 c5bb 2bef 5fbd
000001b0: 4eff 34bd 5744 0bbd 8964 963b 1aaf d53c
000001c0: d741 d83c 03fb 5c3d 2c7a 543c 2b49 88bb
000001d0: 7f40 6fba 1f37 59bd 9b6b 9ebc b7a6 4ebc
000001e0: e543 263d d105 443b 88b1 c93c dbd9 8f3c
000001f0: 0540 94ba cbd8 a1bd 00bb 09bd 1fbd 98bc
00000200: b5d4 513c 6feb 60bc 6e4b 2e3d fae7 14bb
00000210: 6e03 533c 3dfa a83c 863a 733c e971 8cbd
00000220: d9fe 1fbd fac7 b73c ee6f 91bb 94d3 2a3c
00000230: 476a 53bc 00d0 c13c a005 44bb 0b87 313c
00000240: 23bd 89bd 95a7 21bd 7086 55bc 1a84 efbd
00000250: 7624 803d 59ee 043e 6f6c e33d f9eb d33d
00000260: 355f 213e 1428 8fbb bf5d 6ebd 18e9 08bd
00000270: 02b8 4bbd 542d 113d f792 313b b0eb e33c
00000280: c08b ed3d ec95 e73d f1ba c03c 2443 593d
00000290: d187 cabc 3a6c 3fbd fb82 753c 8ec5 433d
000002a0: 9cd2 ba3d 3e16 0a3c 2298 623d e79e c73c
000002b0: 0ecb a1bc 1390 5ebc 9897 13bd 21af 563d
000002c0: 9c8c 4e3d 2612 1f3c 1d3f 3fba e015 22bd
000002d0: 116a ec3c 514d 03bd a6c0 b4bb da17 ee3a
000002e0: 7be6 b2bb d523 693c 87e6 17bd 6ac8 c6bc
000002f0: 3a87 25bd 7476 a2bd cef0 29bc f408 6dbd
00000300: f58b 06bc c71d 18bc 42ca 70bc bab1 a9bc
00000310: 0b30 683b fed5 49bc 21f1 71be 4e20 8dbc
00000320: 5fee af3c b673 c63c 092c 2a3d 3c1a 9cbb
00000330: 2c63 20bd 4b5e ae3c efa4 ab3c 832b a0bd
00000340: d56a 1ebd 0988 37bc bc06 9fbc 39fd 48bc
00000350: 060c 913c 96a6 06bd 4309 94bc 3b62 b2bc
00000360: ff5a 7ebd a535 ddbd 4ce1 4fbd 9da1 bfbd
00000370: ca1d 653d 64ce 623e 02ff ef3d 75f5 4c3e
00000380: b41e 903e b08a 143c 2ba4 00be f375 3cbd
00000390: e217 98bd 8d03 b53c 1e86 f83c 70d5 a83c
000003a0: d6d3 bf3d ca48 933e e9ef 5fbc d362 9dbd
000003b0: 2d82 593c 9207 c33c 9a62 e5ba 7fe3 633d
000003c0: d1a8 e03d 0b8b 053e a49d ae3d df73 1b3d
000003d0: 283d e53c eb72 ea3c 92d3 18bd 1c8e 843d
000003e0: e962 fc3d 2ea1 babb ddf8 edbc 9d29 dcbc
000003f0: d756 1bbd d89f ffba b820 cc3c b09a 893d
-0.13374907 -0.1431032 -0.13062005 -0.040389676 0.10183215 0.07341724 0.09475952 0.06912713
0.3383181 -0.007812942 -0.0370194 -0.09893101 -0.068508804 0.006578198 0.065097325 0.03707505
0.10823933 0.25467288 -0.012787912 0.13327125 -0.00039805015 -0.02151564 -0.018416556 0.13881576
0.06550859 0.1314482 -0.017252091 0.059877723 0.032419153 -0.020703629 -0.06458352 0.03058523
0.0021030891 0.004450365 -0.017752029 -0.018592972 -0.046371624 -0.033223674 -0.09837391 0.024544165
0.05797988 0.022441069 -0.011892901 0.02119738 -0.07449982 -0.29213056 -0.08718703 -0.08455532
-0.06330264 0.037975546 0.035905465 0.020649128 -0.03136587 0.06963955 -0.2911912 -0.13551794
-0.06049679 -0.043106988 0.013480752 -0.098898716 0.0197751 -0.0766095 -0.009154158 -0.24998562
-0.27288055 -0.059816804 -0.082826465 -0.046841554 -0.0021254893 0.04385925 -0.0057219886 -0.0046259495
-0.031065797 -0.0063109933 -0.0640497 0.010800122 0.03854353 0.10729902 0.15857396 0.07722275
0.074835494 0.01594263 -0.016265271 -0.008725932 -0.0049254214 0.019079551 -0.021885006 0.0023758796
0.0991903 0.18344136 0.024775771 -0.027987184 -0.03143021 0.020327711 -0.0006336066 0.019171715
0.048742104 0.032764688 0.03034018 0.03827136 0.0037402976 -0.017582742 0.018817114 0.053231627
0.04084796 0.0190192 -0.006040608 -0.054671448 -0.04418879 -0.03400072 0.0045896214 0.026084471
0.026398582 0.05395032 0.012968581 -0.004159113 -0.0009126737 -0.053031083 -0.01933842 -0.01261299
0.040592093 0.0029910693 0.024620786 0.017559936 -0.0011310583 -0.07902678 -0.033625603 -0.018644867
0.012807061 -0.013728007 0.042552404 -0.0022721277 0.012879236 0.020627135 0.014845496 -0.06857664
-0.0390614 0.022434223 -0.004438392 0.010426421 -0.012903756 0.023658752 -0.002991058 0.010835419
-0.06725528 -0.03946646 -0.013032541 -0.11695118 0.06256954 0.12981547 0.111046664 0.103477426
0.15758975 -0.0043687914 -0.058194872 -0.03342542 -0.04973603 0.03544362 0.0027095655 0.027822345
0.11598921 0.11307892 0.02352664 0.053042546 -0.024722965 -0.046734072 0.014984841 0.047795825
0.09122202 0.0084281545 0.055320866 0.024367763 -0.019750144 -0.013584155 -0.036033243 0.05241311
0.050427064 0.009708917 -0.00072954764 -0.039571643 0.02885917 -0.032056157 -0.0055161295 0.0018165067
-0.0054596043 0.014229734 -0.037085082 -0.024265487 -0.040412165 -0.079327494 -0.010372354 -0.057869866
-0.008212079 -0.009284443 -0.0146966595 -0.02071463 0.0035429026 -0.012319086 -0.2362714 -0.017227318
0.021475969 0.024225097 0.0415459 -0.0047638696 -0.039157078 0.021285197 0.02095267 -0.07820799
-0.0386761 -0.011201867 -0.01941239 -0.012267404 0.017705929 -0.032873712 -0.018070823 -0.021775356
-0.0620985 -0.108012475 -0.05075197 -0.09356997 0.055936612 0.22149044 0.11718561 0.2001551
0.28148425 0.009066269 -0.12562625 -0.046010923 -0.0742643 0.02209642 0.03033739 0.020609587
0.093665764 0.2876647 -0.013668039 -0.07684865 0.013275665 0.02380732 -0.0017500699 0.05563688
0.10969699 0.13041322 0.08526161 0.0379523 0.027983263 0.02861925 -0.037311144 0.06472418
0.12323553 -0.0056954836 -0.029049331 -0.026875312 -0.037924614 -0.0019502593 0.024917945 0.067189574

fc1.bias f4 [5]
00000000: 1058 063c f7a0 e23c d188 aa3c 4041 0a3d
00000010: bfc1 68bc
0.008199707 0.027664645 0.020817192 0.033753633 -0.014206349

fc2.weight f4 [2, 5]
00000000: 85d5 3b3f 7507 0c3f fe72 c83e 3604 b23e
00000010: 197d d6be 6c82 87bd 0fcd 1abf 2d10 30bf
00000020: 3ead 25bf 8530 1f3f
0.7337268 0.5469888 0.39150232 0.34768838 -0.41892317 -0.06616673 -0.60469145 -0.6877468
-0.6471747 0.6218341

fc2.bias f4 [2]
00000000: 5ea7 e8be 5bf8 9e3e
-0.4544019 0.31048855
