5_train_and_test_model/4_2_Ablation Analysis/CNN-3D/model_3D/sb13/fold4.ckpt (torch, 31751 bytes, 6 tensors)

conv1.weight f4 [20, 1, 1, 3, 3]
000000 d7 c5 0e 3d a4 be 06 3f 51 d1 cf 3e 7b 20 2e 3d
       0.034856644 0.52634645 0.40589383 0.042511445
000010 c8 98 10 bf ca f6 93 3e 7d 16 c3 be ad e2 79 3e
       -0.56483126 0.28899223 -0.38103095 0.24402876
000020 33 20 c6 bd ff ad 6b bd 69 3e 25 3f 31 73 10 bf
       -0.0967411 -0.057538982 0.64548355 -0.5642577
000030 1b 22 7e 3e 1b 7f 15 bf 53 69 21 3f 81 12 a6 3d
       0.24817698 -0.5839707 0.63051337 0.08108998
000040 ad 95 f8 be d9 64 95 3e fc 9a 38 3e c7 26 d9 3e
       -0.48551694 0.29178503 0.18027872 0.42412397
000050 3a 08 da 3e ff 29 d4 3e 04 c3 64 be 5a 6b fa 3e
       0.425844 0.4143829 -0.22340018 0.48910028
000060 14 ab e5 be 7d 18 f8 be a4 54 a2 be 9b ae 83 3e
       -0.44857085 -0.48456183 -0.317052 0.2571915
000070 d8 c0 0d 3f 4a 28 e3 3e 87 f7 17 bf 08 e3 f2 3e
       0.5537238 0.44366676 -0.5936207 0.47438836
000080 62 b7 19 bf 04 f5 56 be 27 08 c0 3e bb e7 d2 bd
       -0.60045445 -0.20991904 0.3750622 -0.10298105
000090 33 dd fb be 3a 67 2b 3f f5 13 df be db 1c b7 bd
       -0.491922 0.66954386 -0.43569914 -0.089410506
0000a0 d8 7f 23 bf e1 3a c8 be 3f 94 61 3e e1 c6 12 3d
       -0.6386695 -0.3910742 0.22029208 0.035834197
0000b0 59 50 19 3f 71 a8 b3 3e c5 37 03 3f 61 dc f0 3e
       0.59888226 0.35089448 0.5125697 0.47043136
0000c0 e1 67 d3 be 72 58 ed be d0 aa f9 be d5 b2 91 be
       -0.4129019 -0.4635654 -0.48763132 -0.2845675
0000d0 df b1 ee 3d 88 f9 ce 3e 89 2d 17 3f c2 b4 5f bd
       0.1165502 0.40424752 0.59053856 -0.054615743
0000e0 bb 06 a5 3e c6 e7 2f bf f0 f0 bd 3e b8 03 f6 3e
       0.32231697 -0.68713033 0.37097883 0.48049712
0000f0 c7 74 d2 be f4 3a 1a 3e af 42 05 bf 18 b5 b2 bc
       -0.4110472 0.15061551 -0.52054876 -0.021814868
000100 90 6a 0c bf c2 b6 6d 3e b6 e3 bd 3e 08 36 b7 3e
       -0.548501 0.23214248 0.37087792 0.3578341
000110 d7 a4 90 3e 33 e9 37 bd 56 1c b6 3d d9 e6 99 be
       0.28250763 -0.04490013 0.088921234 -0.30058935
000120 e7 ce ae be eb bf af be c3 87 a3 be 52 a7 1c 3f
       -0.3414223 -0.3432611 -0.31939515 0.6119281
000130 69 4e 15 3f 69 cd 7f be 01 b5 09 be ca 65 4c be
       0.5832277 -0.24980702 -0.13447954 -0.19960704
000140 ef dd a0 bd cc 64 17 bf 20 9d 28 bf f9 d5 f8 be
       -0.078548305 -0.5913818 -0.65864754 -0.48600748
000150 c4 21 99 3e 10 1b 16 3f 95 dc 24 3f ea c6 16 3d
       0.29908574 0.58635044 0.6439908 0.036810793
000160 62 b6 7d be 73 6e a0 be 96 e4 fd 3e 95 b1 0b bf
       -0.24776605 -0.31334266 0.4958846 -0.54567844
000170 c5 a8 26 3f 6c 0e 12 bf 86 01 aa 3e 16 8e 2f bf
       0.6510127 -0.57053256 0.33204287 -0.6857618
000180 04 ce c2 bd 06 f0 da 3e 77 96 ba 3d c0 18 26 bf
       -0.095119506 0.42761248 0.0911073 -0.64881516
000190 ff fc 0e bf 9f 98 47 3e 3e b8 13 3f 8e 3c 0f 3f
       -0.5585479 0.19491814 0.57703006 0.55951774
0001a0 31 ec 0b bf 6b 45 91 bd c6 9d 03 3e 86 6e 0d 3e
       -0.54657274 -0.070933186 0.12853155 0.13811693
0001b0 24 21 73 3d 9e c5 3b 3e db ed 11 bf 96 23 cc 3d
       0.059357777 0.18337104 -0.57003564 0.09967725
0001c0 12 ed d2 bc 98 46 d6 3e c3 b4 83 bb 76 ce 5f bd
       -0.02574781 0.41850734 -0.004019351 -0.054640256
0001d0 ff 7e 47 bd 05 be 11 3f 03 ec 04 3f 8d 6b 1b 3f
       -0.048705097 0.5693057 0.51922625 0.60710984
0001e0 4c 79 02 be bf 01 e0 be 2c 3e f3 bd 50 ef c4 be
       -0.12741584 -0.43751332 -0.11877093 -0.3846383
0001f0 1d 8d 9e be cf e7 f5 3e ce 93 af be a1 17 b0 3c
       -0.30967036 0.48028418 -0.34292454 0.021495642
000200 0f 60 fe 3d 7d 6e 20 3f 13 90 a8 be cd 8d 01 bf
       0.124206655 0.6266859 -0.3292242 -0.50606996
000210 3b 66 36 be 84 d1 0f be 80 dd 0f 3f 47 f5 21 be
       -0.17812435 -0.14044768 0.5619736 -0.15816222
000220 0f 77 30 be 0a 3a d9 3e a4 7c f2 be 91 dc e5 be
       -0.17232917 0.42427093 -0.47360718 -0.4489484
000230 65 16 06 bd c0 a4 18 be d8 b6 cb 3e bf bb 3a 3c
       -0.0327362 -0.14906597 0.39787936 0.011397301
000240 de 69 2b bf b0 95 db be 9d 33 f9 3e b7 7b 11 3f
       -0.66958416 -0.4288764 0.4867219 0.568294
000250 3b b0 13 3f cc 6c fe 3d 0f 88 83 be b2 2b e8 bd
       0.5769078 0.12423095 -0.25689742 -0.11336459
000260 87 39 03 bf d3 d3 e8 be 01 3f 83 be 6f 0f 07 3f
       -0.51259655 -0.4547411 -0.25634006 0.52757925
000270 54 30 87 be 79 e7 20 bf cb 71 9e 3e e5 da 31 3e
       -0.2640406 -0.628532 0.30946192 0.17368658
000280 05 a3 9c 3e 7c 46 b7 3e 4b 85 1a 3f bb f8 07 bf
       0.30593124 0.35795963 0.6035964 -0.5311391
000290 a0 fc 0a 3f 17 7d 2b bf d6 40 fc be c1 7f 03 bf
       0.54291725 -0.66987747 -0.49268216 -0.5136681
0002a0 6e aa 5e 3e c8 40 ee 3e 8c 8d 1c 3e f6 8a 0e 3f
       0.21744701 0.465338 0.15288371 0.5568079
0002b0 e7 28 2a bf 1d 81 02 3f ff db ad be 4f 86 ba 3e
       -0.6646866 0.5097826 -0.33956906 0.36430594
0002c0 95 b6 c7 3e 5b ac b6 be 31 8d 56 3e 0e ac 0d bf
       0.39006487 -0.35678372 0.20952298 -0.5534066

conv1.bias f4 [20]
000000 bb 52 41 3e 69 83 d2 bc e0 4f 25 3e 75 28 db bd
       0.18879215 -0.025697427 0.16143751 -0.10701076
000010 a9 e8 f4 bc 60 cd d9 bd 05 22 0e be 96 c7 83 3e
       -0.029896097 -0.10634875 -0.13880165 0.2573821
000020 41 68 00 be b7 7b ec bc 33 17 95 bc 9e 0b 11 be
       -0.1253977 -0.028867586 -0.018199539 -0.14164588
000030 20 c5 19 3e 96 c1 f6 3c 83 f0 7b bd 2a 47 95 3b
       0.15016603 0.030121606 -0.061508667 0.0045556026
000040 1f c7 08 3e 4b 69 44 be af e2 5b 3d 0e 9f d1 bd
       0.13357209 -0.19180791 0.05368298 -0.102354154

fc1.weight f4 [5, 1440]
000000 20 b3 cc 3d bc 5c 02 3d 60 31 38 3e 44 26 18 3d
       0.09995103 0.03182672 0.17987585 0.037145868
000010 ef 50 fe 3b 1b ea 83 bd ca ae 04 be a6 69 0a be
       0.007761113 -0.064411364 -0.12957302 -0.13516864
000020 27 79 d9 bd 0e 16 c5 3d 3f 45 d9 3d 24 d4 bf 3d
       -0.10618811 0.09623347 0.10608911 0.093666345
000030 54 a4 ff bb e6 76 43 bc ed e6 87 bd 53 22 cd bd
       -0.007801572 -0.011930203 -0.066358425 -0.100163125
000040 f5 df 14 be b1 42 2d be a8 3d fd 3c 93 6f 92 3d
       -0.14538558 -0.16919972 0.030913189 0.07150187
000050 17 61 5b 3b 82 cf 3b bd 78 c5 76 bd d0 65 c9 bd
       0.0033474618 -0.04585219 -0.060246915 -0.09833872
000060 8a 87 b6 bd 59 97 7f bd 1a 7a ab bd a9 fd c8 bc
       -0.08912571 -0.062400196 -0.083728984 -0.024535017
000070 cb 18 19 bc 53 4f e6 bc a6 d3 e4 bb f4 18 f2 bc
       -0.00934429 -0.028113997 -0.0069832383 -0.029552914
000080 e3 92 1d bd 8c af 57 bd 01 dd 43 ba 26 13 53 bd
       -0.03847016 -0.05265765 -0.0007471592 -0.051531933
000090 df e8 98 bd 6d 90 4d bd cc d2 8b 3b 54 9c b3 bb
       -0.07466292 -0.050186563 0.0042670723 -0.0054812822
0000a0 57 20 f9 3c b6 6b 1d 3d c1 06 3d 3c 12 95 cf 3b
       0.030410929 0.0384328 0.011537255 0.0063349092
0000b0 d3 03 84 3a 06 00 06 bd 5b d8 87 bd 80 da 9e 3c
       0.001007194 -0.032714866 -0.066330634 0.019391298
0000c0 10 08 f9 bb 92 9d 0e bb 8d 21 a4 bb b3 a7 ee bb
       -0.007599838 -0.00217614 -0.0050088824 -0.007283175
0000d0 25 c7 2b 3b b6 1b 42 3d f5 e6 a1 bc 64 87 16 3d
       0.0026211229 0.04738971 -0.01976345 0.036750212
0000e0 b4 6d 84 bc da ad 5e bc f2 d9 4d bc 71 e5 82 3c
       -0.016165592 -0.013591254 -0.012564169 0.015978547
0000f0 ae 02 b1 bb 5c 6e 20 3d 77 0b 4d 3c 1b ae 0e bc
       -0.005401931 0.039167747 0.01251494 -0.008708502
000100 de 92 0a bd 20 be 3d bd cf 6a b0 bc ab 9f 14 bd
       -0.03383147 -0.046323895 -0.021535305 -0.036285084
000110 c6 69 1f bd 99 b4 ea bc 7a 52 35 bb b0 37 5a bc
       -0.038919233 -0.028650569 -0.0027667568 -0.013318941
000120 45 c3 0a 3e ac d7 aa 3e 04 18 a6 3e e8 b5 b7 3d
       0.13551052 0.3336767 0.32440197 0.08970243
000130 00 e1 7b 3d 1c 59 0d be d9 47 fe bd c4 3f 1b be
       0.061493874 -0.13803524 -0.124160476 -0.15161043
000140 3a 5e 21 be 88 75 0c 3e 47 42 59 3e ea 7f 40 3e
       -0.15758601 0.1371671 0.21216689 0.18798795
000150 ac 27 3e 3b 61 c0 99 bd 4b 6c fa bd e3 c4 dd bd
       0.0029015345 -0.075073965 -0.122276865 -0.10828569
000160 9f f3 3e be 8c e6 31 be f6 74 13 3e 38 74 b9 3d
       -0.18647622 -0.17373103 0.14400086 0.0905537
000170 b3 8b 98 3d e1 08 a7 bc 1a 45 28 bd 93 7a 07 be
       0.074485205 -0.020389976 -0.041081525 -0.13230352
000180 6d 93 0c be ad d5 1f be 0d 25 25 be 43 ab 2e 3e
       -0.13728113 -0.15608855 -0.16127415 0.17057519
000190 71 18 80 3d 54 65 9f bb 0a b8 9b bc 09 78 82 3c
       0.06254662 -0.004864374 -0.019008655 0.015926378
0001a0 96 4d 24 3d 5f f7 16 be d2 95 f9 bd 93 7f 82 bc
       0.040113054 -0.14742802 -0.12186779 -0.015929973
0001b0 0a 07 e8 3b 22 24 1f bd d2 db af 3b f9 da a2 3c
       0.0070809172 -0.03885282 0.005366781 0.019879805
0001c0 06 c5 79 3c a7 bb 3a 3c 5d d4 f6 3b 5c 84 a1 bd
       0.015244728 0.011397279 0.00753264 -0.07886574
0001d0 df 23 84 bd 59 95 8c bd 55 a4 28 3c 72 d0 c1 3c
       -0.06452154 -0.06864423 0.010293086 0.023658965
0001e0 b3 e3 83 3d 36 9b 5a bc d4 b8 7b bb 15 3e 3b bc
       0.064399146 -0.013342669 -0.0038409727 -0.011428376
0001f0 5d d2 aa 3c 18 fc da 3d 04 2e f9 bb dc c5 2e bc
       0.020852262 0.10692614 -0.0076043624 -0.010667291
000200 6c 07 36 bd 82 04 ba 3c 03 e7 fe 3c f8 53 05 3d
       -0.04444067 0.022707228 0.031116014 0.032550782
000210 2e 29 a9 3c ca c2 d6 3c fc 87 c4 3d b9 75 44 bd
       0.020649519 0.02621593 0.095962495 -0.04796383
000220 34 2e 75 bd a2 6f ab bc f3 5b 93 bd 05 4b c7 bd
       -0.059858516 -0.020927254 -0.07195272 -0.09731106
000230 85 71 a1 3a 68 c3 f1 3c b3 f1 85 3d 59 ba b4 3d
       0.0012317157 0.029512122 0.06540241 0.088246055
000240 f3 ea 7f bd 40 e8 14 3e 02 c2 b2 3d 19 c6 5f 3d
       -0.062479924 0.14541721 0.0872841 0.05463228
000250 33 f4 22 bd 84 6e ec bd 9c ed f8 bd 52 15 1b be
       -0.039783668 -0.11544517 -0.121546954 -0.15144852
000260 96 cd ad bd f1 6d c7 3d b7 92 7c 3d 08 18 97 3d
       -0.08486478 0.097377665 0.061663356 0.073776305
000270 31 cb e5 bb 43 e4 26 bd a2 71 6a bd 2b 63 c1 bd
       -0.0070127477 -0.04074503 -0.057237275 -0.09442743
000280 f4 c8 0b be 16 fa 17 be 2a 05 97 3d 67 cc 44 3c
       -0.13650876 -0.14841494 0.07374032 0.012011624
000290 70 c2 c8 3c a0 c6 5c bd 46 b6 23 bd ce 01 8a bd
       0.024506778 -0.05390036 -0.03996875 -0.067386255
0002a0 f9 2c a8 bd e2 37 70 bc c8 37 23 bd 17 8f 90 bd
       -0.08211703 -0.014661761 -0.03984812 -0.07058542
0002b0 86 9d 67 bd b3 f4 c9 bc 5d 55 37 bc 3b f5 6c bc
       -0.05654671 -0.024652814 -0.011189786 -0.014462764
0002c0 45 93 5e bd 83 ec 21 bc d6 6d f0 3c 85 9f 5b 3b
       -0.054339666 -0.009883049 0.029349249 0.003351183
0002d0 e9 bb b5 bd 94 8e 53 bd 2d 2f 0b 3c 8b b0 51 bc
       -0.08873732 -0.051649645 0.008495134 -0.012798439
0002e0 2a a8 b1 3c f1 4f 6d 3c 9b e4 c3 3c 8b 22 c3 bb
       0.021686632 0.014484392 0.023912719 -0.0059550456
0002f0 bf d7 25 3d d5 19 e2 bb 55 0a e9 bc af 4d 4d 3c
       0.040488955 -0.006900052 -0.02844731 0.012530728
000300 e8 87 80 3c 80 fa bd 3c ef 07 fb 3c 9a 1c 33 3d
       0.015689805 0.023190737 0.030643431 0.04372845
000310 26 38 ac b9 a3 25 32 3d dd c1 1a bd 51 de 58 3c
       -0.0003284823 0.043492924 -0.03778254 0.013236598
000320 42 64 33 bc f1 3d 5d bc 24 b0 b1 bb fc 9c 97 3c
       -0.010949196 -0.0135035375 -0.005422609 0.018507473
000330 bb b5 11 bc 06 df b4 3c 7d 9f 25 3d 0d e8 53 bd
       -0.008893426 0.022079002 0.040435303 -0.051734973
000340 1b 38 ed bc 6e c6 40 bd 48 6a 9d 3c ce 55 85 bd
       -0.028957417 -0.047064237 0.019215718 -0.065105066
000350 8d 3e 96 3c e9 66 08 bd 08 7b ac 3c 51 d3 04 bd
       0.018340373 -0.033301268 0.02105476 -0.03242809
000360 88 f4 94 3d fa 70 72 3e c8 42 7d 3d 66 ef 8c 3e
       0.07273203 0.2367591 0.061831266 0.27526397
000370 2e 28 b3 bb 62 86 ff bd a8 8f a3 bd e5 b4 01 be
       -0.0054674363 -0.12476803 -0.07986385 -0.12666662
000380 98 c2 20 be 4e 6c 01 3e 58 0d 56 3e d0 c1 81 3e
       -0.15699232 0.12638971 0.20903528 0.2534318
000390 cd 9e 74 3e df dc 88 bc 8c c2 1b be d0 38 19 be
       0.23888703 -0.016706882 -0.15210932 -0.14963078
0003a0 91 ff 19 be fa 2e 3d be 55 ba 53 3d 13 86 16 3e
       -0.15038897 -0.18474951 0.051691372 0.14699583
0003b0 29 17 1e 3e 10 ed 6a 3c d1 94 71 3c 6e 54 2c be
       0.15438522 0.014338747 0.014744953 -0.16829082
0003c0 00 fd 3a be 66 77 37 be 62 2c b9 bd 48 8f d7 3c
       -0.18260574 -0.1791664 -0.090416685 0.026313439
0003d0 86 d0 b4 3b 0d 97 02 3d 20 6a 51 bc 70 a6 cb bc
       0.005518022 0.031882335 -0.01278165 -0.024859637
0003e0 c1 1a 00 be 9b 35 f8 bd da cf 14 be 34 e5 3a bd
       -0.12510206 -0.121195994 -0.14532414 -0.04562874
0003f0 0a 45 15 3c d0 fc 41 bd 03 10 36 bd 5b 56 b4 3c
       0.0091106985 -0.04736024 -0.044448864 0.022013834

fc1.bias f4 [5]
000000 15 ac 46 bd f4 fb fd bb e9 7b a9 3c 1d 2c 8c bc
       -0.048503954 -0.0077509824 0.020688968 -0.017110879
000010 c5 ed cb bc
       -0.02489365

fc2.weight f4 [2, 5]
000000 91 5c 2d bf 68 50 b0 bd ee c5 50 3f 61 f7 44 bf
       -0.6771937 -0.08609086 0.81552017 -0.7693997
000010 ef 16 c4 be 92 18 c1 3e ae 82 31 3f b7 a1 ad be
       -0.38298747 0.37714058 0.69340026 -0.3391244
000020 03 e0 35 3f b5 54 03 3f
       0.7104494 0.5130113

fc2.bias f4 [2]
000000 9d 13 2a 3e 39 38 20 bf
       0.16609044 -0.6258579
