5_train_and_test_model/4_2_Ablation Analysis/CNN-3D/model_3D/sb3/fold4.ckpt (torch, 31751 bytes, 6 tensors)

conv1.weight f4 [20, 1, 1, 3, 3]
000000 2e 3d 06 3f 0f 6d 3c bf 3a 01 03 be 58 f2 d1 3e
       0.524371 -0.7360391 -0.12793437 0.41005206
000010 a2 54 09 3f 4b 6a f9 bc e8 e2 0c be eb 8e 7d bd
       0.53644764 -0.030446192 -0.13758433 -0.061903875
000020 92 a3 56 3e 95 8f 96 3e 2a 20 ba bd 36 80 9c be
       0.20960835 0.2940642 -0.09088166 -0.30566567
000030 09 29 bc be 63 28 81 be 2c d5 b9 3e 8f 5f 88 be
       -0.36750057 -0.25226125 0.3629545 -0.26635405
000040 d0 d1 db 3e 04 1f 08 3e 68 7e b8 be 3b a2 12 3b
       0.42933512 0.13293082 -0.3603394 0.002237453
000050 9d ee 03 3f b0 14 3a 3e 09 c6 ab 3d ac b3 58 be
       0.5153597 0.18171954 0.083873816 -0.2116229
000060 7c 8b d8 bc b1 73 d3 be 86 0d 6f 3d e6 44 34 3d
       -0.026433699 -0.41299203 0.058362506 0.04401102
000070 df 71 9b be e6 18 f3 bc f4 1d e3 3e cf d5 38 3f
       -0.30360314 -0.029674958 0.4435879 0.72201246
000080 16 eb d7 be c6 76 cc 3e 20 ca 9f 3e b1 a1 0e bf
       -0.42171544 0.39934367 0.31208897 -0.5571547
000090 1a 73 b8 bd b9 d7 72 be 76 de 97 3e eb f2 7f bc
       -0.09006329 -0.23715104 0.29661912 -0.015621881
0000a0 f2 b6 fd 3d ae 3f 9a be 52 82 07 bd 55 6d cd 3e
       0.1238841 -0.3012671 -0.033083268 0.40122476
0000b0 bc 2c 97 be ed d0 b9 be c0 fb f2 be 00 21 c0 be
       -0.29526317 -0.3629221 -0.47457695 -0.37525177
0000c0 4a ac 07 3f dc 29 de 3e 6e 6b 33 be e1 35 98 be
       0.5299727 0.4339131 -0.1752145 -0.29728606
0000d0 e6 07 f2 3e ce ce 86 3b d5 50 c2 3e 27 92 14 3f
       0.4727165 0.0041140085 0.37952295 0.5803551
0000e0 a2 62 10 3f e2 19 be 3e 0b fa 3b be c1 2d 16 be
       0.564005 0.37129122 -0.18357103 -0.14665891
0000f0 cc e3 7c be ed 5a b5 bd 0e 09 1d bf ab 8b 7a be
       -0.24696273 -0.08855233 -0.6134194 -0.24467342
000100 30 08 e3 bd 82 08 7e 3e 50 f0 7f 3e 45 08 b8 be
       -0.11085546 0.24807933 0.24994016 -0.3594381
000110 ef 04 58 3e 07 da 65 be 55 07 9f bd fe cc 7a 3e
       0.21095632 -0.22446452 -0.0776507 0.24492261
000120 3e 52 a0 be e1 38 18 be 1b a4 27 bd 06 36 27 3f
       -0.31312746 -0.14865448 -0.040927988 0.6531681
000130 e1 35 c6 be c5 1d 20 3f ca 0e 24 bd 77 3b 24 bf
       -0.3871298 0.62545425 -0.040053166 -0.64153236
000140 1f 1e e6 3e 5b fb 80 3e 19 14 b5 be d3 c8 f1 be
       0.44944856 0.2519177 -0.35366896 -0.4722353
000150 37 52 7c 3d bc 3a 4f bd 16 5d d1 be f0 24 84 be
       0.061601844 -0.050593123 -0.4089133 -0.2580943
000160 d6 1f eb be 3f 2d 68 3e 2e a3 7f be 82 af 19 3f
       -0.45922726 0.2267351 -0.24964592 0.6003343
000170 5d a3 69 bd b1 3d 10 3e 08 e9 0d bd 55 dc 8a be
       -0.05704056 0.14086033 -0.034646064 -0.27121225
000180 11 78 16 3f 2f bc bc 3e 88 8c 26 bf 3a 3c 1e 3f
       0.58776957 0.36862323 -0.65058184 0.6181065
000190 ba 00 1c 3e fa 59 e4 bd 42 4b c5 3e b8 2f 98 be
       0.15234652 -0.11149974 0.3853398 -0.29723907
0001a0 3e f0 9b be 9a 13 3f be bb 31 d6 bc 57 93 34 be
       -0.30456728 -0.18659821 -0.02614676 -0.1763433
0001b0 42 a8 2b 3e 8f 56 f0 3e d6 fb bb be ad ae a2 3d
       0.16763404 0.4694104 -0.36715573 0.07943473
0001c0 5c 64 23 bf fc 44 75 3e de a9 85 bd 3c 12 29 bd
       -0.6382501 0.23952097 -0.0652654 -0.041277155
0001d0 c5 81 a8 3e b5 f8 08 3f da 61 37 3f f7 79 bd 3e
       0.32911506 0.53504497 0.71633685 0.37007114
0001e0 e6 65 07 bf 96 6b 07 3f 08 6f cc be 8a ae a9 be
       -0.5288986 0.5289854 -0.3992846 -0.33140975
0001f0 02 ee d6 be 70 f2 88 3d 08 35 ca be 3b fd 25 bf
       -0.4197846 0.06686866 -0.39493585 -0.64839524
000200 98 48 85 be a2 fe b3 3e fb 1d 4a 3e 43 9a ba 3e
       -0.26031947 0.35155207 0.19737999 0.36445817
000210 db 3f 2c 3e 4c 4a fe 3d 5d 87 8a 3d 1b a7 65 be
       0.16821234 0.12416515 0.067641 -0.22427027
000220 86 cd 20 be 1c d1 3a 3f 1b 48 a7 be 36 b3 b5 be
       -0.15703401 0.72975326 -0.326722 -0.3548829
000230 54 7d ea bd fa c1 39 bd d8 ce 13 3c 5a 71 0a bf
       -0.11449686 -0.045351006 0.009021483 -0.5407921
000240 54 a6 b0 bd ae 9a c0 3d ed 94 8f be f3 dc 25 be
       -0.086254746 0.09404503 -0.2804331 -0.16197567
000250 9b 8f 6c be c2 69 80 3e a4 57 01 be f3 a4 e2 3e
       -0.23101656 0.25080687 -0.12631088 0.4426647
000260 66 8d 9d bc 6a 9d a1 be 10 fc e5 3e 9b fa c9 3e
       -0.019232463 -0.3156541 0.4491887 0.3944901
000270 24 ca df bc 87 37 5d bd a5 ce d2 be 0f b0 3f be
       -0.027318068 -0.054008033 -0.41173282 -0.18719505
000280 0e c2 20 3e b7 dd b0 be ab 37 c9 bd 81 77 04 be
       0.15699026 -0.34544155 -0.09825071 -0.12936212
000290 b3 d5 96 3e 99 0c f6 be c8 16 27 3f 61 56 e2 be
       0.29459915 -0.48056486 0.65269136 -0.44206527
0002a0 4f 06 93 3e 1f 21 0b 3d d4 87 e2 be 1d 69 36 bf
       0.2871575 0.033967134 -0.44244254 -0.7125414
0002b0 98 1c 6f 3e e9 7d 0d 3e 0c c5 c9 3c 94 ad 20 3d
       0.23350751 0.13817562 0.024630092 0.039228037
0002c0 92 63 b8 3e cb af 21 bc c2 c9 83 3e cc 49 0f 3e
       0.36013466 -0.0098685725 0.25739866 0.13992995

conv1.bias f4 [20]
000000 ec 06 1e be ae 7c 82 3e 89 b6 a5 bc 94 0c 86 bd
       -0.15432328 0.25485748 -0.020228641 -0.06545368
000010 92 2f 68 3e 51 25 97 bd a1 20 fc bd c2 86 2e 3e
       0.22674397 -0.073801644 -0.12310911 0.17043594
000020 12 16 d9 bd 64 fc 71 be 2b f0 2d bd 02 73 9f 3d
       -0.10599913 -0.23631436 -0.04246537 0.07785608
000030 19 d2 68 3e 83 38 16 be e0 e1 00 be e6 74 51 be
       0.22736396 -0.14669995 -0.12586164 -0.2045475
000040 14 cb 06 3e 37 db 27 3e dc c0 13 bd 0b f8 e7 bc
       0.13163406 0.16392218 -0.036072597 -0.028316518

fc1.weight f4 [5, 1440]
000000 67 2e c6 3d bc d1 3a 3e d4 6d 55 3e 79 7d 14 3e
       0.09676819 0.1824407 0.20842677 0.14500989
000010 40 29 09 be 6c 21 14 3b 7c 87 04 be c8 47 3a be
       -0.13394642 0.0022602929 -0.12942308 -0.18191445
000020 7f 69 dd bd 57 af 06 3e 25 1e ec bc 72 01 ff 3d
       -0.108111374 0.13152824 -0.028822968 0.124514475
000030 59 84 fa 3d 07 e7 ae 3d 78 f8 64 bc bb 8c 1b be
       0.122322746 0.08540159 -0.013975255 -0.15190403
000040 91 8f bd bd 56 88 ee bd 28 67 16 be fa 92 ab 3b
       -0.09255899 -0.11647098 -0.14687788 0.005236027
000050 44 88 87 3d 03 10 f8 3d 90 35 c7 3d 23 2c eb 3d
       0.066177875 0.12112429 0.09727013 0.11483028
000060 70 66 83 bd f5 89 95 bd c3 f0 06 be 0d ab 37 be
       -0.06416023 -0.07301704 -0.13177781 -0.17936344
000070 64 83 b2 bd 09 4c 2c 3d 1c 75 d4 3d a9 64 05 3e
       -0.08716467 0.0420647 0.10373899 0.1302668
000080 58 53 d8 3d 09 1b 88 3d d9 4a 0b bb 88 16 0a be
       0.105627716 0.066457815 -0.002125433 -0.13485157
000090 b9 b8 52 bd dd 0d ee 3c b8 1a 0a 3e 5e 48 84 3d
       -0.051445697 0.029059345 0.13486755 0.064591154
0000a0 7b bb 0a 3e f3 bd e6 3d 4f ba c1 3d c4 09 ab bc
       0.1354808 0.11266699 0.09459364 -0.02087868
0000b0 10 d3 51 be 7a 86 82 3e e3 a0 74 3d b9 4d a0 3d
       -0.2049067 0.25493222 0.059723746 0.078273244
0000c0 3b 32 98 3d 1f 01 12 3e 7f 51 ee 3d eb 52 34 3e
       0.07431456 0.1425824 0.11636638 0.17609756
0000d0 85 01 f3 3d 97 64 90 3c ac 25 a1 3e df 59 04 be
       0.11865524 0.01762609 0.31474054 -0.12924908
0000e0 9b 7b 13 3d 53 df ac 3d f2 9a 85 3e 92 8f 3a 3e
       0.03600655 0.08441033 0.26094776 0.1821883
0000f0 c9 f2 34 3e 23 69 70 3e 42 2d 0a 3d ca 97 14 bd
       0.1767074 0.23477606 0.033734567 -0.03627757
000100 7d 61 36 bd b9 b5 25 be 80 a5 12 be b3 58 8c 3e
       -0.044526566 -0.16182603 -0.14320946 0.27411422
000110 07 8d ed 3d 8f 58 7d 3e f4 6a ce 3d 1f e2 13 3e
       0.115991645 0.24740814 0.100789934 0.14441727
000120 85 39 1e 3b 4c 36 92 3d 17 d2 98 3c 53 58 c2 3c
       0.002414317 0.071392626 0.018654866 0.023723757
000130 95 62 6b bb b0 75 7a bd b4 89 76 bd 8a 3c 8e bd
       -0.0035916914 -0.06114739 -0.060189918 -0.06945141
000140 a2 45 2f bd 2a ad 15 3a 58 18 8a bc c3 b1 bb 3b
       -0.042791016 0.00057097024 -0.016857311 0.005727978
000150 a6 0a d0 3b 2b dc b4 bc 9d cc 77 bd 93 62 b9 bc
       0.0063489256 -0.02207764 -0.06049787 -0.022630012
000160 59 3e 4f bd 3d cd c7 bc 0e be f8 bc ce be 5d bd
       -0.05059657 -0.024389857 -0.030364063 -0.054137044
000170 53 0a 57 bc 63 3c d7 bb d0 99 70 3c c8 c6 7c bc
       -0.01312502 -0.006568478 0.014685109 -0.0154282525
000180 93 59 ab bb 70 41 8b bd a6 11 34 bd 7b ec 9a 3c
       -0.005229184 -0.067995906 -0.043962143 0.01891159
000190 5c cd 9b bc 13 6c eb 3b fc 83 bf bc 30 63 a1 3c
       -0.019018821 0.0071845143 -0.023378365 0.019700617
0001a0 72 15 4c 3c 2d c8 06 bc 97 72 d7 bc 2e 5d 0b bd
       0.012456285 -0.008226437 -0.026299758 -0.03402441
0001b0 3e b3 54 bc af 18 31 3b e6 07 a1 3c 97 d3 94 3b
       -0.012982188 0.002702277 0.019657087 0.004541825
0001c0 da 47 a6 bc 6b 23 be ba af aa a3 3c e4 d2 d7 bc
       -0.020297933 -0.0014506405 0.01997885 -0.026345678
0001d0 91 85 e4 b8 61 b7 09 bc 86 20 f3 bc 27 6a 24 bc
       -0.00010896766 -0.008405537 -0.029678594 -0.010035074
0001e0 73 3e 69 3b cf 9b a1 bb 1b fa 04 3d a0 70 e9 bb
       0.00355902 -0.004931904 0.03246508 -0.0071240216
0001f0 78 f0 c2 3c 9b 39 1b bc cf ce 4e 3c b5 8a c6 bb
       0.023796305 -0.009474183 0.012622549 -0.0060590156
000200 25 08 3f 3a 35 5f f9 bc 7c 09 04 3c 6e 30 3c 3c
       0.00072872854 -0.030440906 0.008058902 0.011486156
000210 a7 6a 3f 3c 90 db 08 bd fd fd 90 ba 5b 03 f8 bc
       0.011683143 -0.033412516 -0.0011062023 -0.030275038
000220 6c 3e 1f bd 67 6a 28 bd 6e f3 6c 3b 51 66 e7 bc
       -0.03887789 -0.0411171 0.0036155838 -0.02824703
000230 02 6f be bc 0c 1c 14 3c b4 57 9b 3c 1b 2b 2b 3b
       -0.023246292 0.00903989 0.018962719 0.0026118222
000240 d1 54 12 bb 48 85 1e 3e 86 5a b6 3d bb 7d 85 3c
       -0.0022328387 0.1548053 0.08903985 0.016295305
000250 84 c0 03 3d 64 85 05 be c0 a8 ba bd ea e9 83 bd
       0.03216602 -0.13039166 -0.09114218 -0.064411
000260 2f aa b8 bd e7 a9 f2 bd d7 71 c5 3d 3e 59 42 bc
       -0.09016835 -0.118488126 0.09640854 -0.011862097
000270 ab 8e d2 3d 60 af df 3c 84 2e b5 bd 18 0f db bc
       0.10281118 0.027305305 -0.08846763 -0.026740596
000280 d4 b4 e2 bd 5a ae 2c bd 15 af 2b bc 41 68 31 3a
       -0.110696465 -0.042158462 -0.0104787545 0.0006767549
000290 ad 62 62 3c e2 d5 80 3d 7a 44 be 3c b7 cc d2 bd
       0.013817471 0.06290795 0.023226012 -0.102929525
0002a0 5c 8d ce bc c6 2b e1 bd 8b 63 b6 bd 41 1d 6d bb
       -0.02521389 -0.10994677 -0.08905705 -0.0036180767
0002b0 a7 07 9e bd b7 1a 84 3c b7 9c fe 3c d7 ce c1 3b
       -0.07716303 0.01612602 0.031080587 0.00591455
0002c0 be db 14 3b 8a 49 44 bd 94 b9 81 bd 8a 0a b1 bc
       0.0022713984 -0.047921695 -0.06334224 -0.02161147
0002d0 b8 62 37 bc dd 3d b0 3c 41 03 67 3d fc f5 24 3d
       -0.01119297 0.021513874 0.056399588 0.04027365
0002e0 62 88 12 3d 06 82 1f 3d 91 c7 df 3b 23 a1 03 be
       0.035774596 0.03894236 0.00682921 -0.12854438
0002f0 45 7f 4c bd ee 29 fc bc e0 de 07 3d 08 da 44 3d
       -0.04992606 -0.030781712 0.033171535 0.048059493
000300 96 f6 72 3d e3 c8 0c 3d e5 1d 2c 3d fb 45 06 3d
       0.059317194 0.034371268 0.042020697 0.032781582
000310 c7 af b0 3c 68 4e 8a 3d 2c e4 8d 3c c3 be 23 bd
       0.021568192 0.06753236 0.017320715 -0.039976846
000320 ed dd 16 3b 4b f3 88 3c 94 2e 03 3d 0d 2a 97 3d
       0.0023020462 0.016717574 0.032026842 0.073810674
000330 b3 1f ca 3c f8 6b f1 bd 90 21 0e 3d c9 16 21 3c
       0.024673318 -0.117881715 0.034699976 0.009832093
000340 53 66 f8 bc c9 98 43 bd db bd 94 3c db 24 4c be
       -0.03032223 -0.04775313 0.018156936 -0.19935934
000350 aa 8e 89 3d ee 88 31 3d ec c6 51 3d 01 68 20 3c
       0.06716664 0.043343477 0.051215097 0.009790421
000360 da 3c ad 3d fa 74 09 3d 26 f6 ed 3d bd c9 b9 3d
       0.08458872 0.033558823 0.11619215 0.09071682
000370 cf d3 c3 3b 1c 5d 08 bd ef bf da bd fe f4 e6 bd
       0.0059761773 -0.03329192 -0.1068114 -0.11277197
000380 a2 09 84 bd 03 af 31 bd 17 0e f2 bc 84 6c a9 3d
       -0.0644715 -0.043379795 -0.029547734 0.08272651
000390 d4 f7 41 3d 84 b3 2d 3d 72 60 a8 bc 3d dd 5b bd
       0.047355488 0.042407528 -0.020553801 -0.053677786
0003a0 e1 5e d9 bd 31 0d 90 bd c5 26 54 be 5e 76 4a bd
       -0.106138 -0.07033766 -0.20717914 -0.04942929
0003b0 6a 5d 6b bb 90 9a 28 3d 39 f1 96 3d dd 59 53 3d
       -0.0035913833 0.041163027 0.07370228 0.051599372
0003c0 89 c9 1c 3d df 10 d1 bd a0 74 85 bd 7c ef 29 bd
       0.038278136 -0.10208296 -0.06516385 -0.041488156
0003d0 c8 d0 e5 3c db a2 0f 3d c2 e9 37 3d 21 96 82 3d
       0.028053656 0.03506742 0.044900663 0.06376291
0003e0 98 01 b7 3d 54 83 6f 3d e3 94 b5 bc 72 da f7 bc
       0.08935851 0.058474854 -0.022165721 -0.03025553
0003f0 78 56 89 3d 8c 2f 9c 3d 46 95 3c 3d 0e 45 09 3d
       0.06705946 0.07626256 0.046040796 0.03351312

fc1.bias f4 [5]
000000 6b fa ba bc ff 2a 32 bc b1 32 45 bc 43 22 4c bc
       -0.022824487 -0.010874509 -0.012036012 -0.0124593405
000010 a5 f1 ef bb
       -0.0073225074

fc2.weight f4 [2, 5]
000000 69 26 13 bf 9a 1a bf 3e e6 d8 13 3f 77 a4 88 3e
       -0.57480484 0.37324983 0.57752836 0.26687977
000010 f6 8c fa be 5b ef 06 3d 82 77 34 be d2 67 6f be
       -0.4893567 0.03294311 -0.17623714 -0.23379448
000020 d8 7d 90 3e 68 5f 04 3f
       0.2822101 0.5170808

fc2.bias f4 [2]
000000 b7 b6 ce 3d 94 f9 81 3e
       0.10093444 0.25385725
