5_train_and_test_model/4_2_Ablation Analysis/CNN-3D/model_3D/sb3/fold1.ckpt (torch, 31751 bytes, 6 tensors)

conv1.weight f4 [20, 1, 1, 3, 3]
00000000: 042f 0f3f 64f4 3d3f 5840 92be a62f 81be
00000010: ea5f d1be dd67 80be 6744 6fbe 7bee 0abc
00000020: 19b6 083e ada0 313f a8ea fd3e 7f39 cf3c
00000030: 193d 2bbe 40f0 17be a068 85be 5278 60be
00000040: 7251 f0be c271 e13d 2212 babe 6667 e93d
00000050: c374 bcbe 4b2d df3d d6a6 813d fb48 e7bc
00000060: f97d 063e 9ea8 9c3e b9c6 5a3e cdf7 c03d
00000070: fa4a 1c3f 1d55 be3e b844 cd3e b7eb e33e
00000080: 1669 c13e 0869 c6be 7daa b5bd d1df 1dbf
00000090: 2774 d23d 6c68 153f bf81 debe 1ce0 f3bd
000000a0: 2025 e13e ddac 343e 394b 85be 5069 51be
000000b0: 3af8 ca3e 1547 e13d 68d2 48be 7409 9dbe
000000c0: eace c63e 7bf3 00bf 0ecc a63e a692 133d
000000d0: 1f58 0a3e b2d5 e43e cd3b a43e c5cb 9cbe
000000e0: 2309 13bc 370b b03c 4081 32be 4827 b23e
000000f0: b472 5dbb 0a76 a43d 5b2e 4f3e 93c8 f93d
00000100: 5c1b eebe 311d b4be 2057 993b d4a4 833e
00000110: 8b78 3a3e c708 903e 613b ab3c 2ec7 0d3e
00000120: 0894 353e 1ddc c0be 1e61 833e 0501 4fbe
00000130: 6bd0 d0bd 77d8 883e 785a 083f 9714 a7be
00000140: 145e 4ebe cd04 1a3e a3d2 463d d08f cabe
00000150: 3f23 353e 40c3 413e 665f 8c3e 17ec 10bf
00000160: e493 913e 0724 9f3d bcd5 083d 3668 193f
00000170: 5538 86be 5cd9 2a3e 63aa 7ebe 2b82 473d
00000180: 7498 7cbd 5696 b1be 570b 70be a399 fdbd
00000190: 4a19 5ebe 7eae 44bd ecfd a7be 9b38 e9be
000001a0: 7cee 86be f0f6 d33c e8ac ee3d 1b6c 833e
000001b0: 0223 2bbe 869d 9f3e 869d eb3e 3d3b 3dbf
000001c0: 7491 c23e 1b63 2c3d ab76 793d 6cad 383d
000001d0: edfd ac3d c26d 76bd 0a13 6f3e 3c4f d9be
000001e0: ddbe dc3e 3986 13bf e37c 993e 408d 7f3e
000001f0: 9881 03be 37d5 713e 545c b3be 6649 a0bd
00000200: f97d 69be e81c 493e f2e1 3abe bcbe b03c
00000210: 4a61 fa3e 88d1 ebbd 04f8 4bbe b990 a03e
00000220: 46ad 2e3f b4e7 8abe b6b8 903e 7064 f3be
00000230: 4728 5e3e 82ca ad3c 4d41 aa3d f151 d93e
00000240: d4b1 a8bd 476f a73d dc7f de3e b1be 88be
00000250: fc21 20be 2e50 84bd 82ec 8dbd 4a5c ee3e
00000260: 2344 943b 35fe 4c3e dbb1 5fbe c6bc 593e
00000270: 9960 2d3d 81b1 f73e 4f69 d03e c487 e5bd
00000280: 7afc 3cbe 56d5 bb3e 745b 023f 47c5 2fbf
00000290: b46c 86be dfd4 353f 96f3 03bf 3afd f8be
000002a0: 59b6 023f 7a39 7a3e a9ff 0d3f e0d7 193e
000002b0: 0b56 1e3f 9439 0cbf fc8d d8be 9b81 c3be
000002c0: 7c85 0f3e 81e5 b03e 1835 21be fa20 bdbe
0.55931115 0.74201035 -0.28564715 -0.25231665 -0.4089349 -0.2507924 -0.23365937 -0.00847971
0.13350715 0.69385797 0.4959309 0.025295971 -0.16722526 -0.14837742 -0.26056385 -0.21920899
-0.46937138 0.11008026 -0.3634196 0.11396675 -0.36807832 0.10897311 0.063306496 -0.028233042
0.13133992 0.30597395 0.21364869 0.09422264 0.61051905 0.3717431 0.4009149 0.44515774
0.37775487 -0.38752007 -0.08870409 -0.6166964 0.102760606 0.5836246 -0.43458363 -0.1190798
0.43973637 0.17644067 -0.26033953 -0.2045033 0.39642507 0.10999886 -0.19611514 -0.30671275
0.38829738 -0.5037152 0.32577556 0.036028527 0.13510178 0.44694287 0.32076874 -0.30624214
-0.008974346 0.021489723 -0.17432117 0.34795594 -0.0033790292 0.08030327 0.20232527 0.121964596
-0.4650525 -0.3517852 0.0046795756 0.2571169 0.18210046 0.28131697 0.020902338 0.13845512
0.1773225 -0.37667933 0.25660032 -0.20215233 -0.101960026 0.2672765 0.53263044 -0.32632896
-0.20153075 0.15040894 0.048540723 -0.39562845 0.17689227 0.18922138 0.27416533 -0.56610245
0.28433144 0.077705435 0.033406958 0.5992464 -0.26214853 0.16684479 -0.24869685 0.048708122
-0.061668828 -0.3468501 -0.23441826 -0.123828195 -0.21689335 -0.04801797 -0.32810915 -0.45551
-0.26353824 0.025874585 0.11654073 0.25668415 -0.16712573 0.31174868 0.46018618 -0.73918515
0.38001597 0.0420867 0.060904186 0.045087263 0.0844687 -0.060163267 0.23347107 -0.42443264
0.43114367 -0.5762668 0.29978094 0.24956226 -0.12842405 0.23616491 -0.35031378 -0.078265
-0.22801961 0.19639933 -0.18250254 0.021575324 0.4890235 -0.11514574 -0.19918829 0.31360415
0.68233144 -0.271299 0.28265923 -0.47537565 0.21695052 0.021214727 0.083132364 0.4244533
-0.08237043 0.08175521 0.43456924 -0.26707986 -0.15637964 -0.064606056 -0.06929876 0.46554786
0.004524724 0.20018847 -0.2184519 0.21263418 0.04232845 0.48377612 0.40705344 -0.11207536
-0.18455687 0.366862 0.50920796 -0.68660396 -0.2625481 0.7102794 -0.5154356 -0.48630697
0.5105949 0.24435988 0.5546823 0.15023756 0.6185004 -0.5477536 -0.42295825 -0.3818482
0.14015764 0.34550098 -0.1574291 -0.36939222

conv1.bias f4 [20]
00000000: c128 4cbd 6944 a2bc d531 6d3e 79fa 53be
00000010: dd19 79bd 270f ce3d 2bbf 713e 236c 033e
00000020: 004f f53d c283 403e 9996 183e ebc2 18be
00000030: f87a b1bc d520 913d f76d 5e3e 1b30 2abd
00000040: 4cc2 8e3d 1565 5abd 954b 9bbd 5fb0 00be
-0.049843553 -0.019808011 0.2316354 -0.20701016 -0.06081568 0.10061484 0.23608081 0.1283422
0.11977959 0.18800262 0.14901198 -0.14918105 -0.021665081 0.0708634 0.21721636 -0.041549783
0.06970653 -0.053319056 -0.075827755 -0.1256728

fc1.weight f4 [5, 1440]
00000000: 8b9a 0f3e 3745 e63c 87d1 363e 9a67 153e
00000010: d95c 91bd 5ea3 5bbd 880f 00be 2e8e 9ebd
00000020: 7e82 80bd dcd7 f93d 2cf3 f13d db32 883d
00000030: fbfa a93d 52d1 8c3d fb17 b8bc 7178 79bd
00000040: 7879 91bd 5ec9 bdbd 7946 16bd 0d56 1bbd
00000050: d67f e53c 599c c43d 2a30 593d 25a0 57bc
00000060: 959b 23bd 7327 8ebd 4bfc b0bd 0355 55be
00000070: 7fa7 33bd 7971 af3d bb62 a33d 5009 723d
00000080: 97fe fb3c c9be a0bc 56eb 28be 1fb5 babd
00000090: 96d2 a63c 3006 95bc cbb7 313c 1cdc 623d
000000a0: a7ef 853c 45e9 d13a 64c6 9a3c 976d c5bd
000000b0: 11e0 debd 2baa a33d 8be1 d8bc aa1d 603d
000000c0: 45f9 333d b118 ca3d 577c 413d 8d62 993d
000000d0: c96b 333d de63 0f3e f412 a13d 2378 1e3e
000000e0: e742 023d d6c4 0e3d bd33 bd3d 2112 153d
000000f0: 77d2 ef3d f6e4 683d ff60 6ebd ccce d9bc
00000100: 1b9a 583c 444c 523d 1f56 d23c 7678 053e
00000110: 0fa6 4fbb 3dd2 983d 8261 553d 77ee 1d3d
00000120: b622 e93b 1f0e 4bbc 5c0a ee3d b882 d23d
00000130: 563a 62bd 2c40 60bd cf8a 00be abd6 96bd
00000140: eea1 0bbd 9ff4 4d3d 225d d23d 36c7 8e3d
00000150: d7dd 5b3d dcda 143d 6b18 a2bc b196 3bbd
00000160: 40a1 8abd 995e 76bd 7bfa babc b0c8 14bd
00000170: bb3d 293d 2994 d73c 2d34 a13c d468 19bc
00000180: 79e0 27bb 0ca3 53bd 01d3 51bd 7c0c 00be
00000190: 6c9a 9abd db8c a23c 68aa 313d 57ae 023d
000001a0: 0939 fd3b edb6 a2bc f44c b7bd c113 5fbc
000001b0: ab5f 8d3c 5cd9 a1bc c93d 16bc 7e4a a83c
000001c0: cc08 1d3d 19d9 cc3c 698d 9f3c 3d4e 813c
000001d0: d0ee e3bc 517f 6dbc d0af 7c3c 4aa5 183c
000001e0: ae9d 503c d024 243d 04e5 993b 4e6c 283d
000001f0: 363e fabb 294e 143d e14b 833d b8b8 623d
00000200: 0172 0c3c 8845 493d 8565 fc3c 86d2 fa3b
00000210: eebd 233d 89cc ff3c e1bb f13c 624a 24bd
00000220: bfdd 50bc 7cfc 0fbb 06e3 a9bc 0c24 3ebd
00000230: 35fc b3ba 962e 403c 5d1c e83c 2eca 283d
00000240: 619e 00bd 1105 1c3d 49b6 05bc 2626 ba3c
00000250: d26c e2b9 e758 a7bd 32d2 bbbb 9c9d 3ebd
00000260: 30e5 e7bc b6dc 2dbd 745e 973d 3c41 8f3c
00000270: b727 763c 6ebf 3ebc 6279 39bd 0fa3 2bbd
00000280: 8b92 06bd 3a66 dfbb 32a7 073d 1957 c8bc
00000290: dfc5 80bc 6439 4fbc ce6d 253c 7714 bcbb
000002a0: 7946 f1bc e442 68bd 9b74 cfbc 5891 92bc
000002b0: 5ddd 4dbd fdba 50bc 78f6 823c 3950 613c
000002c0: 4600 ccbc 7d4b 6abc afa4 4e3a 069b 08bb
000002d0: f7e6 64bc d84b 8e3b bef2 75bc c47d 0f3c
000002e0: 08a1 44bb 569b bebb 0e08 b33c 5744 8fbc
000002f0: 45f7 4fbc 9278 533c cf28 83bc aee5 eb3a
00000300: d7ed 2eba 27ba b43a d1b9 393c f5b5 6dbc
00000310: 4c74 8c3c 91b1 14bc 4f7d 3f3c 48a4 9cbc
00000320: 325f ca3a 1e3c 2bbb c12b b6b9 5a12 52bc
00000330: 25c1 e6bc 97fd acbc 33f9 d43a 98ee 4cbc
00000340: 5a28 a4b9 18ce e1ba c767 9ebb c625 8abd
00000350: 270e afbc 4237 b4bc 5945 753b 5256 05bd
00000360: 76af 013e ba7d ec3d 2c9e 0a3e aacf d83c
00000370: c9a0 b3bd d726 30be 3f9d 1cbe b5f5 dfbd
00000380: 3630 c7bd 97e8 7e3b 5e42 e3bc c36c de3d
00000390: 26c1 d13d b178 423d 83d3 81bc d931 19bd
000003a0: 5425 92bd 0f22 bebd 7bf9 72bc 030f 833d
000003b0: 0ad2 303d a1a4 323d 157f a63c 05cc 7abd
000003c0: 3430 92bd 1e46 cfbd 0276 6ebd 1c30 d3bd
000003d0: 6d75 043b 31f8 6a3d 07b6 2b3d 8c24 503c
000003e0: 1894 823c d693 50bb cd87 0abd 092f e7bc
000003f0: 59ea dc3c 7a3f 6d3c bc69 6c3d c579 b93d
0.14023797 0.028109176 0.17853366 0.14590302 -0.070977874 -0.053622596 -0.12505925 -0.077419624
-0.062748894 0.12199375 0.118139595 0.06650325 0.08299824 0.06875862 -0.022472372 -0.060905878
-0.071032465 -0.09266923 -0.0366883 -0.03792386 0.028015058 0.096001334 0.05302445 -0.01316074
-0.039943296 -0.06941118 -0.08641871 -0.2083321 -0.04386091 0.08566565 0.07977816 0.059090912
0.030761046 -0.019622223 -0.16496024 -0.09116577 0.020364087 -0.018191427 0.010847042 0.055385694
0.016349627 0.0016014954 0.018893428 -0.09640043 -0.10882581 0.07991441 -0.026474735 0.05471579
0.043938894 0.09867991 0.04723772 0.074895 0.043803964 0.1400294 0.07864943 0.15475516
0.031802084 0.034855686 0.09238384 0.036394242 0.11710065 0.05685898 -0.05819797 -0.026587866
0.013220335 0.051342264 0.025675831 0.13034233 -0.0031684672 0.07461975 0.052094944 0.038557496
0.0071147336 -0.012393503 0.1162307 0.10278839 -0.055231415 -0.0547487 -0.12552951 -0.073651634
-0.034089975 0.050282117 0.1027167 0.0697159 0.05367836 0.036341533 -0.019787034 -0.045798007
-0.06769037 -0.06014881 -0.022824517 -0.036324203 0.041318636 0.026315765 0.0196782 -0.009363372
-0.0025615974 -0.051669165 -0.05122662 -0.12504762 -0.07548985 0.019842556 0.043375403 0.031904545
0.0077277464 -0.019862616 -0.089502245 -0.01361555 0.017257532 -0.019756965 -0.009170004 0.020543333
0.038338467 0.025005864 0.01947661 0.015784377 -0.027823836 -0.014495687 0.015422776 0.009316752
0.012732906 0.04007417 0.0046964902 0.041118912 -0.0076368107 0.03620735 0.06410957 0.055351943
0.0085721025 0.049138576 0.030810127 0.007654491 0.039976053 0.03122546 0.029508533 -0.04011
-0.012748181 -0.002197056 -0.020738136 -0.046421096 -0.001373178 0.011729857 0.028333837 0.04120844
-0.031401042 0.03809077 -0.008161136 0.022723269 -0.00043187157 -0.08171254 -0.0057318443 -0.046537027
-0.028307527 -0.042446814 0.073910624 0.01748716 0.015024117 -0.01164232 -0.045281775 -0.04190355
-0.032854598 -0.0068176063 0.033118434 -0.024455594 -0.015719352 -0.01264796 0.01009698 -0.0057397443
-0.02945255 -0.056704417 -0.025324157 -0.01789157 -0.050259937 -0.012739894 0.015986666 0.013752037
-0.024902474 -0.014300224 0.0007882816 -0.0020844354 -0.013971082 0.0043425374 -0.0150114875 0.008758012
-0.0030003209 -0.0058168573 0.021854427 -0.017488642 -0.012693231 0.012907164 -0.01601067 0.0017997527
-0.0006673014 0.0013788388 0.011335806 -0.014508714 0.017145298 -0.009075538 0.011687591 -0.019121304
0.0015439747 -0.0026128362 -0.00034746344 -0.012821758 -0.02816827 -0.021117015 0.0016248584 -0.012508057
-0.00031310582 -0.0017227558 -0.0048341486 -0.06745486 -0.021369053 -0.021999005 0.0037425368 -0.032553025
0.1266459 0.11547418 0.135369 0.02646621 -0.08770902 -0.17202316 -0.1529436 -0.10935537
-0.097259924 0.0038895959 -0.027741607 0.108605884 0.10241918 0.04747838 -0.015847927 -0.037401054
-0.07136026 -0.0928384 -0.014829989 0.06399348 0.04316906 0.043614034 0.02032427 -0.061229724
-0.071381 -0.10120796 -0.05821801 -0.103119105 0.0020211593 0.0573656 0.04192164 0.012704026
0.015939757 -0.0031826398 -0.033820916 -0.02822067 0.026967214 0.014480466 0.057718024 0.09056429

fc1.bias f4 [5]
00000000: bb16 ddbb 56ba 353d 305f 83bc 818b 82bc
00000010: ed10 173d
-0.0067470944 0.044367157 -0.0160366 -0.015935661 0.036881376

fc2.weight f4 [2, 5]
00000000: f804 bfbe 9960 71bd 6be0 e1be e66a c9be
00000010: 18ff 92bd cd1d cf3e 6efa 42bf 93b1 9f3d
00000020: 8fee db3e 1a6f b4be
-0.37308478 -0.058930013 -0.4411653 -0.3933937 -0.071775615 0.40452424 -0.76163375 0.077975415
0.42955443 -0.35241014

fc2.bias f4 [2]
00000000: b7a9 50be bd02 acbe
-0.20377241 -0.3359584
