5_train_and_test_model/4_2_Ablation Analysis/CNN-3D/model_3D/sb9/fold0.ckpt (torch, 31751 bytes, 6 tensors)

conv1.weight f4 [20, 1, 1, 3, 3]
00000000: 7283 ffbe 809c 363e 9094 d7be 0f14 b33e
00000010: 82d7 ea3e 6a12 b53a 0ae6 a63e 759b fbbe
00000020: fd72 a6bd caf7 02bf 2aa2 a23e d519 9cbe
00000030: 0bd0 ff3e e8da 1fbf 3bbd 933e 1eb5 8f3e
00000040: a4cf 64be 8bc7 0f3f 0793 eebe 35c3 b3be
00000050: e772 19bd 99f3 de3e 11a0 b2be 21fc 203f
00000060: b7f2 9c3e 3719 a3be 058a bebe 3d07 85be
00000070: 4cc3 e6be 8372 9dbe 13e0 fd3e 0574 c1be
00000080: 823b f03e 5d2a 26be cac8 ef3e df2a 8abe
00000090: e2e9 fa3e 388e 1d3f 278b 09bf 6e43 6d3e
000000a0: 3209 14bf 609f 2abe c599 e33e 1041 d4be
000000b0: 4618 c1be fbef 2a3e 589f de3e 28c7 0fbf
000000c0: d007 593e 4b5f b9be 58c9 ed3e f084 06bf
000000d0: 2d74 dbbe bd56 1a3f 8527 2fbf e9f8 f93e
000000e0: 8b81 193f d1d8 ba3e 0adc 143f 9592 ad3e
000000f0: 59f8 fabe 6da6 78be df91 d0be 6e75 a23e
00000100: 7b14 1abf 375e 8bbe 0218 d1be c874 263f
00000110: a3f3 1a3e 0d55 35bd 143c d5bd 4ebc fbbe
00000120: 123c f03e 4455 a9be 4e80 1d3f bac9 08bc
00000130: de98 a3be 6d1e 2cbf 65c3 f73e aff5 f0be
00000140: 21cc 8abe dfdf a5be 74d7 2cbf c36c efbe
00000150: 3abb fb3e 33e7 05bf 290c 183f 9802 b73c
00000160: 16ab 443e 965e af3e 4a85 973e 8a83 f8be
00000170: 9613 e8be d71d ac3e f176 c8be 88a8 06bf
00000180: 7702 ee3e f9b8 693d 39da b43e e7e8 7bbe
00000190: f7da 723e 92f2 e7be 246b 263f 79ac 933e
000001a0: ca21 393e 4dff 13bf ad22 af3e d1af e53e
000001b0: 08d6 c7bd f2c7 d33e e2ab a3be 92c7 94be
000001c0: dfe9 2ebf 3c01 0e3f fd1f ebbe 077c d73e
000001d0: f165 9e3e 0f2e 11bf 86d9 853d ddb1 2fbe
000001e0: af0a b6be 1cbc 163f 4f2a 213f baf7 8cbd
000001f0: a9c1 a83e eaca 3abf 9e33 ea3e fb55 17bf
00000200: 3378 e53e b1e2 213f eb45 f2be 66b0 0c3f
00000210: fb4b 0cbd 728a f93e 1e53 60bd 8fe7 ad3e
00000220: 897e b23e daed c7be 289b 83be a137 893e
00000230: 9c40 df3e 6484 f0be 81a9 c23e 4c48 d23e
00000240: 11b0 d9be 1857 053f ddec cbbe c43a 7f3e
00000250: fd64 e13e f91c d6be 67a7 12bf 84e5 9dbe
00000260: 0107 99be c9fa 87be a405 0d3f aabd d5bc
00000270: af6e 5a3e 9485 61be 4d0a b23d f858 fa3e
00000280: dff9 1bbf 4cdc d1be 7cde 9ebd 43c7 d83e
00000290: 5015 a73e 4d6c edbe 17de e6bd 0e04 f6be
000002a0: 476a b33e 964c a8be a985 f3be b152 1abf
000002b0: fafb 20bf e50f 3fbe a214 0c3f 1fd9 0bbf
000002c0: fdfb d9bd dc88 143f 9e52 4b3e ff61 133f
-0.49904972 0.17833138 -0.42105532 0.3497624 0.45867544 0.0013814692 0.3259738 -0.49142042
-0.08127401 -0.51159346 0.31764346 -0.30488458 0.49963412 -0.624434 0.2885531 0.2806787
-0.22344834 0.56163853 -0.46596548 -0.3510987 -0.037463095 0.43545225 -0.34887746 0.6288472
0.30653927 -0.31855175 -0.37214676 -0.25982085 -0.45070875 -0.30751428 0.49585018 -0.37783828
0.469204 -0.16227098 0.46832877 -0.26985833 0.49006563 0.61545134 -0.53727955 0.23170254
-0.5782653 -0.16662359 0.44453254 -0.4145589 -0.37713832 0.16693108 0.43480945 -0.56163263
0.21194386 -0.36205515 0.46442676 -0.52546597 -0.42862073 0.602886 -0.68419677 0.48822716
0.5996329 0.36493543 0.5814825 0.33900896 -0.490176 -0.24282236 -0.4073629 0.31730217
-0.601875 -0.27220318 -0.4083863 0.65021944 0.15132003 -0.044270564 -0.104118496 -0.49167103
0.4692083 -0.33072865 0.615239 -0.008348877 -0.31952566 -0.67233926 0.48391262 -0.47062442
-0.27108863 -0.32397363 -0.67516255 -0.46762666 0.4916628 -0.52305907 0.59393555 0.022340104
0.19205889 0.3425185 0.2959388 -0.48537856 -0.45327443 0.33616516 -0.39153245 -0.5260091
0.46486256 0.05706117 0.3532274 -0.24600564 0.23716341 -0.45302254 0.65007234 0.28842524
0.18079296 -0.57811433 0.34206143 0.448607 -0.0975762 0.41363484 -0.31967074 -0.2905851
-0.6832561 0.55470634 -0.45922843 0.42086813 0.3093715 -0.56710905 0.0653563 -0.17157693
-0.35555026 0.5888078 0.6295518 -0.068831876 0.3296025 -0.7296587 0.45742506 -0.5911557
0.44818267 0.6323653 -0.47318968 0.5495666 -0.034252148 0.48738438 -0.054766767 0.33965728
0.34862164 -0.39048654 -0.25704312 0.26800254 0.4360398 -0.46976006 0.38019946 0.41070783
-0.4251714 0.5208602 -0.3982915 0.24924761 0.4402236 -0.4181898 -0.57286686 -0.3083917
-0.29888156 -0.2655852 0.5508673 -0.026091415 0.21331285 -0.22023612 0.08693371 0.48896003
-0.6092815 -0.40988386 -0.07757279 0.42339525 0.32633448 -0.4637169 -0.11272829 -0.48049968
0.3504202 -0.3287093 -0.47562912 -0.6028243 -0.62884486 -0.18658407 0.54718983 -0.54628175
-0.10643766 0.5802133 0.19855735 0.57571405

conv1.bias f4 [20]
00000000: 5cc3 e43a aed2 01bd 4c1a 2bbd 6bf7 0a3d
00000010: 5b46 88bd 5ddb 4cbd 6054 2ebc 8339 55bd
00000020: 8246 bb3d 6c35 13bd dea5 b73d 13a3 cdbd
00000030: 155c e2bd c1a7 623e 6f70 bfbd 2b8f 56be
00000040: 2b98 1cbc ab04 293e e2c3 3abd 3ec5 6fbd
0.0017453241 -0.03169506 -0.041773126 0.033927362 -0.06654044 -0.05001389 -0.010640234 -0.0520568
0.09144308 -0.03593962 0.089671835 -0.100408696 -0.110527195 0.22134306 -0.09347617 -0.20953052
-0.009557764 0.16505687 -0.045596965 -0.058537714

fc1.weight f4 [5, 1440]
00000000: 27ed 513e 82ba 353e 3284 a83d cac2 9f3d
00000010: ea77 f3bc c3ae 03bd 6b42 32bd 7e7f debd
00000020: 388b 3ebe a415 f93d 4410 b23d 2cdf 72bc
00000030: b45d 863d 3710 863c c9ef b2bb 31bd 06bb
00000040: 881e dbbc 46a2 adbd ae13 363d 7e9c 7b3d
00000050: ef4f cd3c 06b4 8d3d c5cd 813c e702 3e3d
00000060: 83ab f9bc 5e53 06bd 7bab 89bc 888c 64bd
00000070: 6338 893d 0bdb d0bd 0fc9 643c f2f2 373d
00000080: 3bca efba b1cb 613d edf2 753c 81f8 75bd
00000090: 6cbd 033e 1085 0f3e 74b0 783d 43fb 4a3d
000000a0: 04bf 673d 07b3 2b3d 5fba b23b 8487 14bd
000000b0: f391 3bbd 929d 283e e7d9 063e 5371 363d
000000c0: 1921 b0bc 3d4c eb3c 369a 00bc a1f0 a83a
000000d0: 95f9 67bd b81f e2bd 2cbd 123e 8668 5c3c
000000e0: f3fd a73d 55ba 853d 6f2e 89bb 509f 953c
000000f0: 511e 12bd 5218 7fbd bfd6 1abe 912a 293d
00000100: 2c4a 753d d3ef f13d d54b 043c 5a4d 093c
00000110: d02c 873c 97ff 7bbd ac25 03be 8393 5bbd
00000120: 5709 813e 6d3b bf3d 42f3 393e 74c6 643e
00000130: 78e4 f73c 8b37 42bc 9d96 b3bd 2842 90bd
00000140: 377d 04be 324d 20be e055 f23d 8772 06bc
00000150: 9e44 df3d f69e 803d 5fa1 65bd 2f7f 36bd
00000160: 9112 b4bd f6f8 68be 8fa2 00bc 7b72 8cba
00000170: 5374 ab3d 2e0e bb3d 4bd4 3e3d 0f70 883d
00000180: 027f fdbc 1cbc 0abd 1760 6dbd 8e37 133e
00000190: 95f1 fd3d 7417 0ebe a464 de3c 046c e13b
000001a0: 691b c23c c5e6 a13c 9c13 54bd dcb3 5abd
000001b0: a480 2f3e 31ca c83d 282a 073d e00a 1b3d
000001c0: 7dc9 17bc f70c 423d 8cb4 cd3b 3b78 123d
000001d0: 7ecb 86bd a298 3a3e 859f 043e 4546 683d
000001e0: 2f80 4e3d 5543 183d e1a5 8e3b 4ad6 513c
000001f0: 4bfd a4bd 4941 a4bd 9209 6a3d 7421 1a3e
00000200: bffe ccbb 9b7a e33c 119d 79bc 9942 86bd
00000210: 9fea 19bc 1713 62bd 7f26 d9bd 3ce2 023e
00000220: 1fb2 c03d f556 0d3e 71e0 023d cb1b 24bd
00000230: 1057 8bbd 1409 15be 4143 25be 4a9b 1fbe
00000240: 49e8 03bd 4d12 403e e8bf 213d a78c 983e
00000250: e04c 5fbc a256 bf3d 54ea b5bd 9ba0 23be
00000260: e741 20be 14e2 143e 924c 813d 6dc6 8d3d
00000270: e62a 143e 550f ba3d 1da7 ac3d c943 f4bd
00000280: 47a1 35bd 8f6e 03be 165f 08be dccc f6bb
00000290: 06b4 373e 6ae4 0d3e a53f 973d 53c4 b73d
000002a0: 6f62 91bb 1be2 86bd a790 a5bd 9bbc db3d
000002b0: 894c 113e ec07 15be ad7c 203d 1c41 533c
000002c0: af7f bc3c 5e4d 33bd a0f0 dd3c 6b71 90bd
000002d0: 0c4a 333e 5e8d ab3d e237 863c bba9 943c
000002e0: 2857 5a3c fd71 c63c a9d9 f53c de43 71bd
000002f0: d3d3 bcbd 37ff 653e ee96 0c3e 7dec 333d
00000300: 7559 3e3c 517d 073c 3145 323d f4c7 b33c
00000310: 0728 95bd 6733 03be 0612 133d d6a3 e13d
00000320: 453d e83c 24d8 c13d 1ddf 90ba 846d 59bc
00000330: 7f66 6cbd 06ab 54bd d7c4 54bd 2f6a 233e
00000340: 2cc3 3e3e a7ac bb3d 7165 aa3d 9fe1 1abd
00000350: 77ed e4bd f8de d6bd 8435 1abe f2bb 51be
00000360: 9876 2e3e ed0b e23d 3b35 ba3d f4c9 643e
00000370: 7f92 593b ac7d 4c3d 4e93 ccbd 82a6 fdbd
00000380: 5536 0fbe b31d 1e3e 753b 883d 357a ff3d
00000390: bb84 f53d 8ec4 393d 89e5 2b3d fffe f43b
000003a0: fec0 92bd 8896 9bbd 533e 833c 39ee 6c3d
000003b0: 49a7 863d 08d9 793d cd82 e13c 3143 833d
000003c0: e300 543c acc8 80bd 0fd6 0dbd 1e6b 453d
000003d0: 4ec6 953c 1519 5dbd a0ef ce3b 8be5 fe3c
000003e0: af47 40bc ab64 c1bc daa8 2e3d f59a e7ba
000003f0: ede2 1a3e c150 653d b876 debb a388 d83c
0.20500623 0.17746928 0.08228339 0.07800825 -0.029720265 -0.032149088 -0.043520372 -0.10864161
-0.18607795 0.12162331 0.08694509 -0.014823716 0.06560841 0.016365154 -0.0054607135 -0.0020559544
-0.026747957 -0.08478217 0.04445236 0.06142854 0.02506253 0.06919102 0.015845189 0.046389487
-0.030477291 -0.03279435 -0.016805401 -0.055798084 0.06700208 -0.10198029 0.013963952 0.044909425
-0.0018294522 0.055125896 0.015011531 -0.060051445 0.12865227 0.14015603 0.060715154 0.049556028
0.05657865 0.04191878 0.005454346 -0.03626205 -0.045793485 0.16466358 0.1316906 0.04454167
-0.021500157 0.028722877 -0.007849267 0.0012889096 -0.056634504 -0.11041206 0.14329976 0.013452655
0.08202734 0.06529681 -0.0041864435 0.018264443 -0.035673443 -0.062279053 -0.15120982 0.04130036
0.05988519 0.11813321 0.00807472 0.008380258 0.01650086 -0.061523046 -0.1280734 -0.053607475
0.25202438 0.093375064 0.18159202 0.22341329 0.03026031 -0.011854063 -0.087689616 -0.07043868
-0.1293839 -0.15654448 0.118327856 -0.008206016 0.109017596 0.062803194 -0.0560621 -0.044554885
-0.08792604 -0.22751221 -0.007851257 -0.001071527 0.083717965 0.09133564 0.046589177 0.066619985
-0.030944351 -0.0338708 -0.057952967 0.14376661 0.12399594 -0.13876134 0.027147599 0.0068793315
0.02369471 0.01976336 -0.051776513 -0.053394184 0.17138916 0.0980419 0.032999188 0.037852168
-0.009264347 0.047375645 0.0062776264 0.035759192 -0.06581782 0.18222287 0.12951477 0.05670764
0.050415214 0.037173588 0.0043532704 0.012807438 -0.08056124 -0.08020265 0.057138033 0.15051824
-0.006255954 0.027768424 -0.015235201 -0.06555671 -0.009394317 -0.055193987 -0.10603046 0.12781614
0.09408974 0.13802703 0.031952325 -0.040065568 -0.06803715 -0.14554244 -0.16138937 -0.15586582
-0.032203946 0.18756981 0.039489657 0.2979481 -0.013629168 0.09342696 -0.08882585 -0.15979235
-0.1565014 0.14539367 0.06313433 0.06922612 0.1446949 0.090849556 0.08430312 -0.119269915
-0.04434326 -0.12835144 -0.13317522 -0.0075317454 0.17939767 0.13856664 0.07385186 0.08972993
-0.004436783 -0.06586095 -0.08084231 0.10729333 0.14189352 -0.14553803 0.0391814 0.012893941
0.023010103 -0.043774955 0.027092278 -0.07052883 0.17508715 0.08376573 0.016384069 0.01814734
0.013326444 0.024224276 0.030011015 -0.058902614 -0.0922009 0.22460638 0.1372945 0.043926705
0.011618008 0.008269624 0.043523017 0.021945931 -0.07283025 -0.12812577 0.03590586 0.11017577
0.028349528 0.09465054 -0.0011052821 -0.0132707395 -0.057714935 -0.051920913 -0.051945534 0.15958475
0.1862914 0.0916379 0.0832013 -0.037812825 -0.11178105 -0.10491747 -0.15059477 -0.20481852
0.17037427 0.11037431 0.09092184 0.22342664 0.003319889 0.049924538 -0.09989034 -0.123852745
-0.1398557 0.15441017 0.066519655 0.12474481 0.11988207 0.045353465 0.04196695 0.007476687
-0.071657166 -0.07597071 0.01602093 0.057844374 0.06574876 0.060997993 0.027528191 0.064093
0.012939665 -0.06288275 -0.03462797 0.048197858 0.018283036 -0.053979 0.0063151866 0.031115314
-0.011735841 -0.023607573 0.0426415 -0.0017670082 0.15125628 0.055985216 -0.0067890547 0.026432341

fc1.bias f4 [5]
00000000: db97 e73c 2828 743c a1f8 143c c7c9 dd3b
00000010: 91bc 6d3c
0.028270653 0.014902152 0.009092481 0.0067684385 0.01451029

fc2.weight f4 [2, 5]
00000000: 80f6 bbbe 46c9 a7be a45b 28bf 56bf 433f
00000010: 70b5 f23e 42e4 d43e affa ee3e bfe6 b33e
00000020: 222b dcbe 03b0 bdbe
-0.36711502 -0.32770747 -0.6576483 0.7646383 0.4740405 0.41580397 0.4667563 0.35136983
-0.43001658 -0.3704835

fc2.bias f4 [2]
00000000: 5937 b53e 0aa6 3c3e
0.3539379 0.18422714
