5_train_and_test_model/4_2_Ablation Analysis/CNN-3D/model_3D/sb9/fold4.ckpt (torch, 31751 bytes, 6 tensors)

conv1.weight f4 [20, 1, 1, 3, 3]
0	0xbe04aaee	-0.1295583
1	0x3ed7b3f4	0.4212948
2	0x3e62df09	0.22155394
3	0xbe6a31aa	-0.22870508
4	0xbee57986	-0.44819278
5	0x3e65cc1f	0.22441147
6	0x3de24e22	0.11050059
7	0xbec678e1	-0.38764098
8	0x3ea19741	0.3156071
9	0xbf0ed0b7	-0.55787224
10	0x3f15d0c2	0.58521664
11	0x3dd0c057	0.10192936
12	0x3eefda4a	0.4684623
13	0x3f022fc8	0.5085416
14	0xbdd8e4ba	-0.10590501
15	0xbf07f19c	-0.5310304
16	0x3aaf31db	0.0013366299
17	0xbee4623d	-0.446062
18	0xbf1e112b	-0.61744946
19	0xbedc64ae	-0.43045563
20	0x3dffbb1f	0.124868624
21	0xbf0df826	-0.5545677
22	0x3f14fd0e	0.5819863
23	0x3ddae071	0.1068734
24	0x3e399d74	0.1812647
25	0x3e84ae83	0.25914392
26	0x3f024bda	0.5089699
27	0x3df15c45	0.11785177
28	0x3cfd70fa	0.03093766
29	0x3d447897	0.047966566
30	0xbe50227f	-0.20325659
31	0x3e966f0a	0.2938159
32	0xbe80e591	-0.25175145
33	0xbd3723c8	-0.044711858
34	0x3e216573	0.15761356
35	0x3e82dce3	0.25559148
36	0xbf1d56fe	-0.61460865
37	0xbf1ca1cd	-0.6118439
38	0xbda3eab8	-0.080037534
39	0xbf161d98	-0.58638906
40	0x3f1a824f	0.60355085
41	0x3ebfb5cf	0.37443396
42	0x3ef7a463	0.48367605
43	0x3e920248	0.28517365
44	0xbc8fb894	-0.017544068
45	0xbe977615	-0.29582277
46	0xbecfe821	-0.40606788
47	0xbc3cecf5	-0.011531104
48	0xbefeb730	-0.49749136
49	0x3f25aa35	0.6471284
50	0x3f19d24a	0.600865
51	0x3ec0f719	0.3768852
52	0xbf0f097b	-0.5587384
53	0x3e1c7e3d	0.15282531
54	0xbf018e1f	-0.50607485
55	0xbf39883a	-0.7247349
56	0xbe74f310	-0.23920846
57	0xbe8c5b0d	-0.27413216
58	0x3edd8869	0.43268135
59	0x3f144a90	0.57926273
60	0x3e3d06c9	0.1845962
61	0x3e80e82e	0.2517714
62	0xbd87996f	-0.06621062
63	0x3d14b9dd	0.036310066
64	0x3e2dfe1e	0.1699147
65	0xbf12e6ef	-0.57383627
66	0x3e32ecdd	0.17473169
67	0x3e281f22	0.16418126
68	0x3ede9ed0	0.4348054
69	0x3ebac0b2	0.3647514
70	0xbf1fc07c	-0.6240308
71	0x3e2f7c9c	0.17137378
72	0xbe0dcdf2	-0.13848093
73	0x3e9ab1c8	0.3021376
74	0xbe5717fa	-0.2100524
75	0xbd818b67	-0.06325417
76	0x3e5f58b4	0.21811181
77	0xbf062cf8	-0.52412367
78	0xbc808cfc	-0.015692227
79	0x3e903ed1	0.28172925
80	0x3e82f59e	0.25578016
81	0x3c0f7f3c	0.008758362
82	0xbc519e50	-0.012794092
83	0xbea12198	-0.31470942
84	0xbe8a3ca1	-0.2699938
85	0xbeaedac1	-0.3415127
86	0xbe17c841	-0.14822485
87	0x3d2a8768	0.04163304
88	0xbe904ed3	-0.28185138
89	0x3f1d1cf5	0.6137231
90	0xbf1f1d13	-0.6215374
91	0x3ef0fa15	0.47065797
92	0xbe9ca0d0	-0.3059144
93	0x3f40b727	0.7527947
94	0x3f31f497	0.6951384
95	0x3f0d3a69	0.5516725
96	0xbf0ca60b	-0.5494086
97	0xbeba54b7	-0.36392757
98	0xbf04032a	-0.5156733
99	0xbe59f3aa	-0.21284357
100	0xbe9b2676	-0.3030278
101	0x3c444136	0.011978438
102	0xbe967ad8	-0.29390597
103	0xbcdd3234	-0.027001478
104	0xbebb22ac	-0.3654989
105	0x3e3e3d62	0.18578103
106	0x3f15e65f	0.58554643
107	0xbe51b8ce	-0.20480654
108	0x3ef16982	0.4715081
109	0xbdbc726a	-0.0920151
110	0xbeab6d61	-0.33481887
111	0xbbf4ffce	-0.0074767834
112	0xbecdfa96	-0.40230244
113	0xbeaf2e8d	-0.34215203
114	0xbd2565ea	-0.040380396
115	0x3ec3ee14	0.38267577
116	0x3ecb162d	0.39665356
117	0xbef8d166	-0.48597258
118	0x3ed32423	0.41238508
119	0x3e7bbf66	0.24584731
120	0x3e503373	0.20332126
121	0xbf1e6e8a	-0.6188742
122	0xbebd28a6	-0.36945075
123	0x3f30ed1c	0.691118
124	0xbf13ccc9	-0.5773435
125	0xbee148f6	-0.44000977
126	0xbed2b0c7	-0.41150495
127	0xbeb5b8da	-0.35492593
128	0x3e1382ea	0.14405409
129	0x3e5120c5	0.20422657
130	0x3f1d756e	0.6150731
131	0xbf38f99c	-0.72255874
132	0x3f0e884c	0.5567672
133	0x3ee5ae41	0.44859508
134	0x3ef4d653	0.47819766
135	0xbd176f9d	-0.036971677
136	0xbefafcfc	-0.49021137
137	0x3de2baa3	0.110707544
138	0xbeac5f4b	-0.33666453
139	0x3f1c22ea	0.60990775
140	0x3f0cc5fb	0.54989594
141	0xbe5399a9	-0.20664085
142	0xbedf8aea	-0.4366067
143	0xbe60fcfc	-0.21971506
144	0xbed2b304	-0.41152203
145	0xbf03e6b1	-0.5152388
146	0x3f0cf1e7	0.55056614
147	0xbd9bed47	-0.076136164
148	0x3f390ca0	0.7228489
149	0xbe9efc8c	-0.31052053
150	0xbd7c495b	-0.061593395
151	0x3cba7b2e	0.022763815
152	0xbeb42f13	-0.35192165
153	0xbe1106a9	-0.14162697
154	0xbdf112b8	-0.117711484
155	0xbee09f82	-0.43871695
156	0xbc117393	-0.008877653
157	0xbf0dc53e	-0.5537909
158	0xbe97256d	-0.2952074
159	0x3cee4b11	0.029088529
160	0x3f142bc8	0.57879305
161	0x3f39a8fa	0.7252346
162	0x3f28b8a0	0.65906715
163	0xbf2f151c	-0.68391585
164	0xbebfa5e5	-0.37431255
165	0xbe7412da	-0.23835316
166	0xbecbd347	-0.3980963
167	0xbf0a37f4	-0.5399163
168	0x3ea396ea	0.31951076
169	0x3f0057d5	0.5013402
170	0x3f091176	0.5354227
171	0xbc5d8fbc	-0.0135230385
172	0x3e922e21	0.2855082
173	0xbd81bc81	-0.063347824
174	0x3cc79eb7	0.024367673
175	0x3c3fa42f	0.011696859
176	0xbdbf801c	-0.09350607
177	0xbe39dd5a	-0.18150845
178	0x3e71f7ea	0.23629728
179	0x3ec2a4fb	0.38016495

conv1.bias f4 [20]
0	0x3def98b8	0.11699051
1	0xb99d3262	-0.00029982912
2	0xbd04733f	-0.03233647
3	0x3e7c1db2	0.24620703
4	0x3d926124	0.07147434
5	0xbda582ae	-0.08081566
6	0xbe057ed9	-0.1303667
7	0x3e7d63fa	0.2474517
8	0x3e648b4b	0.22318761
9	0x3e755338	0.23957527
10	0xbd976e62	-0.07394101
11	0x3e360442	0.17775062
12	0x3e443712	0.19161633
13	0xbd968b24	-0.07350758
14	0xbe0d8693	-0.13820867
15	0x3c83791e	0.016048964
16	0xb987193f	-0.00025768016
17	0xbd67efec	-0.05662529
18	0xbd703664	-0.05864562
19	0x3e4f87bf	0.20266627

fc1.weight f4 [5, 1440]
0	0x3db6a51f	0.08918213
1	0x3c802234	0.01564131
2	0x3dde4933	0.108538054
3	0x3bff0edb	0.0077837533
4	0x3cf4e434	0.029893972
5	0xbbb15f53	-0.005412975
6	0xbd919fbb	-0.07110544
7	0xbd1e3c1d	-0.038631547
8	0xbcf7f1a9	-0.0302666
9	0xbccdf519	-0.025141286
10	0xbd8120e2	-0.063051
11	0x3d164490	0.03668648
12	0x3cbc28a7	0.022968603
13	0x3b5518bc	0.0032515964
14	0x3ce27cec	0.027647458
15	0xb9f29b96	-0.00046273757
16	0xbd7054f8	-0.058674783
17	0xbcc0a637	-0.023516757
18	0x3c01d783	0.007924917
19	0x3d48883d	0.048958052
20	0xbd298ac8	-0.041392118
21	0xbb4fef9a	-0.0031728507
22	0x3b911f65	0.0044287913
23	0xbc194d4d	-0.009356809
24	0x3a012612	0.00049266324
25	0xbd860314	-0.06543556
26	0xbd83723b	-0.06418272
27	0x3df7166a	0.12064822
28	0xbd0c4ee0	-0.03425491
29	0x3cbfd90d	0.023418928
30	0x3c9b533d	0.01896059
31	0xbb85b13a	-0.004079965
32	0xbc050983	-0.008119944
33	0xbca3dd62	-0.020003024
34	0xbd3e6e87	-0.046492126
35	0xbdb6ca54	-0.0892531
36	0x3bfbbdc0	0.007682532
37	0x3cf72f0f	0.030173806
38	0xbc3adcfd	-0.011405227
39	0x3a8fcb7e	0.001097068
40	0xbc8c532c	-0.017129503
41	0x3cb9707e	0.022636648
42	0x3d0d459b	0.03449021
43	0xbd8c296e	-0.068438396
44	0xbcdd2372	-0.02699444
45	0x3cc67836	0.024227243
46	0xbacfd77b	-0.0015857065
47	0x3bbf2e4d	0.005834377
48	0x3cb0685f	0.021534143
49	0xbc3ca07a	-0.01151287
50	0xbd03232d	-0.032015968
51	0xbc615cf3	-0.013755071
52	0xbcdcc233	-0.02694807
53	0xbdd07892	-0.10179247
54	0x3ccbce97	0.024878783
55	0x3d1efb60	0.03881395
56	0x3d3c3c51	0.04595596
57	0x3bad5901	0.005290151
58	0xbd0673b4	-0.032825187
59	0xbcb583bb	-0.02215754
60	0xbd71473a	-0.058905818
61	0xbd2a8cdb	-0.041638236
62	0xbe014f35	-0.12627871
63	0x3b91baa7	0.0044472995
64	0x3d0be09c	0.03414975
65	0x3d7b3f69	0.06133977
66	0xbcd67e52	-0.026183281
67	0xbd0d7962	-0.034539588
68	0xbbc52926	-0.006016868
69	0xbda30acb	-0.07961043
70	0xbdc5e69c	-0.09663126
71	0xbd68fb14	-0.05688007
72	0x3e2d884e	0.16946527
73	0x3e373631	0.17891766
74	0x3dfc440a	0.12317665
75	0x3d8083ed	0.06275163
76	0x3b55812b	0.003257821
77	0x3c5bf7b5	0.013425757
78	0xbe08d6d3	-0.13363199
79	0xbcacc5d9	-0.021090435
80	0xbdad158c	-0.08451375
81	0x3af52140	0.0018701926
82	0x3e4caead	0.19988509
83	0x3d24b137	0.040208068
84	0x3d8fb414	0.07016769
85	0x3cd2f348	0.025750771
86	0x3ab8b300	0.0014091432
87	0xbd0a3a20	-0.03374684
88	0xbd0f01ee	-0.03491395
89	0xbd93a891	-0.07209886
90	0xbd4f4957	-0.05060705
91	0x3dea939e	0.11453937
92	0xbc8ff71f	-0.017573891
93	0x3d03731d	0.032092202
94	0x3d1847d7	0.037177887
95	0xbc2c98b9	-0.010534459
96	0x3b6ce508	0.0036147255
97	0xbd83f528	-0.06443244
98	0xbd1e0c13	-0.038585734
99	0x3d1e50e5	0.038651366
100	0xbdf714c5	-0.12064508
101	0x3bb8ca8c	0.00563938
102	0xbab2c696	-0.0013639505
103	0x3cc82445	0.024431357
104	0x3ce3299e	0.027729806
105	0xbc995f7c	-0.018722288
106	0xbd232007	-0.039825466
107	0xbd70c032	-0.05877704
108	0x3e089098	0.13336408
109	0x3de0b724	0.10972431
110	0xbc016603	-0.007897857
111	0x3d0dbde9	0.03460494
112	0xbbd87e7c	-0.006606875
113	0x3c6ccf37	0.014453701
114	0x3d1e9da8	0.03872457
115	0xbc4eaae0	-0.012613982
116	0xbd66b302	-0.05632306
117	0x3ce5f473	0.028070664
118	0x3dbaff4b	0.091307245
119	0x3b06b110	0.0020552315
120	0x3be9e512	0.007137903
121	0x3bd4af5e	0.006490632
122	0xbb8d5a2c	-0.004313728
123	0xbd0cf619	-0.034414385
124	0xbd0a77d3	-0.03380568
125	0xbd9919f7	-0.074756555
126	0x3dc0240b	0.09381875
127	0x3ddba040	0.10723925
128	0x3ce5ff99	0.02807598
129	0x3d59e27e	0.053194515
130	0x3c6f48de	0.014604775
131	0xbd5e23ad	-0.05423324
132	0x3c00f5e0	0.007871121
133	0xbdc6ed0f	-0.09713184
134	0xbd55fd0c	-0.052243277
135	0x3d463714	0.04839237
136	0x3d7ba94a	0.061440744
137	0x3d7e238c	0.06204562
138	0xbca974e1	-0.020685615
139	0xbc835cf5	-0.016035536
140	0xbd1fee55	-0.03904565
141	0xbca7c7a1	-0.020480933
142	0xbd6a907e	-0.057266705
143	0xbd9d1658	-0.07670277
144	0xbd941ab3	-0.07231655
145	0x3eb0c0fa	0.3452223
146	0x3e62fd63	0.22166972
147	0x3de3715f	0.11105608
148	0x3cec2bf6	0.028829556
149	0xbd77074b	-0.06030969
150	0xbdd0208a	-0.10162456
151	0xbe01f342	-0.12690452
152	0xbd96bbaa	-0.07360013
153	0xbb73200a	-0.0037097954
154	0x3e82ed2a	0.25571567
155	0x3c3e2cd9	0.011607372
156	0x3d8c0815	0.06837479
157	0xbca376b6	-0.019954067
158	0xbd74e7f3	-0.059791517
159	0xbd7875dc	-0.060659274
160	0xbbeb3c6e	-0.0071788346
161	0xbde9d6c0	-0.114179134
162	0x3dada682	0.084790245
163	0xbe1f8106	-0.15576562
164	0xbd2342ed	-0.039858747
165	0x3d0c9634	0.034322932
166	0x3c8c5a47	0.017132891
167	0xbc4a2498	-0.012337826
168	0x3c49f87b	0.012327309
169	0xbc92c8de	-0.017918047
170	0xbdc91fc7	-0.09820514
171	0x3db5e6fe	0.08881949
172	0x3d825b0b	0.06365021
173	0xbdf4a9b6	-0.11946432
174	0xbd5eda87	-0.054407623
175	0x3c03284e	0.008005215
176	0xbb90ae0f	-0.0044152807
177	0x3c406bcb	0.01174445
178	0xbd59baff	-0.05315685
179	0xbd78fffc	-0.060791
180	0x3c5b426f	0.013382538
181	0x3dfff452	0.12497772
182	0x3c011703	0.007879022
183	0x3c965c5a	0.018354584
184	0xbc357fd7	-0.011077843
185	0xbcd53483	-0.026026016
186	0xbca76b42	-0.020436887
187	0x3d40d86d	0.0470814
188	0xbd7d752a	-0.061879314
189	0x3e3f1c42	0.18663123
190	0x3db4ba2a	0.088245705
191	0x3d7472ef	0.05967992
192	0x3d14372c	0.03618543
193	0x3d26ad7d	0.040692795
194	0xbb33a91b	-0.0027414027
195	0x3d05e83d	0.032692183
196	0xbd531459	-0.051533077
197	0x3b9d234c	0.0047954675
198	0x3dce5522	0.100748315
199	0x3db34950	0.087542176
200	0x3d0d2ad3	0.03446467
201	0x3be8b6f2	0.007101887
202	0xbca37505	-0.01995326
203	0xbc8a9ba2	-0.016919915
204	0xba126de3	-0.00055858324
205	0xbc8c448d	-0.017122531
206	0xbce5b1d4	-0.028038897
207	0x3e09036a	0.13380209
208	0x3db973b1	0.090552695
209	0x3dba4819	0.09095783
210	0x3d4d8485	0.05017521
211	0xbd8d8911	-0.06910909
212	0x3c2ff558	0.010739647
213	0xbde61bd3	-0.11235776
214	0xbd786a79	-0.060648415
215	0xbe25c6bb	-0.16189091
216	0xbb3feebf	-0.002928659
217	0x3d0d431a	0.03448782
218	0xbbe46b6f	-0.006970815
219	0xbb8a3816	-0.0042181117
220	0xbcd9c8e7	-0.026585056
221	0x3c4d7654	0.012540419
222	0xbcbea02b	-0.023269733
223	0xbd29dc47	-0.04146984
224	0xbc2ff420	-0.010739356
225	0xbc8b826c	-0.017029963
226	0xbcc19a48	-0.023633137
227	0x3c8fabbf	0.01753795
228	0xbccbf214	-0.024895705
229	0xbcacb3b0	-0.021081775
230	0xbc58c861	-0.013231368
231	0xbd19804f	-0.03747588
232	0xbc8fdd39	-0.017561542
233	0xbd1457f7	-0.036216702
234	0xbd2c9307	-0.042132404
235	0xbcd0ffeb	-0.025512656
236	0xbac6f3d1	-0.0015178864
237	0xbca478cf	-0.020077137
238	0x3a81af9b	0.0009894253
239	0x3c8772df	0.016534267
240	0xbcb15753	-0.021648085
241	0xbd2b0e8a	-0.041761912
242	0xbc3bd60c	-0.011464607
243	0x3d4c784b	0.049919408
244	0xbbc88f53	-0.006120601
245	0x3b932461	0.0044904207
246	0xbaef5899	-0.0018260657
247	0x3c4aa356	0.012368044
248	0xbcad3d77	-0.021147473
249	0xbcab7480	-0.020929575
250	0x3c552156	0.013008436
251	0xbd6a8f62	-0.057265647
252	0xbb448750	-0.002998788
253	0x3c4fb90a	0.012678394
254	0x3c617ca7	0.01376263
255	0xbce6614b	-0.028122565

fc1.bias f4 [5]
0	0xbc508ef4	-0.012729395
1	0xbce053d2	-0.027383719
2	0x3c06fc54	0.008238871
3	0x3cdcdc0b	0.026960393
4	0xbc81628f	-0.015794067

fc2.weight f4 [2, 5]
0	0xbf120534	-0.5703919
1	0xbf1d19ec	-0.6136768
2	0xbe2ca662	-0.16860345
3	0x3f59321b	0.8484208
4	0xbf25d49f	-0.6477756
5	0x3eea0244	0.45704854
6	0xbcdd53b6	-0.027017456
7	0x3f0c4f75	0.5480874
8	0xbd98c661	-0.07459713
9	0x3f22a1b5	0.63527995

fc2.bias f4 [2]
0	0x3d901cc1	0.07036734
1	0xbe86a5dc	-0.26298416
