5_train_and_test_model/4_2_Ablation Analysis/CNN-3D/model_3D/sb9/fold1.ckpt (torch, 31751 bytes, 6 tensors)

conv1.weight f4 [20, 1, 1, 3, 3]
0	0xbf039db9	-0.5141254
1	0x3ee060ca	0.43823844
2	0x3e3bea5c	0.1835112
3	0x3cec78e7	0.028866244
4	0xbf129321	-0.5725575
5	0x3f00ea21	0.5035725
6	0x3e76048b	0.2402517
7	0xbd34f6e7	-0.044180777
8	0xbe12f095	-0.14349587
9	0x3ecbd81d	0.3981332
10	0xbf03a5a8	-0.51424646
11	0xbefecc1a	-0.49765092
12	0xbdbf7d9a	-0.093501285
13	0xbf1ec496	-0.62018716
14	0xbeb809cc	-0.35944974
15	0xbc8d657f	-0.017260311
16	0x3ec5ac30	0.3860793
17	0x3f1d3355	0.6140645
18	0x3e6c96b6	0.23104367
19	0xbec91581	-0.3927422
20	0x3e94b366	0.2904312
21	0xbee4934e	-0.44643635
22	0x3f12ceac	0.57346606
23	0x3f176166	0.59132993
24	0xbee41053	-0.44543704
25	0xbbcf9099	-0.006334376
26	0xbf247ce5	-0.64253074
27	0xbeee2c94	-0.46518385
28	0x3f1da88b	0.615853
29	0xbd483bed	-0.048885275
30	0x3f00b7de	0.5028056
31	0x3eb3b8c4	0.35101902
32	0x3e9dfb0d	0.308556
33	0xbedb74b9	-0.4286249
34	0xbe9c75d7	-0.30558655
35	0xbdc1abf4	-0.094566256
36	0x3e8ea95c	0.27863586
37	0x3f08803c	0.5332067
38	0x3f0a2c56	0.539739
39	0xbed88f98	-0.42297053
40	0xbf2c5524	-0.67317414
41	0xbf367af3	-0.71281356
42	0xbe8736eb	-0.26409087
43	0x3eded1f5	0.4351956
44	0x3ec1b20e	0.37831157
45	0xbe86153e	-0.26188082
46	0xbeca8483	-0.39554223
47	0x3f0d733d	0.55253965
48	0xbf00e97e	-0.5035628
49	0x3ee673c8	0.4501021
50	0xbeba1eba	-0.36351568
51	0xbe90c379	-0.28274134
52	0x3f0a67c5	0.5406459
53	0x3ec2abb8	0.38021636
54	0xbba3939c	-0.0049919616
55	0xbebe5772	-0.3717609
56	0xbee6e87a	-0.4509924
57	0x3f0b989a	0.54529727
58	0xbefea29d	-0.4973344
59	0x3ef6a1ec	0.48170412
60	0xbe41f2cb	-0.18940274
61	0xbda1d8d1	-0.079026826
62	0x3f1dbb1f	0.6161365
63	0x3f0037e8	0.50085306
64	0xbf0cb496	-0.5496305
65	0xbd622d9c	-0.055219278
66	0x3ddec7dd	0.10877965
67	0x3f144f16	0.57933176
68	0x3ed41f9c	0.41430366
69	0x3da067d2	0.07832302
70	0xbdf2855c	-0.118418425
71	0xbdffa11c	-0.12481901
72	0xbf1cc21f	-0.61233705
73	0x3e3dcf32	0.1853607
74	0xbe8d35be	-0.27580065
75	0x3f0efb23	0.55851954
76	0x3f03c792	0.51476395
77	0xbef5bda9	-0.47996262
78	0x3d5802c3	0.05273701
79	0x3eca88a3	0.3955737
80	0x3eb22712	0.34795433
81	0x3ea437be	0.32073778
82	0xbef12197	-0.4709594
83	0x3e215e84	0.15758711
84	0xbf131d04	-0.5746615
85	0x3e99175d	0.29900637
86	0x3eecacf5	0.46225706
87	0x3e8a896e	0.27057976
88	0xbe560dfd	-0.20903774
89	0x3eb3245e	0.34988683
90	0xbea55495	-0.32291093
91	0x3ecb8b0e	0.39754528
92	0xbefef932	-0.49799496
93	0xbe0a062d	-0.13478918
94	0xbebc976d	-0.3683428
95	0x3e2d95a8	0.1695162
96	0x3e73fb46	0.23826322
97	0xbe1b902f	-0.1519172
98	0x3f15ccdd	0.5851572
99	0xbedc2e56	-0.43004102
100	0x3d88b824	0.06675747
101	0xbe13daae	-0.14438888
102	0xbf07bba6	-0.53020704
103	0x3f1e8c57	0.6193289
104	0x3ec9c559	0.39408377
105	0x3ea49211	0.3214269
106	0x3e757f92	0.23974445
107	0xbe25c8ea	-0.16189924
108	0xbe5db210	-0.21649957
109	0xbe58df74	-0.2117899
110	0xbef25c7a	-0.4733618
111	0x3f0c5398	0.54815054
112	0xbd924036	-0.071411535
113	0x3f3417a7	0.7034859
114	0x3ed11ab2	0.4084068
115	0xbed977f2	-0.42474324
116	0xbedd287c	-0.4319495
117	0x3e953ca1	0.2914782
118	0x3ea9d7b6	0.33172387
119	0x3e92d881	0.28680804
120	0x3e9c6c9a	0.30551606
121	0xbf15f283	-0.5857317
122	0x3ece84a7	0.4033558
123	0xbed7d3e6	-0.42153853
124	0xbeed2cea	-0.4632333
125	0x3e2eb43c	0.17060941
126	0xbe98f68c	-0.298756
127	0x3e9f09ed	0.3106226
128	0xbf118496	-0.56842935
129	0x3ebbe35c	0.366969
130	0xbd7fa418	-0.06241235
131	0x3e39a151	0.18127944
132	0x3d81b010	0.063324094
133	0xbc45f1bf	-0.012081563
134	0x3e53be27	0.20678006
135	0xbf0a71d2	-0.54079926
136	0x3f006bf5	0.5016473
137	0xbf1d8921	-0.6153737
138	0x3f07c11b	0.5302903
139	0x3ee9c4ca	0.4565795
140	0xbde6cf5c	-0.112700194
141	0x3ec5ee22	0.38658243
142	0xbec65a84	-0.38740933
143	0xbeb5e820	-0.3552866
144	0x3f11c994	0.5694821
145	0x3eb60cf5	0.3555676
146	0xbed3646f	-0.41287562
147	0xbf01c40d	-0.50689775
148	0x3f008c95	0.5021451
149	0x3ce4cce9	0.02792974
150	0xbb69a8ca	-0.0035653585
151	0xbe9e6546	-0.3093664
152	0xbef61fc2	-0.48071104
153	0x3ed1b260	0.40956402
154	0xbf261bf8	-0.64886427
155	0x3e4a8b8c	0.19779795
156	0xbf05793b	-0.5213811
157	0x3ed66113	0.41870937
158	0x3ca146a3	0.019687003
159	0xbeac43db	-0.3364552
160	0x3ecedf54	0.4040476
161	0x3f0eb174	0.5573952
162	0xbe50fbac	-0.20408505
163	0x3db7d53d	0.08976219
164	0xbf27a5c2	-0.654873
165	0xbeb231f2	-0.3480373
166	0x3f1c6311	0.61088663
167	0x3ef06c00	0.46957397
168	0xbee4396f	-0.44575068
169	0x3eea2d0a	0.45737487
170	0xbf0700ef	-0.527358
171	0x3e6b8400	0.22999573
172	0xbec52302	-0.3850327
173	0x3eef3e7e	0.46727365
174	0xbcf1d026	-0.029518198
175	0xbf1830d0	-0.5944948
176	0xbf0deec9	-0.5544248
177	0xbdf40c27	-0.119163804
178	0x3e6d7aa5	0.23191316
179	0xbe9b1924	-0.30292618

conv1.bias f4 [20]
0	0x3c111240	0.008854449
1	0x3d26f1d5	0.040757973
2	0xbc9cd5bb	-0.019144883
3	0x3d0eeb06	0.034892105
4	0x3be2c4a0	0.006920412
5	0xbd7bcc5c	-0.06147419
6	0x3e279947	0.16367064
7	0x3cf12739	0.029437648
8	0xbdc03e12	-0.09386839
9	0x3d943ac1	0.07237769
10	0xbdd26d13	-0.102747105
11	0x3e04c3da	0.12965336
12	0xbd8441e0	-0.06457877
13	0x3de59570	0.112101436
14	0x3e0628d0	0.13101506
15	0xbd94b9c2	-0.07261993
16	0xbd198b0d	-0.037486125
17	0xbd9267e7	-0.07148724
18	0xbdd4d448	-0.10392052
19	0xbd64e47d	-0.055881966

fc1.weight f4 [5, 1440]
0	0x3dde9a28	0.10869247
1	0x3cc22819	0.02370076
2	0x3e61bef0	0.22045493
3	0x3e5ff53a	0.2187089
4	0x3da63b85	0.08116821
5	0x3ce32e5f	0.027732072
6	0xbdf6a1d2	-0.120425835
7	0xbe3e83c9	-0.1860496
8	0xbe0ada38	-0.13559806
9	0x3e3ce7e1	0.1844783
10	0x3df01227	0.11722212
11	0x3e06582a	0.1311957
12	0x3dd29eae	0.10284172
13	0x3cb88460	0.022524059
14	0x3dadebd5	0.08492247
15	0xbda73e84	-0.08166221
16	0xbd765bf8	-0.060146302
17	0xbe4d8887	-0.20071612
18	0xbd0ff61a	-0.03514681
19	0x3d036ceb	0.032086294
20	0x3e024e30	0.12725139
21	0x3df4c5a7	0.11951762
22	0x3d8d9da2	0.06914832
23	0x3d91d435	0.071205534
24	0x3d995c56	0.07488315
25	0xbdb06832	-0.08613624
26	0xbd85d79f	-0.06535267
27	0x3de9e9e7	0.114215665
28	0xbd931fae	-0.07183777
29	0xbdeecd33	-0.116602324
30	0xbc0ba670	-0.0085235685
31	0x3d6d574d	0.057944585
32	0x3d312858	0.043251365
33	0x3d473930	0.048638523
34	0xbcfbb34b	-0.030725142
35	0xbd867647	-0.06565528
36	0x3e2fc2f8	0.17164218
37	0x3e010341	0.12598898
38	0x3dd842c2	0.10559608
39	0x3cc814c7	0.02442397
40	0x3cb59cb0	0.022169441
41	0x3c9ca999	0.01912384
42	0x3be70438	0.0070500635
43	0xbdd18e24	-0.10232189
44	0xbcacb2f3	-0.021081423
45	0x3e0f7157	0.1400808
46	0x3de1151e	0.10990356
47	0x3d10a7b1	0.035316173
48	0x3c98fc7b	0.01867508
49	0x3c4c66a9	0.012475648
50	0x3d6aa148	0.057282716
51	0x3cc14a33	0.023594951
52	0xbd93ceb3	-0.07217159
53	0xbe064a7d	-0.13114353
54	0x3d84646c	0.064644665
55	0x3d99fc40	0.07518816
56	0x3c89bcd9	0.016813682
57	0x3d3cad10	0.046063483
58	0x3a8b2024	0.0010614437
59	0xbc8dbf4a	-0.017303128
60	0xbadf92b5	-0.0017057272
61	0xbda0505f	-0.078278296
62	0xbe4700fc	-0.1943397
63	0x3d2403d9	0.040042732
64	0x3df8b36d	0.12143598
65	0x3e1e6682	0.15468791
66	0x3b31cf88	0.0027131755
67	0xbc637fd8	-0.013885461
68	0xbd9391be	-0.072055325
69	0xbe29f724	-0.16598183
70	0xbc2262f7	-0.00991129
71	0xbdfe0f8b	-0.12405308
72	0x3e7215fc	0.23641199
73	0x3e09fc73	0.13475208
74	0x3cc7c53b	0.024386039
75	0x3d5657cc	0.052329823
76	0xbcf4484f	-0.029819636
77	0xbd998055	-0.074951805
78	0xbdf3e5e4	-0.119090825
79	0xbdad6ac2	-0.08467628
80	0xbe02a415	-0.12757905
81	0xbcac94e4	-0.02106709
82	0x3daf116e	0.08548246
83	0x3d4900ed	0.04907315
84	0x3cba78b3	0.022762632
85	0xba9c75fd	-0.0011937019
86	0xbc0aaa0e	-0.008463396
87	0xbcb98ff5	-0.022651652
88	0xbde68796	-0.1125633
89	0xbd89020a	-0.06689842
90	0xbd93ee91	-0.07223237
91	0x3d445d47	0.04794052
92	0x3d6ee139	0.058320258
93	0x3c492eb7	0.012279204
94	0x3d59ee58	0.053205818
95	0x3bdbbf56	0.0067061586
96	0xbd84ed73	-0.06490602
97	0xbd3d76e1	-0.04625595
98	0x3d5aeda4	0.053449288
99	0xbcb6273b	-0.022235503
100	0xbd7818d9	-0.06057057
101	0x3d0db83a	0.03459952
102	0x3cf37292	0.029717717
103	0x3caa5460	0.020792186
104	0x3a503eb3	0.0007943913
105	0xbb42ca84	-0.002972276
106	0x3c6f00ba	0.014587576
107	0x3c70a7af	0.014688416
108	0x3da00502	0.07813455
109	0x3d2cd3ce	0.04219418
110	0xbcc67490	-0.024225503
111	0xbbac8603	-0.005264999
112	0x3b4e2a6f	0.0031458398
113	0x3ce06eb3	0.027396536
114	0x3bd95b11	0.0066331704
115	0xbd9f44c7	-0.0777679
116	0xbdd63439	-0.104591794
117	0x3c9ad596	0.018900674
118	0x3d67d572	0.05660004
119	0xbcacd82f	-0.021099178
120	0xbc658f89	-0.014011272
121	0xbd4cf87d	-0.050041664
122	0xbcc9f212	-0.024651561
123	0xbd7c4827	-0.061592247
124	0xbb63fd3f	-0.0034788398
125	0xbd4573b2	-0.04820604
126	0x3d7b8ddf	0.061414596
127	0x3d1b4544	0.037907854
128	0xbc681edb	-0.014167513
129	0x3bad8bde	0.0052962145
130	0x3c5048f9	0.012712711
131	0xbd8532a0	-0.065037966
132	0xbd3a1529	-0.045430336
133	0xbc4ee142	-0.012626948
134	0xbd008844	-0.031379953
135	0x3d1d5ca0	0.038418412
136	0x3d58ca51	0.05292732
137	0x3d8de7ba	0.06928964
138	0x3d24ecb2	0.040264793
139	0xbaa42c10	-0.0012525339
140	0xbd4ff192	-0.05076749
141	0xbc251ab2	-0.010077165
142	0xbd640589	-0.05566934
143	0xbe03a897	-0.1285728
144	0x3e962582	0.2932549
145	0x3dcb4ff4	0.09927359
146	0x3da49eb2	0.08038081
147	0x3e638635	0.22219165
148	0x3c1abffe	0.009445189
149	0xbbc19b98	-0.005908441
150	0xbddc31de	-0.10751699
151	0xbdb13e4e	-0.08654462
152	0xbe21d346	-0.1580325
153	0x3db19d08	0.086725295
154	0x3de4552e	0.11149059
155	0xbcb38197	-0.02191238
156	0x3d88b057	0.06674259
157	0x3d2b2136	0.04177972
158	0x3ca9c798	0.020725057
159	0xbcd51b42	-0.026013974
160	0xbe2d8aa3	-0.16947417
161	0xbe1c3125	-0.15253122
162	0x3de3efa6	0.11129694
163	0x3d583224	0.052782193
164	0x3cf6ffbd	0.030151242
165	0x3c88c339	0.016694652
166	0x3cdc6251	0.02690235
167	0x3d7200ea	0.059082903
168	0xbd698a72	-0.057016797
169	0xbae4e86f	-0.001746429
170	0xbd5282bc	-0.05139421
171	0x3daccce4	0.08437517
172	0x3df22360	0.118231535
173	0x3d1ca3cb	0.038242143
174	0x3b3a3034	0.002841008
175	0xbc2cc2e4	-0.010544512
176	0x3d33d044	0.04389979
177	0x3d3291e8	0.04359618
178	0xbd8eaec3	-0.06966927
179	0xbd33fdf7	-0.04394337
180	0x3e236797	0.15957485
181	0x3d61b5e9	0.055105124
182	0x3c92274f	0.01784101
183	0x3cf4c17b	0.029877415
184	0x3cd7ba6f	0.026334016
185	0x3d9240d2	0.0714127
186	0x3cbf1ffe	0.023330685
187	0xbdf17f7a	-0.11791892
188	0xbd75effb	-0.060043316
189	0x3db31d56	0.0874583
190	0x3dcdadb5	0.100428976
191	0xbb10b26d	-0.0022079006
192	0xbc2b9f4b	-0.01047499
193	0x3b16d04f	0.0023012345
194	0x3cb8c83d	0.022556419
195	0xbd51dee4	-0.051237956
196	0xbded3eb6	-0.11584227
197	0xbd7bd7e2	-0.06148518
198	0x3d66de98	0.056364626
199	0x3e1baf01	0.15203477
200	0xbb9d1652	-0.0047939206
201	0x3d51989a	0.051170923
202	0xbc994527	-0.018709732
203	0xbdd795a8	-0.105265915
204	0x3ba4d4d3	0.0050302534
205	0xbe5111ba	-0.20416918
206	0xbe050a90	-0.1299231
207	0x3dc928db	0.09822246
208	0x3dcf9327	0.10135489
209	0x3e1791a6	0.14801654
210	0x3d38a85b	0.04508243
211	0x3b99b6b5	0.00469097
212	0x3d3d16a0	0.046164155
213	0xbe2440eb	-0.16040389
214	0xbe69aa0a	-0.22818771
215	0xbe0a0566	-0.13478622
216	0x3deda03f	0.1160283
217	0x3e4e9d90	0.20177293
218	0x3e31614c	0.17322272
219	0x3dee0e07	0.11623769
220	0xbb5ccbf5	-0.0033690904
221	0x3d1a869a	0.037726022
222	0xbe1400c4	-0.14453417
223	0xbdc2ae79	-0.09505934
224	0xbe0bee98	-0.13665235
225	0x3da388b2	0.07985057
226	0x3e849537	0.25895092
227	0x3dbcdc14	0.09221664
228	0x3dd3c78b	0.10340794
229	0x3d65ab68	0.05607167
230	0x3d01d4f4	0.03169723
231	0x3c4242af	0.011856719
232	0xbdafcda6	-0.08584146
233	0xbddd874d	-0.10816822
234	0xbd8eff70	-0.069823146
235	0x3dfe647f	0.12421512
236	0x3cd140ac	0.025543533
237	0x3caa4592	0.020785127
238	0x3d599bed	0.053127218
239	0x3cc5038f	0.024049548
240	0xbc0631f2	-0.008190619
241	0xbdbe12af	-0.09280907
242	0xbcd0d702	-0.025493149
243	0xbb2614b2	-0.0025341925
244	0xbe0c77c3	-0.1371756
245	0xbc092011	-0.008369462
246	0xbd009219	-0.03138933
247	0xbc9c0652	-0.019045983
248	0x3caf1231	0.021370979
249	0x3bb73450	0.005590953
250	0xbd2e8035	-0.042602737
251	0xbd51011f	-0.05102646
252	0x3e27ed0e	0.16399023
253	0x3e33f5a8	0.17574179
254	0xbbd2e482	-0.0064359317
255	0xbd24e0c1	-0.040253405

fc1.bias f4 [5]
0	0xbc738883	-0.01486409
1	0xba0d27d4	-0.0005384658
2	0xbc423cb9	-0.011855298
3	0xbc2579a7	-0.010099805
4	0xbcb94120	-0.022614062

fc2.weight f4 [2, 5]
0	0xbea00e87	-0.31261083
1	0x3f0fd716	0.5618757
2	0x3f42f994	0.76162076
3	0xbe9d3119	-0.3070152
4	0xbecc91aa	-0.39954883
5	0x3edb32d5	0.4281222
6	0xbf44d40d	-0.76886064
7	0xbd80ce07	-0.062892966
8	0x3ee41b84	0.44552243
9	0x3f290c7f	0.6603469

fc2.bias f4 [2]
0	0x3e83b760	0.25725842
1	0x3e05fd04	0.13084799
