5_train_and_test_model/4_2_Ablation Analysis/CNN-3D/model_3D/sb6/fold0.ckpt (torch, 31751 bytes, 6 tensors)

conv1.weight f4 [20, 1, 1, 3, 3]
0	0x3f2bf5f6	0.6717218
1	0x3f1b5430	0.60675335
2	0xbe9a8729	-0.30181244
3	0xbe071fdc	-0.13195747
4	0x3f23558b	0.63802403
5	0xbf0c7d47	-0.5487866
6	0xbeb1d468	-0.34732366
7	0xbef76aa4	-0.48323548
8	0xbe488df6	-0.19585404
9	0x3b234994	0.0024915682
10	0x3e237473	0.1596239
11	0xbe884f3a	-0.26622945
12	0xbe95d75b	-0.29265866
13	0x3f3ce53b	0.7378728
14	0xbe576405	-0.21034248
15	0xbf49f301	-0.7888642
16	0x3f2091c2	0.6272241
17	0xbe889993	-0.26679668
18	0x3e9218d6	0.28534573
19	0xbeebe5f3	-0.46073875
20	0xbdc08371	-0.094000705
21	0x3ef9d202	0.48793036
22	0x3edababb	0.4272059
23	0xbe3c36bc	-0.18380255
24	0xbf3b3d3f	-0.7314033
25	0x3f01e8d9	0.5074592
26	0xbe45c431	-0.19313122
27	0x3e5828fd	0.21109386
28	0x3f1f8dc8	0.62325716
29	0xbf2eda17	-0.6830153
30	0x3e7cd248	0.24689591
31	0x3ee44968	0.44587255
32	0xbf264819	-0.6495376
33	0xbdd648d3	-0.10463109
34	0x3e9d3edf	0.3071203
35	0xbf16a3fb	-0.58843964
36	0x3ecffe8d	0.40623894
37	0xbf435bce	-0.7631196
38	0x3edb9a02	0.42890936
39	0x3f1de70d	0.6168068
40	0xbf1e89e5	-0.6192916
41	0xbde05bbd	-0.10954998
42	0x3e4cee25	0.2001272
43	0x3ed4f22e	0.41591018
44	0xbe259cdc	-0.16173118
45	0x3f205e00	0.6264343
46	0xbee623cc	-0.44949186
47	0x3daf1e53	0.08550706
48	0x3ef7cccd	0.48398438
49	0xbef4c1fb	-0.47804245
50	0xbe0210bc	-0.12701696
51	0x3e4ca7f3	0.19985943
52	0x3eaab0e5	0.33338085
53	0xbda52c6d	-0.08065114
54	0xbf34fef8	-0.7070155
55	0xbf4d3211	-0.8015452
56	0x3cb6750c	0.02227261
57	0x3eb2ecdf	0.34946343
58	0x3f3741f9	0.7158504
59	0xbf1d54ab	-0.6145732
60	0x3c6125f7	0.013741962
61	0x3f0bc38f	0.54595274
62	0xbc5f2e64	-0.0136219
63	0xbcd69313	-0.026193177
64	0xbf333d7d	-0.700157
65	0x3ebc96c8	0.36833787
66	0x3c35d056	0.011097034
67	0x3f020c56	0.50800073
68	0xbf028868	-0.5098939
69	0xbf33e83d	-0.7027624
70	0x3f300e82	0.6877214
71	0xbcdef2f3	-0.027215457
72	0x3f172f78	0.59056807
73	0x3ea70e73	0.3262821
74	0xbeb51b7f	-0.3537254
75	0x3ded85b3	0.11597767
76	0x3e91f591	0.28507665
77	0xbf374ec8	-0.71604586
78	0xbce7e020	-0.028305113
79	0x3f0c48ac	0.5479839
80	0xbe890ef1	-0.26769212
81	0xbf0a462d	-0.5401333
82	0xbf14ee21	-0.58175856
83	0x3e926dcb	0.2859939
84	0x3ed463fb	0.4148253
85	0xbe61ef92	-0.22064045
86	0xbdec3cbb	-0.11535021
87	0x3ecb6d06	0.39731616
88	0xbe6425be	-0.22280023
89	0xbb420f09	-0.0029611012
90	0xbf11fd7d	-0.5702742
91	0x3f30d79d	0.69079
92	0xbd91f9da	-0.071277335
93	0xbee39537	-0.4444978
94	0x3f12dfe6	0.5737289
95	0xbe40484b	-0.18777578
96	0xbf2c3e8d	-0.67282945
97	0x3e757204	0.23969275
98	0x3cf708af	0.030155508
99	0xbda321ba	-0.07965417
100	0x3f3afb24	0.7303946
101	0xbe10910d	-0.14117832
102	0xbf3ac6f6	-0.7295984
103	0xbe6064cf	-0.21913455
104	0xba9f69b2	-0.0012162237
105	0xbe8f5354	-0.27993262
106	0x3f159d85	0.5844348
107	0x3d6be7eb	0.05759422
108	0xbe93bc8f	-0.28854796
109	0x3ef3c7c2	0.4761334
110	0xbe87c369	-0.26516274
111	0xbf3c4c80	-0.7355423
112	0x3f240928	0.6407647
113	0xbe8dc09e	-0.27686018
114	0xbedf9abb	-0.43672737
115	0x3eba9522	0.36441904
116	0xbdec220d	-0.11529932
117	0xbe91e417	-0.2849433
118	0xbea09910	-0.31366777
119	0x3eada503	0.33914956
120	0xbf2c9605	-0.6741641
121	0xbeecea8a	-0.4627269
122	0x3ee551d5	0.44788995
123	0x3e333dc3	0.17504029
124	0x3c529437	0.01285272
125	0x3eaff450	0.34366083
126	0xbbbd0a8c	-0.0057690796
127	0x3f1ac171	0.6045142
128	0xbeef20bf	-0.4670467
129	0x3f04c907	0.51869243
130	0xbf26d68d	-0.6517113
131	0x3e787455	0.24263127
132	0x3edfb2f3	0.43691215
133	0xbf0ff04c	-0.5622604
134	0xbb35b32f	-0.002772521
135	0xbf21ae8a	-0.6315695
136	0x3ed49fad	0.41528073
137	0xbdbaa5b7	-0.09113639
138	0xbe1f60d3	-0.1556428
139	0x3ebb7d2b	0.36618933
140	0xbda8d9c6	-0.08244662
141	0xbed97663	-0.42473134
142	0x3f2bd13e	0.67116153
143	0xbc392da6	-0.011302387
144	0xbe92e93d	-0.28693572
145	0xbf29c6b3	-0.66318816
146	0x3eb1ac26	0.3470165
147	0xbe909756	-0.2824046
148	0x3eb92ad1	0.3616548
149	0xbe1e2055	-0.15442021
150	0xbee6b95b	-0.4506329
151	0x3f263e93	0.6493923
152	0xbe735cb5	-0.23765834
153	0x3f23f16b	0.6404025
154	0xbed71a3b	-0.420122
155	0x3e044953	0.12918596
156	0xbf270a5b	-0.65250176
157	0xbd9e4a74	-0.077290446
158	0xbc22d05c	-0.009937372
159	0xbe3820a7	-0.17981206
160	0x3f1236f8	0.57115126
161	0xbcc806a2	-0.024417225
162	0x3e91abc5	0.28451362
163	0x3efe0f2d	0.49620953
164	0xbded3655	-0.11582629
165	0xbe88b3a9	-0.2669957
166	0xbe58dcd8	-0.21177995
167	0x3d4b7ae1	0.049677733
168	0xbf113276	-0.5671762
169	0xbf057325	-0.5212882
170	0x3f0dba81	0.5536271
171	0x3e2d1086	0.16900834
172	0xbf1b3e62	-0.60642064
173	0xbd3eab4b	-0.046550076
174	0x3f07207b	0.52783936
175	0x3e825d44	0.2546178
176	0xbe24f541	-0.16109182
177	0xbf366041	-0.7124062
178	0x3f43e683	0.7652361
179	0xbedd6ac7	-0.43245527

conv1.bias f4 [20]
0	0xbdd793d7	-0.10526245
1	0xbdd8095d	-0.10548661
2	0xbc4391b0	-0.01193659
3	0x3d21e07c	0.039520726
4	0xbd18a4f1	-0.037266675
5	0xb9a3ce39	-0.0003124343
6	0x3c2634a4	0.010144386
7	0x3d93fba2	0.072257295
8	0xbdcaf8db	-0.09910747
9	0xbd45eb71	-0.048320238
10	0x3de1d583	0.11027052
11	0x3e16156f	0.14656614
12	0xbcb7ddd3	-0.022444641
13	0x3b7ae63a	0.0038284198
14	0xbe0eb6de	-0.13936946
15	0x3e4c982b	0.19979922
16	0xbd858dbe	-0.06521176
17	0xbc516818	-0.012781166
18	0xbd0b2f24	-0.033980504
19	0x3dd45089	0.10366923

fc1.weight f4 [5, 1440]
0	0x3dc63c9c	0.09679529
1	0xbbe48ff0	-0.0069751665
2	0x3e3c96d4	0.18416911
3	0x3e1a4ff5	0.15069564
4	0xbdb283a3	-0.08716514
5	0xbd354576	-0.044255696
6	0xbe8b64fc	-0.27225482
7	0xbde4cc3d	-0.11171768
8	0xbe9007a5	-0.28130832
9	0x3e341de7	0.17589532
10	0x3e60d3c4	0.21955782
11	0x3ca4838c	0.020082258
12	0xbd9e79dc	-0.077380866
13	0xbdd33771	-0.10313309
14	0xbd837674	-0.064190775
15	0xbe2c6a85	-0.16837509
16	0xbe519682	-0.2046757
17	0xbe1a1b12	-0.15049389
18	0x3e6c7355	0.2309087
19	0xbdfb02b9	-0.12256379
20	0xbca7a250	-0.020463139
21	0xbd4009b6	-0.04688426
22	0xbd960282	-0.07324697
23	0xbb66b052	-0.003520031
24	0x3b340530	0.0027468912
25	0xbd937f8a	-0.072020605
26	0xbd4fbcb5	-0.050717074
27	0x3e766dc4	0.2406531
28	0x3c6cd326	0.014454639
29	0xbbd0ebe6	-0.0063757775
30	0xbd9b30f5	-0.07577697
31	0xbd1f78d9	-0.03893361
32	0xbc6e9469	-0.014561751
33	0x3c54b6e3	0.012983057
34	0xbbeb6b49	-0.0071844202
35	0xbdb88098	-0.09008902
36	0x3ec643f9	0.38723734
37	0x3dc41e4d	0.09576092
38	0xbdaa6a7a	-0.0832109
39	0xbd49907f	-0.049210068
40	0x3d64f851	0.055900875
41	0x3cb3bb63	0.021939939
42	0x3c46488b	0.0121022565
43	0x3d0940f4	0.03350921
44	0xbcba79ea	-0.022763211
45	0x3eb5b5a1	0.35490134
46	0x3e8e2d4a	0.27768928
47	0xbdbf98af	-0.09355294
48	0xbe032d5e	-0.12810275
49	0xbca37206	-0.019951832
50	0x3b82ff1d	0.003997697
51	0xbb1453d2	-0.0022632969
52	0x3cbd9911	0.023144277
53	0xbde7f29e	-0.113255724
54	0xbda2e997	-0.0795471
55	0x3d4e6cf8	0.05039689
56	0x3b5c151e	0.0033581923
57	0x3d01f74e	0.03172999
58	0x3d3104be	0.043217413
59	0x3cfa2130	0.030533403
60	0x3d68acd7	0.056805458
61	0xbc097fd2	-0.008392291
62	0xbd109426	-0.035297535
63	0x3c749562	0.014928194
64	0x3dd0d121	0.10196138
65	0x3b1230b4	0.0022306861
66	0xbdf49dae	-0.119441375
67	0xbd365065	-0.044510264
68	0xbc5fbc65	-0.013655757
69	0x3dd632b7	0.10458892
70	0x3dd34823	0.10316493
71	0x3daf8259	0.08569784
72	0x3da3fb14	0.08006874
73	0x3cbca054	0.02302567
74	0x3db8be11	0.09020627
75	0x3d9c0c05	0.0761948
76	0xbe006b64	-0.12540966
77	0xbd4f106b	-0.050552767
78	0xbdf6c075	-0.12048427
79	0xbdfa96f9	-0.12235827
80	0xbe9ec2c1	-0.3100796
81	0x3d1d167b	0.038351517
82	0x3dac34fb	0.08408543
83	0xbdff09c3	-0.12453034
84	0xbe2784e4	-0.16359288
85	0xbd88cc8f	-0.066796415
86	0xbdec31d4	-0.115329415
87	0xbda53845	-0.08067373
88	0xbe23fcee	-0.16014454
89	0xbe1aa057	-0.15100227
90	0x3dfc2081	0.12310887
91	0x3e5893d5	0.21150143
92	0xbe01aadf	-0.12662838
93	0xbd7518a3	-0.05983795
94	0x3c11e0e5	0.008903717
95	0x3d2920cf	0.041291054
96	0xbd0b3d76	-0.03399416
97	0xbd7b4798	-0.061347574
98	0xbd4c6ae1	-0.049906615
99	0x3ea60819	0.32428053
100	0x3ec52f93	0.3851286
101	0xbe09a2ef	-0.1344106
102	0xbe95b8ab	-0.29242453
103	0xbc77653b	-0.015099819
104	0xbe1357d1	-0.14388968
105	0x3d742bee	0.059612207
106	0xbd53e954	-0.05173619
107	0x3bfc3550	0.007696785
108	0x3eb8cab0	0.36092138
109	0x3dd3b586	0.10337357
110	0xbe5d7b06	-0.21628961
111	0xbddff41d	-0.10935233
112	0xbda65d8c	-0.081233114
113	0xbdcbc676	-0.09949963
114	0xbd91af3b	-0.07113501
115	0xbd85357e	-0.065043435
116	0xbdd5bb22	-0.104360834
117	0x3e031b27	0.12803327
118	0x3d89a204	0.06720355
119	0xbd1dcb67	-0.038524058
120	0xbd30939f	-0.043109532
121	0x3d05f17a	0.032700993
122	0xbd5a4209	-0.053285632
123	0x3d220613	0.039556574
124	0xbca7e6c5	-0.020495782
125	0xbc6fb1af	-0.014629765
126	0xbc4d326c	-0.012524229
127	0x3de1b84c	0.1102148
128	0x3c7148e6	0.014726853
129	0x3d5019b6	0.05080577
130	0x3d7b1ebc	0.061308607
131	0xbce44b06	-0.027867805
132	0x3d75f9a6	0.060052536
133	0x3d026b9a	0.031840898
134	0xbc6e4ba0	-0.014544398
135	0x3cf1b38b	0.029504558
136	0x3d0707f1	0.032966558
137	0xbb04ede5	-0.0020283398
138	0xbccb8a5d	-0.02484625
139	0xbb108d3c	-0.0022056838
140	0xbba63cb9	-0.0050731567
141	0x3dc5de01	0.096614845
142	0x3de22076	0.11041348
143	0x3dace78b	0.08442601
144	0x3c730309	0.014832267
145	0x3db71888	0.08940226
146	0x3d888436	0.06665842
147	0x3d21377a	0.039359547
148	0xbd9aa53a	-0.07551046
149	0xbccd26b2	-0.025042865
150	0xbdd57ae8	-0.10423833
151	0xbe25b8e0	-0.16183805
152	0xbe4fc63e	-0.20290467
153	0x3d2d66fe	0.04233455
154	0xbd2ec06c	-0.042663977
155	0xbd86bd11	-0.0657903
156	0xbd6a8231	-0.057253066
157	0xbd6401f3	-0.05566592
158	0xbd2e992b	-0.04262654
159	0xbdb43e33	-0.08800926
160	0xbd0a7d43	-0.033810865
161	0xbdc0a9e1	-0.09407402
162	0x3dcaca23	0.09901836
163	0x3ddf3aa9	0.108998604
164	0xbc75c523	-0.015000614
165	0xbdbd8468	-0.0925377
166	0x3c83c7a9	0.016086416
167	0x3ccbb415	0.024866143
168	0xbd4a65cf	-0.0494135
169	0xbd4358c2	-0.047692068
170	0xbd6e67bc	-0.058204398
171	0x3eb9a943	0.3626195
172	0x3e53dd6f	0.20689939
173	0xbd94f884	-0.07273963
174	0xbe533c34	-0.20628434
175	0x3b6ccc68	0.0036132578
176	0xbce7e806	-0.02830888
177	0xbd27ac9e	-0.040936105
178	0xbcc26b1b	-0.023732712
179	0xbca9dd3c	-0.020735376
180	0x3e3d3e6f	0.18480848
181	0x3e8ca31f	0.27468202
182	0xbdd74c5d	-0.10512612
183	0xbe0f7324	-0.14008766
184	0xbc8a4918	-0.016880557
185	0x3c1e2ef5	0.00965475
186	0xbdbd2938	-0.092363775
187	0xbb5a1a6f	-0.0033279916
188	0xbdaf6003	-0.08563235
189	0x3c8ae19d	0.016953284
190	0x3e17edaa	0.14836755
191	0xbd86e951	-0.0658747
192	0xbdcf81e6	-0.10132198
193	0x3cbfa5ff	0.023394583
194	0xbcee2db5	-0.02907453
195	0x3d23556e	0.039876394
196	0xbbc83814	-0.0061102007
197	0xb9411410	-0.00018413388
198	0xbd508319	-0.050906274
199	0xbd3e6c9a	-0.04649029
200	0xbc9e3447	-0.019312037
201	0x3c7a4da6	0.015277302
202	0xbb320c7b	-0.0027168083
203	0xbc9da2ca	-0.019242663
204	0x3cb1c101	0.021698477
205	0x3d502b59	0.05082259
206	0xbc400be6	-0.011721587
207	0xbca772e6	-0.02044053
208	0xbb51cbdc	-0.0032012379
209	0xbc92d732	-0.017924879
210	0xbcbfe933	-0.023426628
211	0xbaa0133e	-0.0012212766
212	0xbdd351dc	-0.10318348
213	0x3cdcb498	0.026941583
214	0x3d598ddd	0.053113807
215	0xbc129bca	-0.008948276
216	0x3e09eb0f	0.13468574
217	0x3d950fc0	0.07278395
218	0x3d1a6da2	0.03770221
219	0xbc91b76e	-0.017787661
220	0xbbc186d7	-0.0059059667
221	0xbc87425a	-0.016511131
222	0xbca58da9	-0.02020915
223	0xbe1b49fa	-0.15164939
224	0xbd416b81	-0.047221664
225	0x3e1a1bc5	0.15049656
226	0x3c07d6b2	0.008290933
227	0xbc3a6836	-0.011377385
228	0xbc863d27	-0.016386582
229	0xbcd8d951	-0.026470812
230	0x3b309080	0.0026941597
231	0xbcd6fa1c	-0.026242308
232	0xbdcaab7f	-0.098959915
233	0xbbe3e979	-0.0069553223
234	0x3e3865cc	0.18007582
235	0xbd8c4499	-0.068490215
236	0xbb23578f	-0.0024924015
237	0xbd2253ab	-0.039630573
238	0xbb4124cc	-0.0029471396
239	0x3c3ef597	0.011655233
240	0xbce79ed9	-0.028273987
241	0xbd54539a	-0.05183754
242	0xbd170036	-0.036865436
243	0x3e90cbb5	0.28280416
244	0xbdb26449	-0.08710534
245	0xbc956219	-0.018235253
246	0xbc2a42d3	-0.010391909
247	0x3ca921b7	0.02064596
248	0x3c003044	0.007824007
249	0xbb8efd94	-0.004363725
250	0x3ba65ab9	0.005076733
251	0xbd1c57f1	-0.038169805
252	0x3ea0e274	0.3142277
253	0x3d657997	0.05602416
254	0xbc929a83	-0.017895943
255	0xbc6c9f5e	-0.014442293

fc1.bias f4 [5]
0	0xbc921727	-0.017833306
1	0xbc839635	-0.016062835
2	0xbbd91abc	-0.0066255014
3	0xbc86409b	-0.016388228
4	0xbcc6145e	-0.024179634

fc2.weight f4 [2, 5]
0	0xbedf4501	-0.43607333
1	0xbed80101	-0.42188266
2	0x3f29ce33	0.6633026
3	0x3eb26e7b	0.34849915
4	0x3f4a743b	0.79083604
5	0x3efd5e16	0.49485844
6	0x3ee1cb60	0.44100475
7	0xbecc3edf	-0.39891717
8	0xbf0145d0	-0.5049715
9	0xbf0010bc	-0.50025535

fc2.bias f4 [2]
0	0xbe87ff94	-0.26562178
1	0x3eac0c2d	0.3360304
