5_train_and_test_model/4_2_Ablation Analysis/CNN-3D/model_3D/sb6/fold1.ckpt (torch, 31751 bytes, 6 tensors)

conv1.weight f4 [20, 1, 1, 3, 3]
00000000: cd73 133f 9664 c7be 4485 39bd 9c1e 3a3f
00000010: 88a9 0ebf 35e1 8bbd 0196 9ebe a1f7 0abd
00000020: 3dd5 95bd 657d 2d3f 06c3 17bf cf78 a13b
00000030: 4216 f6be 1ab5 343f 4303 2cbc 2382 cdbe
00000040: bdeb 95bd 63cf 053e 678f 10bf d548 0fbf
00000050: bb5c 113f c756 833e f810 1abf c706 793e
00000060: 1b9d 693c 3a63 263f 20c7 dbbe d811 f93e
00000070: bbb3 1fbf b64f 8a3e 6f8b df3e 4f87 10bf
00000080: 2431 453e 1216 f73e 38e0 11bf b019 f93d
00000090: d87a fc3e 1c72 06bf b6c3 163f 10f1 2b3d
000000a0: 2eb0 dbbe b912 c13e 49e6 803e 49dd 32bf
000000b0: d31b 1d3f 7f0d 38bf acbf 393f 7479 0d3d
000000c0: 9693 8b3d 6888 91be 124a 0c3e 4834 373f
000000d0: b9cd 1bbf ea56 79bc d49b 263f 1f0c febe
000000e0: 42b0 f83d 0492 063d 3631 c1be 4302 b63d
000000f0: 6fc8 133f 9c88 3ebf 474b 553d f98c 4f3e
00000100: e601 03bf cd29 5d3e 5420 123f c409 09bf
00000110: 045c bf3e 1245 1d3f d490 3bbf e2dc f93d
00000120: 5bd7 28be 409c 41bf ae73 403b 3364 6d3e
00000130: 1a6b d0be 9eb3 023f 866e 053f 3a3f ef3e
00000140: 77d7 b4be e3ce 0b3e 6a1c 10bf 5d57 3c3f
00000150: 2626 1bbd 70fc 22bf 31b4 f9be e43e 463d
00000160: 81a7 403f 99e6 1b3e 8653 273f 4592 723e
00000170: 90dc 81be 6fb5 24be 3630 2a3f 71b5 12bf
00000180: 48f0 b3be 7950 12bf 9183 d13e 871d ebbe
00000190: d3e4 1d3f 38f5 89be f4bb 0dbf d4e7 1a3f
000001a0: 4794 7abd c706 91be 65a6 8dbe 0ec1 7e3e
000001b0: b02b 2f3f 186c da3e 0c7a fdbd 7e9b eabd
000001c0: 9b56 26bf 6eaa a0bc 53b1 3d3d 90d7 ac3e
000001d0: 70d5 49be 78b1 243f faee 29bf 3f61 703e
000001e0: 4c4e 183f b4c0 0dbf 8c30 9fbc 04f4 d63e
000001f0: 78ae bc3e bc7a 2dbe c02d 223f 4eb2 223f
00000200: 9496 16bf c72e cbbd 6a5a 283f d7d7 33bf
00000210: 2fbf e3be 2511 893e b966 0bbe 5ef4 18bf
00000220: 7708 33be d455 a33e 411f e13e dd65 0abf
00000230: 7ba0 543e 8918 3f3f c69b d1be d2bd cebb
00000240: 7fa6 6d3d 18d4 0cbf 80c1 883d 1edd d6be
00000250: 9a60 353f 0dbe c6bd 89a2 05bf 9644 043f
00000260: 5133 45be 4798 083f 046c 63bd 7c9f 0ebe
00000270: e4da aa3e c193 f43e b7ae 6fbe e9fe 95be
00000280: f239 243f 05c9 55bf bcae 8cbe bdf4 04be
00000290: 4dbb ae3e 6491 06bf 0f9b 39bf 0906 033f
000002a0: c551 1c3e ae49 74be 0e2a 2f3f 49bc 233f
000002b0: ebf4 00bf 376b ea3d 60b6 84bd 88ec b8be
000002c0: ef92 2d3f ec50 f83e b877 45bf 4f2b 853e
0.5759857 -0.38943928 -0.045293108 0.72702956 -0.55727434 -0.06830064 -0.3097382 -0.033927564
-0.073160626 0.6776946 -0.5928196 0.0049277316 -0.48063856 0.7058884 -0.0104988245 -0.4013835
-0.07320354 0.13067393 -0.56468815 -0.5597051 0.5678212 0.25652143 -0.6018214 0.24318992
0.014258648 0.6499516 -0.42925358 0.48646426 -0.6238362 0.2701394 0.43661067 -0.56456465
0.19257027 0.48259026 -0.56982756 0.121631026 0.49312472 -0.5251787 0.5889238 0.041977942
-0.42907852 0.37709597 0.25175694 -0.69868904 0.6137058 -0.71895593 0.72558093 0.034539655
0.06815259 -0.28424382 0.1370013 0.7156415 -0.6086078 -0.015218476 0.65081525 -0.49618623
0.121429935 0.032854095 -0.37732857 0.0888715 0.5772771 -0.744272 0.052073743 0.2026862
-0.5117477 0.21597977 0.5708058 -0.53530526 0.3737489 0.6143352 -0.73267865 0.12200333
-0.16488402 -0.75629044 0.0029365825 0.23182754 -0.40706712 0.51055324 0.5212177 0.46727926
-0.35320637 0.1365314 -0.56293356 0.73570806 -0.037878178 -0.6366644 -0.48770288 0.04839982
0.7525559 0.15224685 0.6536182 0.2368861 -0.25363588 -0.16084836 0.66479814 -0.5730811
-0.35144258 -0.5715404 0.4092069 -0.45920965 0.61677283 -0.269449 -0.5536492 0.6050999
-0.061176565 -0.28325483 -0.2766601 0.24878332 0.68426037 0.42660594 -0.12376794 -0.11455439
-0.649759 -0.019612517 0.046311688 0.3375821 -0.19710326 0.64333296 -0.66380274 0.23474596
0.5949447 -0.55372167 -0.019432329 0.41983044 0.3685186 -0.1694135 0.6335106 0.6355332
-0.58823514 -0.099210314 0.6576296 -0.7025122 -0.444818 0.26770893 -0.13613404 -0.59747875
-0.17483698 0.3190142 0.43969157 -0.5406168 0.20764343 0.7464681 -0.40939158 -0.0063092494
0.05802011 -0.5501113 0.06677532 -0.41965574 0.7085053 -0.09704218 -0.52201134 0.51667154
-0.19257857 0.53357357 -0.055522934 -0.13928026 0.33370125 0.47768977 -0.23406492 -0.29296044
0.6415092 -0.83509856 -0.27477062 -0.12983985 0.34127274 -0.525656 -0.72502226 0.51181084
0.15265568 -0.23856232 0.68423545 0.63959175 -0.50373715 0.11446231 -0.06480098 -0.3611796
0.6780233 0.48499238 -0.771358 0.26009604

conv1.bias f4 [20]
00000000: 604e ef3d 00e2 85bd 7592 bc3b a0f5 61ba
00000010: 88a6 263d d1ef 8bbd f5f8 903c f752 21bd
00000020: 1039 0e3d a3cf ea3d 44d9 03be 05f4 74bd
00000030: ff9e 163e 62b9 64bd 9063 8fbd 4d11 7f3c
00000040: bc6e 4abd f3c6 b7bd c7ff 93bd 92c2 36bd
0.11684871 -0.06537247 0.0057547637 -0.000861967 0.04068616 -0.06832851 0.017696837 -0.039385762
0.034722388 0.11465385 -0.12875849 -0.059803028 0.1470909 -0.055840857 -0.07001412 0.01556809
-0.04942201 -0.089734934 -0.0722652 -0.04461915

fc1.weight f4 [5, 1440]
00000000: 7f5b d7bc d0c7 12be 7fea e0ba 9157 29bd
00000010: 6e41 fe3b c938 053d 8d0b 31bd 1c80 9a3c
00000020: 1e4d 84bb a6c7 653d 65aa f4bc beca 6ebd
00000030: e179 a03c 33b1 ae3c 3cd8 d23c cfbd 22bc
00000040: 7f6d 5c3d 7a13 de3d c4e7 d13c 4940 98bd
00000050: cae0 353d 5c4e 153d f57e 143d 3a1a e13c
00000060: 8bc1 db3c 9181 113d dc77 6e3d 167d 23bc
00000070: 8888 d9bc c47b a33c 7824 243d fdcd 133d
00000080: 3d73 7a3c f8d7 debc 2e89 58bd 30bb a83c
00000090: 5d9b 8cbd f9d1 8bbe 6461 853d 067e c83d
000000a0: a7d3 3fbc 8371 15bc c34d 393a f2d8 66bc
000000b0: c0a7 dd3b df84 8abd e752 35be e922 eb3b
000000c0: 0f63 1f3d 9f2b 27bb adb9 25bb 43b9 d9ba
000000d0: 41d5 abbc a2da 563d 0caf 123d 2e80 98b8
000000e0: 9588 393c c5d8 ca3c e280 4ebc d30f 72bc
000000f0: 6c67 8ebb a7ce ebbc 2aed 7cbc 421b 6dba
00000100: a058 b83c e968 91bc c17e e03c 8549 613c
00000110: 8a50 bb3c 1862 19bd 059d 67bd 59f7 4fbc
00000120: c2b1 4bbe 2c8d 6e3b e1f6 27be a375 8abe
00000130: 0c3a 6e3e e676 0f3e c5d5 663e f8d4 373e
00000140: cb9b 933e eb4e 61bd a64c 0fbe 08c6 76bc
00000150: 0a40 3fbd 84b7 833d 6791 8d3d 54ad f53d
00000160: 3363 1b3e c26e b23d 29ba 88bd df5b 0abe
00000170: a7c8 513d 8c30 af3d 26d4 803d 1ce4 9f3d
00000180: a74e 2d3e 7304 7a3d e54a 2b3e 6b58 82be
00000190: a491 bcbe b808 e63d 5750 233e 798e 15bc
000001a0: 4873 6a3c 0f7d 1b3d 57d6 1f3e 0b70 623d
000001b0: c465 aebe d20c 80be 1306 663e f8e6 213e
000001c0: 7304 1e3d c157 183c 0a51 833d cedd bb3c
000001d0: d9d4 aa3d 102c 56be a295 bfbe 2d02 8b3e
000001e0: 8a3b a53e e1c4 243e d70d 213e ae71 1c3e
000001f0: d347 fe3d 00bd f83d e122 4a3c 8484 b13d
00000200: 8c9e 483d d5d8 6a3d e703 5f3d f137 a23d
00000210: 3172 80bc 7150 6cbd bd14 5d3d 17a2 1fbd
00000220: d182 c3bc a62a 813d e2cd be3d 64d7 8d3e
00000230: 7253 883c 045a e9bc f2cc a1bc f367 6abd
00000240: ed08 83bd 7c0e 5bbd 88d0 dbbc b3ce 2dbd
00000250: 0503 e73a 3606 d43c 25f7 343d d4e5 863d
00000260: fbd6 9b3d e1fb 223c 72ea 04bd 814b 1f3c
00000270: fc06 a73c 7bff 983c 3a76 4e3d 737a 713c
00000280: d06c c23d 4e4f cf3d bd37 3ebe 055d 5c3d
00000290: e298 fb3c 6fbe 74bc 98f2 873b 90c3 06bc
000002a0: 9170 babb bf20 543d 56fd e93b 2b52 67be
000002b0: c3bf 8f3d 6a9a 183d a3ff b63c 9d6a ce3c
000002c0: 74c7 603c 831d 02bb 2caa a33d c346 343d
000002d0: 1ff8 75be 0e3a 093d 6fca 233d dd3d 1e3d
000002e0: 45a7 d03c f047 c8bb 42d9 f73c d90a 2e3d
000002f0: 205b 9bbc 5d5f 84be ce7f 2cbd addd f63c
00000300: 56e9 683c 0852 ba3c bcef c53a f2e8 f63c
00000310: bfd0 b5ba 2776 453b c258 2a3d efa0 103d
00000320: c4f8 0bbc 1688 0e3d 8d7a 61bc 7ec2 213b
00000330: e6e6 72bc 130f 4fbc 5210 273d 34a6 8cbc
00000340: 77f9 d93b cbcc 5e3c e8b1 623d e10c b43c
00000350: 7e71 1e3d 3e13 4fbd 07ca cdbc fea2 bcbc
00000360: 3045 f93b 8663 5ebd f81a 6cbc 9079 d2bc
00000370: 1f9e 043d 36f1 03bd e2ff e3bc f268 0ebc
00000380: c1c2 183e e976 87bc 814a bfbd f917 71bc
00000390: b2b1 f93c 00c2 463d 4873 77bb 45b5 89ba
000003a0: 8c1c fa3c 19e3 0e3e d7a7 1cbd 535d 19be
000003b0: 9f68 9f3d 5cd8 943d aa00 983c ff60 43bc
000003c0: 5754 fa3b 2763 773d 470a 343d b808 63be
000003d0: d8a2 95be e7f8 183e f80f f13d dd2c a23c
000003e0: 5457 6b3d b96b 19bc 9d10 083d 6c7c c0bb
000003f0: 8ca7 90be ca48 8ebe 2a87 df3d 480a b73d
-0.026288746 -0.14334035 -0.0017159729 -0.041343275 0.0077592647 0.032524858 -0.043223906 0.018859915
-0.0040375134 0.056098603 -0.029866407 -0.05829882 0.019589366 0.02132473 0.025737874 -0.009932949
0.05381536 0.108435586 0.02562321 -0.074341364 0.04440383 0.036451682 0.03625389 0.027478326
0.026825687 0.035523955 0.058219776 -0.009978553 -0.026554361 0.019956477 0.04007384 0.036085118
0.015286264 -0.027202591 -0.0528652 0.02059707 -0.06865571 -0.27308634 0.065127164 0.09789662
-0.011708177 -0.009121302 0.00070687773 -0.01408981 0.006764382 -0.067636244 -0.17707406 0.0071757925
0.03891283 -0.0025508178 -0.0025287673 -0.0016610998 -0.02097571 0.0524546 0.03581147 -7.2718e-05
0.011324068 0.024761567 -0.01260397 -0.014774281 -0.004345825 -0.028785063 -0.015437404 -0.0009044894
0.022503197 -0.01775022 0.027404191 0.013750439 0.022865552 -0.037447065 -0.05654623 -0.01269325
-0.19892028 0.0036400063 -0.1640277 -0.27042875 0.2326433 0.140102 0.22542484 0.17952335
0.28829798 -0.055006903 -0.13994083 -0.015061863 -0.04669193 0.06431487 0.06912499 0.1199595
0.1517456 0.087125316 -0.06676132 -0.13511609 0.051216748 0.085541815 0.06290464 0.0780718
0.16924535 0.0610394 0.16727789 -0.25458083 -0.36829865 0.11232132 0.15948616 -0.009128206
0.014309712 0.037961062 0.15609108 0.055282634 -0.34062016 -0.2500978 0.22463255 0.15810764
0.03857846 0.009298266 0.06411941 0.022932913 0.08341379 -0.20915246 -0.37418848 0.27150097
0.32271987 0.16090728 0.15727936 0.1527774 0.12416043 0.12145424 0.012337417 0.086678535
0.048979327 0.057335693 0.05444708 0.07920826 -0.01567945 -0.057693902 0.053974856 -0.03897294
-0.023866089 0.06306963 0.09316613 0.27703393 0.016641352 -0.028485306 -0.019751046 -0.05722804
-0.06398187 -0.05348061 -0.026832834 -0.04243345 0.0017624801 0.025881868 0.044181008 0.06586805
0.07609364 0.009947748 -0.032450147 0.009722591 0.020389073 0.01867651 0.05040572 0.014738667
0.094934106 0.10122548 -0.1857595 0.053799648 0.030712549 -0.014937981 0.0041487925 -0.008225337
-0.0056896885 0.05178904 0.0071407957 -0.22589938 0.070189975 0.037256636 0.022338694 0.025197322
0.013719428 -0.0019854016 0.07991442 0.044012796 -0.24020432 0.03350263 0.039987978 0.038633216
0.025470385 -0.0061120912 0.030254964 0.042490814 -0.01896435 -0.25854006 -0.04211407 0.030135
0.014215788 0.022744194 0.0015101354 0.030140374 -0.0013871415 0.0030130239 0.041588552 0.03530973
-0.008543197 0.03479775 -0.013762129 0.0024682577 -0.014825558 -0.012637871 0.04078705 -0.017169096
0.006652053 0.013598631 0.055345446 0.021978797 0.038682453 -0.05055546 -0.025120748 -0.02302694
0.0076071247 -0.05429413 -0.014410727 -0.025692731 0.03237736 -0.03221246 -0.027831975 -0.008692013
0.14918043 -0.016536193 -0.09340382 -0.014715188 0.03048024 0.048524857 -0.0037757922 -0.0010506293
0.03053119 0.13953818 -0.038246002 -0.14977007 0.07783627 0.0726783 0.018555004 -0.011924981
0.0076394486 0.060397293 0.043955114 -0.22171295 -0.29225802 0.14938699 0.11770624 0.019796783
0.05745633 -0.009364062 0.03321897 -0.0058742072 -0.28252828 -0.2778991 0.109144524 0.08937508

fc1.bias f4 [5]
00000000: e0f6 993c 8d61 a63c bcd5 8bbc efa0 cc3b
00000010: 3046 a8bc
0.018794477 0.020310188 -0.01706969 0.0062447707 -0.02054128

fc2.weight f4 [2, 5]
00000000: 70a0 483f d2ac 0abf 858b 1abf 4c88 09bf
00000010: de31 33be 1233 5cbe 8fa1 193f e83f 713e
00000020: 365f b13e c41e 3e3f
0.7836981 -0.5416995 -0.6036914 -0.537236 -0.17499492 -0.21503857 0.60012144 0.23559535
0.34642953 0.74265695

fc2.bias f4 [2]
00000000: 9b5a 0a3f 8b53 54be
0.540445 -0.20734994
