5_train_and_test_model/4_2_Ablation Analysis/CNN-3D/model_3D/sb12/fold1.ckpt (torch, 31751 bytes, 6 tensors)

conv1.weight f4 [20, 1, 1, 3, 3]
-0.42186323 -0.60404897 0.22751863 0.24197322 0.46246403 0.63845927 -0.17754905 -0.015655356
-0.48045504 0.4141171 -0.7322554 -0.04024779 -0.67170995 0.44131756 -0.26611316 0.05194359
0.54179937 -0.017348602 0.5032541 -0.037884314 -0.69286734 0.052835062 -0.6168413 0.34079564
-0.0722745 0.2126446 0.48856276 -0.49714458 0.40608734 -0.19265567 -0.37287635 -0.069406375
-0.19464283 0.0009065776 -0.36524525 0.17807269 0.073234096 0.32490334 -0.5628315 0.22978869
-0.5821603 0.491868 -0.59115815 0.3898328 0.26763427 0.5657557 0.45592886 -0.015199199
-0.4811913 -0.4897566 -0.34327146 0.11447669 -0.15712951 0.60753405 -0.44227314 -0.5597459
0.47178724 -0.56737083 0.34973562 -0.06447221 -0.06467802 0.5914367 -0.18447046 0.6823745
0.5292096 -0.30926028 0.014467194 -0.63021266 -0.6401996 -0.21155584 0.08661394 0.3436531
-0.31678912 0.49817103 0.56849873 -0.5307767 0.71708715 -0.5276648 -0.22128068 -0.21441257
-0.39975396 -0.25568023 0.48170212 0.08957932 0.42118618 0.047939412 -0.052169327 0.10184665
0.047178436 -0.49663913 0.02283485 0.55368423 -0.3681198 0.18148063 -0.62375534 -0.55648726
0.23424123 -0.2680954 0.35749856 -0.059167825 0.54488343 -0.692535 -0.002755437 -0.39647913
0.48935622 0.19864266 -0.60878265 0.56274104 -0.7367884 0.20469944 0.66991466 0.070664175
0.6369515 -0.24535453 0.48320672 -0.5164751 -0.07014687 -0.63725924 -0.62699604 0.48429966
0.24634314 -0.54178816 0.38781565 0.08885366 0.24215862 0.274557 0.58232754 0.27792922
0.10105888 0.67730975 0.6404084 -0.53399384 -0.30666488 -0.32998514 -0.2539728 0.61806446
-0.21143378 0.57891905 -0.4700277 -0.67432165 -0.5496658 -0.20543681 0.46955493 0.3615652
-0.6290273 -0.73815864 0.41382778 -0.6287417 0.69619226 0.2420766 0.10772261 0.35158968
-0.22843194 0.42516872 -0.6213206 -0.3776033 0.6262152 -0.14541236 -0.022171836 -0.13443956
-0.07950151 -0.0038264974 -0.24331915 0.4274096 0.14567408 0.025461597 -0.40037027 -0.5884727
0.44691998 -0.37946704 0.6781314 0.28379625 0.30509055 -0.27291363 -0.12725958 -0.55783993
0.2826033 -0.41929927 0.6342237 -0.19084367
00000000: 75fe d7be f4a2 1abf a5fa 683e d4c7 773e
00000010: 16c8 ec3e 1172 233f 6bcf 35be a93f 80bc
00000020: 34fe f5be 2807 d43e 1775 3bbf deda 24bd
00000030: 2ff5 2bbf 60f4 e13e fc3f 88be cdc2 543d
00000040: 5db3 0a3f a81e 8ebc 43d5 003f 952c 1bbd
00000050: c15f 31bf 9469 583d 50e9 1dbf c47c ae3e
00000060: a704 94bd 82bf 593e e624 fa3e bc89 febe
00000070: aeea cf3e 8747 45be a6e9 bebe ee24 8ebd
00000080: 7350 47be 65a7 6d3a 6d01 bbbe b058 363e
00000090: c2fb 953d bb59 a63e ba15 10bf ba4d 6b3e
000000a0: 7508 15bf 1fd6 fb3e 2456 17bf 2a98 c73e
000000b0: 5c07 893e 5ed5 103f 826f e93e 1006 79bc
000000c0: b55e f6be 61c1 fabe 47c1 afbe c172 ea3d
000000d0: 8fe6 20be 5a87 1b3f a071 e2be 824b 0fbf
000000e0: 198e f13e 373f 11bf 8c10 b33e 020a 84bd
000000f0: e975 84bd 6568 173f d3e5 3cbe 18b0 2e3f
00000100: 487a 073f 5d57 9ebe cf07 6d3c 9e55 21bf
00000110: 1fe4 23bf 18a2 58be a662 b13d 4df3 af3e
00000120: 2f32 a2be 4610 ff3e 2289 113f fbe0 07bf
00000130: 0693 373f 0a15 07bf 6797 62be f88e 5bbe
00000140: 8dac ccbe 85e8 82be a9a1 f63e 5d75 b73d
00000150: b7a5 d73e 1e5c 443d 81af 55bd fa94 d03d
00000160: 2d3e 413d 7c47 febe 2710 bb3c 40be 0d3f
00000170: 337a bcbe 0fd6 393e 6eae 1fbf f375 0ebf
00000180: efdc 6f3e cd43 89be 0d0a b73e f659 72bd
00000190: 7b7d 0b3f f949 31bf 9094 34bb 50ff cabe
000001a0: e68c fa3e fb68 4b3e 2ed9 1bbf cc0f 103f
000001b0: 2a9e 3cbf bb9c 513e 877f 2b3f 61b8 903d
000001c0: 410f 233f 383e 7bbe df66 f73e b637 04bf
000001d0: 2aa9 8fbd 6c23 23bf d082 20bf 20f6 f73e
000001e0: 6041 7c3e a1b2 0abf c68f c63e e8f8 b53d
000001f0: 6ef8 773e bc92 8c3e 6b13 153f bd4c 8e3e
00000200: f5f7 ce3d 2c64 2d3f cef1 233f d2b3 08bf
00000210: 2e03 9dbe d0f3 a8be b908 82be 7939 1e3f
00000220: 1982 58be 0a34 143f 78a7 f0be 58a0 2cbf
00000230: e6b6 0cbf 075e 52be 8169 f03e 131f b93e
00000240: ef07 21bf f7f7 3cbf 3ce1 d33e 37f5 20bf
00000250: a839 323f eee2 773e ac9d dc3d 9003 b43e
00000260: 10ea 69be b7af d93e de0e 1fbf 3855 c1be
00000270: a44f 203f fae6 14be b6a1 b5bc 86aa 09be
00000280: b0d1 a2bd f9c5 7abb a828 79be 6ed5 da3e
00000290: 962b 153e d794 d03c 55fd ccbe 26a6 16bf
000002a0: b2d2 e43e 8149 c2be 059a 2d3f be4d 913e
000002b0: d434 9c3e 56bb 8bbe 5650 02be 99ce 0ebf
000002c0: 61b1 903e 65ae d6be 7c5c 223f 866c 43be

conv1.bias f4 [20]
0.13339625 -0.02522166 0.000543017 -0.010727415 -0.021455765 0.11886908 0.06801015 -0.016293138
-0.036253072 0.08743623 -0.056156605 0.07945819 -0.08316093 -0.076441355 -0.0151351895 -0.020599486
-0.039384358 -0.027658768 0.15968765 -0.021616388
00000000: 0799 083e a89d cebc 4159 0e3a 0ac2 2fbc
00000010: 00c4 afbc a271 f33d e848 8b3d 3079 85bc
00000020: 1a7e 14bd c411 b33d 7804 66bd faba a23d
00000030: 4750 aabd 498d 9cbd 96f9 77bc 41c0 a8bc
00000040: 7e51 21bd a494 e2bc 2985 233e da14 b1bc

fc1.weight f4 [5, 1440]
0.25661355 0.18841773 0.08143154 0.08180326 -0.032966666 -0.06956133 -0.022770438 -0.107471675
-0.11122633 0.2587939 0.09838453 0.10487566 -0.027638413 0.009802842 -0.02359986 -0.011398951
-0.039639175 -0.08480919 0.05582093 0.08934542 0.04502416 0.0038439138 -0.009484539 -0.029095396
0.09627694 -0.14461547 0.020728575 0.045139525 -0.006359877 0.025521027 -0.028428573 -0.004128408
-0.02959914 -0.012336624 -0.0468348 -0.07566924 -0.03012253 -0.0046025184 -0.043897755 -0.015632374
0.020649072 -0.017920265 0.051178895 -0.10407051 -0.036191422 0.000744132 -0.032980468 -0.01865236
-0.026641207 -0.023267234 -0.0019488451 0.029839382 0.00086726324 -0.06806722 -0.031967815 0.0059492053
-0.0153439855 -0.012490633 0.025899354 -0.031746507 0.0006633071 0.018972214 0.0011708168 0.015001852
-0.0016909812 0.011512994 -0.032297734 -0.0073103127 0.012950726 -0.015411535 0.0058232867 -0.014964011
0.06192676 0.32537255 0.20910388 0.23485088 -0.073922545 -0.16387182 -0.17203684 -0.18231232
0.00030928254 0.15499187 0.13427635 0.19668256 0.18973954 -0.058270443 -0.031594638 -0.060039014
-0.027776374 -0.117078505 0.0632636 0.14789873 0.11945772 -0.0060047125 -0.047328845 -0.022153435
0.00671532 0.027726458 -0.08819503 -0.0777759 0.018180711 0.0056133377 0.005729948 -0.0010419084
-0.023524212 -0.03940177 0.074092045 -0.2943938 0.011314527 -0.035546362 -0.0077032107 -0.03759977
-0.011262437 -0.025279088 -0.0014835356 -0.0497754 -0.116670266 -0.023189522 0.0109035 -0.0029201296
-0.009415915 -0.03200304 -0.01686515 0.00677928 0.09004449 -0.104693964 0.021893311 0.017336637
-0.0037799703 -0.03994846 -0.047895964 -0.012348667 -0.011539487 -0.015852772 -0.0152202165 -0.027842043
-0.00056020205 -0.029093182 -0.04685751 -0.17194434 -0.08230909 0.0070213797 -0.022456253 -0.008595585
0.32962486 0.13117786 0.16174617 0.014300158 -0.046826694 -0.093472145 -0.10211238 -0.022215
-0.12293421 0.11113745 0.21341953 0.09150971 0.015013416 -0.0045138355 -0.052096903 0.08569111
-0.20466201 -0.025093675 0.10264715 0.04313032 0.07273845 0.104832135 -0.010732642 0.020651828
-0.035546992 -0.02134057 -0.09576135 0.019245207 0.066682845 0.02184591 -0.029041303 -0.01246987
-0.012771508 0.13121444 -0.26925173 -0.10858559 -0.00823381 0.017425671 -0.023907445 0.002603151
-0.019694868 -0.014228335 -0.0009906925 -0.057203896 -0.096921735 -0.030214703 0.022724958 -0.0257711
-0.03705694 -0.008414807 0.020721085 0.08662001 -0.06868482 0.0059520057 0.0052624266 -0.028965006
-0.05261322 -0.0032352617 -0.022870159 -0.016948862 -0.02033049 0.007695942 -0.050421506 0.03296363
0.01043578 -0.0009570923 -0.070929036 -0.007987083 -0.008415239 -0.0052859657 -0.009304692 -0.005590455
0.10420862 0.08932386 0.19035979 0.018608602 -0.11230551 -0.008239568 -0.15126814 -0.012919917
0.06858951 0.13132001 0.016570646 0.10629831 0.02235978 0.006300772 -0.029663023 -0.055178855
0.032404542 -0.16365176 0.06908603 -0.049114022 0.07480604 0.09275067 -0.021653762 -0.0013577527
-0.011748171 -0.08605757 -0.004615169 0.04645082 -0.00825914 0.01808804 0.014770029 0.01631478
0.010922491 0.053738426 -0.041734662 0.1547749 -0.015150289 -0.013249258 0.002933595 0.016053552
00000000: da62 833e 94f0 403e 94c5 a63d 7888 a73d
00000010: 0e08 07bd 2c76 8ebd 1289 babc 1c1a dcbd
00000020: a1ca e3bd a280 843e d47d c93d 0dc9 d63d
00000030: f469 e2bc 199c 203c 7e54 c1bc aac2 3abc
00000040: b05c 22bd 71b0 adbd 7da4 643d bbfa b63d
00000050: 416b 383d 2cea 7b3b 0a65 1bbc 7859 eebc
00000060: d82c c53d 1416 14be f9ce a93c 39e4 383d
00000070: 8466 d0bb 7911 d13c 0ae3 e8bc 9947 87bb
00000080: e579 f2bc 8d1f 4abc d9d5 3fbd 79f8 9abd
00000090: 86c3 f6bc b9d0 96bb 22ce 33bd 770f 80bc
000000a0: 3e28 a93c 85cd 92bc f6a0 513d eb22 d5bd
000000b0: 753d 14bd da11 433a 8716 07bd d6cc 98bc
000000c0: a93e dabc ed9a bebc 6470 ffba b871 f43c
000000d0: 0d59 633a d466 8bbd aff0 02bd 8df1 c23b
000000e0: 5765 7bbc 83a5 4cbc e22a d43c a008 02bd
000000f0: c9e1 2d3a 9e6b 9b3c 1876 993a 54ca 753c
00000100: eaa3 ddba ffa0 3c3c a14a 04bd 598b efbb
00000110: 482f 543c aa80 7cbc 45d1 be3b 9c2b 75bc
00000120: eaa6 7d3d 3b97 a63e 541f 563e c07c 703e
00000130: b464 97bd 04ce 27be 6d2a 30be 15b0 3abe
00000140: 3327 a239 30b6 1e3e bd7f 093e 2767 493e
00000150: 154b 423e fdac 6ebd 6169 01bd 78eb 75bd
00000160: 478b e3bc dbc6 efbd 5990 813d c472 173e
00000170: 40a6 f43d 2ec3 c4bb e4db 41bd 1f7b b5bc
00000180: 300c dc3b 9922 e33c 999f b4bd f948 9fbd
00000190: b7ef 943c 17f0 b73b 4ac2 bb3b a590 88ba
000001a0: d9b5 c0bc c063 21bd 92bd 973d c9ba 96be
000001b0: 9160 393c 1099 11bd 376b fcbb 3702 1abd
000001c0: 1686 38bc 1716 cfbc 3273 c2ba 4ae1 4bbd
000001d0: d2f0 eebd f4f7 bdbc 98a4 323c a55f 3fbb
000001e0: 3645 1abc 9f15 03bd c828 8abc b924 de3b
000001f0: 3f69 b83d ca69 d6bd 9a59 b33c 9005 8e3c
00000200: 61b9 77bb ffa0 23bd 8f2e 44bd 1052 4abc
00000210: 1e10 3dbc acdd 81bc 375e 79bc ff14 e4bc
00000220: 86da 12ba d354 eebc a9ed 3fbd 2d12 30be
00000230: ab91 a8bd 9a13 e63b 2df6 b7bc 7fd4 0cbc
00000240: 97c4 a83e 7d53 063e caa0 253e 364b 6a3c
00000250: 59cd 3fbd 536e bfbd 4c20 d1bd 3bfc b5bc
00000260: eec4 fbbd 089c e33d a68a 5a3e 7169 bb3d
00000270: d5fa 753c cce8 93bb 9063 55bd d27e af3d
00000280: eb92 51be 4091 cdbc ab38 d23d 6ba9 303d
00000290: e5f7 943d 3bb2 d63d f7d7 2fbc 062e a93c
000002a0: b999 11bd 6bd2 aebc 871e c4bd 20a8 9d3c
000002b0: 0491 883d 32f6 b23c 07e8 edbc 6d4e 4cbc
000002c0: 963f 51bc 145d 063e 5ddb 89be 1f62 debd
000002d0: 1ae7 06bc 48c0 8e3c 8cd9 c3bc a099 2a3b
000002e0: 2257 a1bc f61d 69bc 20da 81ba a24e 6abd
000002f0: e77e c6bd d384 f7bc b129 ba3c ea1d d3bc
00000300: 05c9 17bd 42de 09bc 44bf a93c d565 b13d
00000310: a0aa 8cbd 0b09 c33b 6f70 ac3b 0548 edbc
00000320: f680 57bd af06 54bb 335a bbbc 57d8 8abc
00000330: 218c a6bc 3e2e fc3b c886 4ebd df04 073d
00000340: d5fa 2a3c 61e5 7aba 3e43 91bd 41dc 02bc
00000350: 12e0 09bc e535 adbb b572 18bc 2330 b7bb
00000360: 546b d53d 6eef b63d aded 423e 1171 983c
00000370: 6e00 e6bd 41ff 06bc 09e6 1abe 0fae 53bc
00000380: a878 8c3d c178 063e 2abf 873c eeb2 d93d
00000390: db2b b73c b576 ce3b deff f2bc 3903 62bd
000003a0: a0ba 043d 5494 27be fa7c 8d3d c92b 49bd
000003b0: e933 993d 10f4 bd3d 3b63 b1bc 9ff6 b1ba
000003c0: 677b 40bc f43e b0bd d83a 97bb 3743 3e3d
000003d0: 5851 07bc 5f2d 943c fefd 713c 93a6 853c
000003e0: 3ff4 323c d31c 5c3d f7f1 2abd 507d 1e3e
000003f0: eb38 78bc 6a13 59bc 8f41 403b bd82 833c

fc1.bias f4 [5]
0.001156149 -0.0062348684 0.011363546 -0.024560448 -0.0031144537
00000000: ec89 973a de4d ccbb 2b2e 3a3c fe32 c9bc
00000010: dd1b 4cbb

fc2.weight f4 [2, 5]
-0.77066547 -0.33077955 0.5383479 0.7299213 0.47202352 0.052417174 0.6846719 -0.7503568
-0.43146884 -0.59487236
00000000: 554a 45bf f05b a9be 2bd1 093f 1fdc 3a3f
00000010: 11ad f13e 64b3 563d a846 2f3f 6217 40bf
00000020: 7ce9 dcbe 8e49 18bf

fc2.bias f4 [2]
-0.22513923 0.040066782
00000000: e68a 66be 111d 243d
