5_train_and_test_model/4_2_Ablation Analysis/CNN-3D/model_3D/sb14/fold1.ckpt (torch, 31751 bytes, 6 tensors)

conv1.weight f4 [20, 1, 1, 3, 3]
0.12830578 -0.7562526 -0.5192258 0.14880198 0.74738586 0.5166948 -0.04001487 -0.2691171
0.027026044 0.21286145 -0.042241536 0.6848163 0.11694715 0.5208813 -0.31597984 -0.38759586
-0.12847228 -0.38418478 0.46574408 0.5021742 0.27829003 -0.3163793 0.53409487 -0.39928305
-0.257372 -0.6145719 0.20998965 0.31736073 -0.5805786 -0.80525357 0.03797563 0.32914203
0.8004576 0.23374844 -0.5749395 0.096389286 -0.44411016 -0.6853532 0.3898179 0.71362215
0.39660895 -0.7926389 -0.3157391 0.14989625 0.30400684 0.70642185 -0.13038063 -0.45991588
-0.20397827 -0.65228623 0.66388494 -0.12510295 0.7287055 -0.53540593 0.33096313 0.7068148
-0.069921605 -0.6828017 -0.69521993 -0.01221596 -0.10199843 0.587473 0.17154868 0.19789433
0.37513778 0.43845403 -0.5147152 -0.16613828 -0.56890845 0.6155696 -0.5635166 0.7005693
0.19520156 -0.32274917 0.72401935 -0.62389123 0.71190864 -0.72213876 -0.04663011 0.17649919
-0.43538558 -0.50792617 0.5271349 -0.77372503 0.0662922 0.41849113 0.6940057 0.13313945
-0.564778 -0.03262183 0.4196467 0.27730027 0.6899622 -0.51054096 -0.7440065 0.51742935
0.329181 -0.18598108 -0.34305403 0.16086107 -0.7312919 -0.3195141 0.04712402 0.73564893
0.63025904 0.08339487 -0.43340042 0.09418095 -0.00794113 -0.65044636 -0.5521286 0.012412155
0.8158153 0.7198746 -0.15865001 -0.11212479 -0.07090903 0.6532265 -0.8252773 0.06478263
0.090707935 -0.023848282 0.27935272 -0.3173153 0.45370984 0.14489494 0.63119763 -0.66102606
-0.38040262 -0.38051814 0.47383088 0.024224637 -0.3560305 0.1897873 0.46951246 -0.04516277
0.6236542 0.51782006 -0.13701008 -0.7218446 0.60863614 0.20836271 -0.57130617 0.34633043
-0.46577966 0.65716237 0.025633276 -0.21732524 0.37486103 0.42383268 -0.023800317 -0.33402893
0.1245821 -0.18954962 0.65336204 0.41406313 -0.310112 -0.6491828 0.49640784 0.19739982
0.30451217 -0.61811435 -0.39869323 0.68051964 -0.8005962 0.20989102 -0.03229932 0.66650087
0.2162669 -0.57554346 -0.012475902 0.62439543 -0.49569175 0.21303304 -0.2852102 -0.38264275
0.79431486 -0.0025022218 0.14975569 -0.74197406
00000000: 9762 033e c599 41bf fbeb 04bf 8c5f 183e
00000010: ae54 3f3f 1c46 043f a2e6 23bd b7c9 89be
00000020: b965 dd3c 5af8 593e 7605 2dbd 1f50 2f3f
00000030: fd81 ef3d 7a58 053f 1cc8 a1be f772 c6be
00000040: 3d8e 03be deb3 c4be 0276 ee3e 7d8e 003f
00000050: 087c 8e3e 78fc a1be 71ba 083f d46e ccbe
00000060: 43c6 83be 9654 1dbf 8707 573e 1b7d a23e
00000070: cda0 14bf 1925 4ebf 568c 1b3d 4e85 a83e
00000080: caea 4c3f c05b 6f3e 3c2f 13bf bf67 c53d
00000090: 6862 e3be 4f73 2fbf 3696 c73e f1af 363f
000000a0: 5410 cb3e 62ea 4abf 8ea8 a1be 677e 193e
000000b0: c9a6 9b3e 10d8 343f 8082 05be 187a ebbe
000000c0: aedf 50be 3bfc 26bf 5df4 293f fd1a 00be
000000d0: 728c 3a3f 5d10 09bf 0074 a93e d1f1 343f
000000e0: 0f33 8fbd 18cc 2ebf eff9 31bf 7325 48bc
000000f0: 8ee4 d0bd a164 163f 75aa 2f3e d0a4 4a3e
00000100: 0f12 c03e 0c7d e03e 60c4 03bf 2720 2abe
00000110: fca3 11bf f895 1d3f a042 10bf 8258 333f
00000120: ebe2 473e 613f a5be 5559 393f 56b7 1fbf
00000130: a53f 363f 16de 38bf 37ff 3ebd 34bc 343e
00000140: dcea debe 7307 02bf 50f2 063f d812 46bf
00000150: 34c4 873d 7844 d63e 5caa 313f b555 083e
00000160: 4a95 10bf 789e 05bd efdb d63e 4dfa 8d3e
00000170: 5da1 303f d0b2 02bf 3677 3ebf 4076 043f
00000180: 698a a83e d371 3ebe c7a4 afbe c4b8 243e
00000190: f235 3bbf 5a97 a3be 1e05 413d 7d53 3c3f
000001a0: a858 213f eeca aa3d a9e6 ddbe f1e1 c03d
000001b0: 831b 02bc a783 26bf 4d58 0dbf 5a5c 4b3c
000001c0: 46d9 503f b449 383f 2675 22be afa1 e5bd
000001d0: c138 91bd da39 273f 6045 53bf c1ac 843d
000001e0: 15c5 b93d 795d c3bc 5207 8f3e 2777 a2be
000001f0: a84c e83e 575f 143e 2b96 213f 0139 29bf
00000200: 22c4 c2be 46d3 c2be f699 f23e bf72 c63c
00000210: a149 b6be 9a57 423e f063 f03e 99fc 38bd
00000220: cda7 1f3f db8f 043f 5f4c 0cbe cfca 38bf
00000230: 94cf 1b3f 095d 553e 1f41 12bf 3952 b13e
00000240: ac7a eebe cb3b 283f e0fc d13c 828a 5ebe
00000250: c9ed bf3e 9900 d93e e2f8 c2bc d705 abbe
00000260: e624 ff3d 4c19 42be bc42 273f 1500 d43e
00000270: 00c7 9ebe d830 26bf 2b29 fe3e 2e23 4a3e
00000280: 05e9 9b3e be3c 1ebf 8521 ccbe 8936 2e3f
00000290: dff3 4cbf aced 563e 4b4c 04bd cd9f 2a3f
000002a0: 1275 5d3e d156 13bf ba67 4cbc 61d8 1f3f
000002b0: 4fcb fdbe 5525 5a3e 1207 92be c0e9 c3be
000002c0: 3858 4b3f 51fc 23bb 8e59 193e 03f2 3dbf

conv1.bias f4 [20]
-0.011555466 0.033578992 0.1313972 -0.026906664 -0.026259882 -0.016304497 0.0021382668 -0.011663775
-0.03260357 -0.007707857 0.031656597 -0.008657004 -0.01675079 -0.0499649 -0.016553935 -0.04357315
-0.012591889 -0.008867619 0.076750085 -0.051500093
00000000: 2353 3dbc 208a 093d fd8c 063e 5d6b dcbc
00000010: f71e d7bc 0291 85bc 2a22 0c3b 6b19 3fbc
00000020: 528b 05bd 3192 fcbb 59aa 013d 1bd6 0dbc
00000030: f438 89bc ffa7 4cbd 1e9c 87bc c279 32bd
00000040: 364e 4ebc 7d49 11bc 262f 9d3d c3f1 52bd

fc1.weight f4 [5, 1440]
0.12594546 0.18283702 0.20590602 0.11082747 0.11765168 -0.20405117 -0.3316186 -0.09887367
-0.23825051 0.16171205 0.06973403 0.14510976 0.011911973 0.026535222 -0.027421676 -0.037247445
-0.04320042 -0.30990493 -0.08478565 0.008940223 0.11977983 0.029578373 0.015095446 0.03198444
-0.042917643 -0.21288191 -0.34185377 -0.062778495 -0.08635943 -0.046044055 0.0018986135 -0.0020397995
0.009354288 -0.045340158 -0.079913296 -0.3132424 0.006546959 -0.027131703 -0.04132663 -0.00022374012
-0.004895678 0.010222591 0.022262756 -0.030693967 -0.13188589 0.039414007 -0.034310486 0.005523777
-0.019829364 0.02466229 0.029150002 0.013111897 -0.005730864 0.016970264 0.108580746 -0.035657775
0.027682105 0.008455932 0.050636876 0.03226354 0.03583071 0.030261183 0.112007186 0.024550732
-0.07343669 -0.03489682 0.006490293 0.02413657 0.09025307 0.046013873 -0.024271952 -0.0039981157
0.095688574 0.16579093 0.04702999 0.13053162 0.024585346 -0.0820159 -0.024477901 -0.014627558
-0.16325678 0.019051995 0.059945993 0.012231493 0.045367986 -0.0018565555 0.009233635 0.014392625
-0.13694592 -0.16295758 -0.01062549 0.038598757 0.01478315 0.03813214 -0.009922714 -0.0010971216
0.013866291 -0.060431156 -0.022926254 -0.001986367 -0.015211598 -0.026972745 -0.03343855 -0.040301543
-0.013809839 -0.037772756 -0.08138959 -0.026911385 0.0036975935 -0.012035939 -0.012909989 -0.0152719775
0.024259115 -0.011426872 0.019984068 -0.052883584 0.020853436 -0.01210208 -0.0056932 -0.021837037
-0.0062583345 0.028971912 0.008042017 0.025322279 0.025694001 0.019882044 -0.035044804 -0.01696879
-0.0008668672 0.013954476 -0.011474358 0.043436415 -0.025952762 0.03540783 0.051542506 0.019628434
-0.03544618 -0.056276716 0.0072175954 0.021999659 -0.013220336 0.04570105 0.014773493 0.03139086
0.045328192 0.014281242 0.09063119 0.10812307 0.047621116 -0.013261534 -0.037907153 -0.04050222
-0.04797178 0.022063632 0.082545705 0.046236888 0.0532828 0.015699519 -0.0021566479 0.022890916
-0.097840846 -0.1605257 -0.028017491 -0.026478238 0.0006444414 0.05536976 0.02295774 0.023569934
-0.009365187 -0.06721354 -0.10383338 0.00020536882 -0.0038656027 -0.04102147 -0.037047222 -0.017221896
0.016447404 -0.0026705991 -0.012934705 -0.00059114216 -0.015590322 9.284632e-05 -0.040967785 -0.030225813
0.0070871934 0.035169773 0.025280967 0.0014964035 -0.008991157 0.035737157 0.013414976 -0.030940104
-0.0035101126 -0.014579451 -0.007718455 0.01704702 0.020541653 -0.0061950176 0.012935128 0.019792156
-0.025735278 0.006732656 0.02768761 0.031542864 -0.0025714329 0.04952879 -0.01049246 -0.018417265
-0.010707803 -0.037934553 -0.018075932 0.021051763 0.04292928 -0.005053914 0.013124294 -0.0021122408
0.039103888 0.22974037 0.19184962 0.19962943 0.08713675 -0.37612432 -0.13841675 -0.29625258
-0.30640435 0.13193125 0.21689841 0.12198874 0.057589773 0.07235113 -0.20156485 -0.15749784
-0.3540441 -0.24719171 -0.022953203 0.16137156 0.14091325 0.08030648 0.035366334 -0.030903537
-0.1563004 -0.30356225 -0.26703238 0.02204025 -0.04619017 0.015314731 -0.019013412 -0.052835505
0.03194856 -0.15142088 -0.26268256 -0.21498553 0.036522273 -0.026903711 0.006664691 -0.005008834
00000000: d9f7 003e a139 3b3e 07d9 523e 83f9 e23d
00000010: 5df3 f03d caf2 50be eac9 a9be 477e cabd
00000020: f1f7 73be d897 253e b7d0 8e3d a797 143e
00000030: 702a 433c 6560 d93c 6ca3 e0bc c790 18bd
00000040: ecf2 30bd dcab 9ebe 19a4 adbd 037a 123c
00000050: 214f f53d 584e f23c e452 773c 1e02 033d
00000060: 69ca 2fbd b7fd 59be 7507 afbe 0392 80bd
00000070: 36dd b0bd b198 3cbd e6da f83a 28ae 05bb
00000080: ba42 193c 9ab6 39bd 95a9 a3bd 4f61 a0be
00000090: df87 d63b 4e43 debc 1d46 29bd c89b 6ab9
000000a0: ec6b a0bb a87c 273c 6260 b63c ea71 fbbc
000000b0: 180d 07be 9570 213d 2789 0cbd cd00 b53b
000000c0: 3171 a2bc 9208 ca3c fccb ee3c 48d3 563c
000000d0: f9c9 bbbb 3905 8b3c 955f de3d e30d 12bd
000000e0: 95c5 e23c c08a 0a3c 9d68 4f3d c626 043d
000000f0: 39c3 123d 4de6 f73c 0664 e53d 9e1e c93c
00000100: fa65 96bd f8ef 0ebd 86ac d43b 0eba c53c
00000110: 9ad6 b83d 0b79 3c3d f9d5 c6bc a002 83bb
00000120: 5ff8 c33d 19c5 293e 85a2 403d 15aa 053e
00000130: 3567 c93c f4f7 a7bd e185 c8bc 6da8 6fbc
00000140: c92c 27be ee12 9c3c ee89 753d 9a66 483c
00000150: c8d3 393d aa57 f3ba ac48 173c 0bcf 6b3c
00000160: 8d3b 0cbe 5ade 26be 8916 2ebc bb19 1e3d
00000170: 0635 723c 7230 1c3d e192 22bc 4bcd 8fba
00000180: 712f 633c a986 77bd d7cf bbbc b52d 02bb
00000190: 113a 79bc f2f5 dcbc dcf6 08bd 3b13 25bd
000001a0: aa42 62bc 9bb7 1abd 96af a6bd 4475 dcbc
000001b0: 5353 723b 6332 45bc 6b84 53bc 5137 7abc
000001c0: 0dbb c63c c637 3bbc a1b5 a33c 759c 58bd
000001d0: d3d4 aa3c cd47 46bc 068e babb 96e3 b2bc
000001e0: b712 cdbb 8156 ed3c aac2 033c ab70 cf3c
000001f0: 3a7c d23c abdf a23c 248b 0fbd 2202 8bbc
00000200: 793e 63ba 51a1 643c f2fe 3bbc 62ea 313d
00000210: e39a d4bc cd07 113d 3c1e 533d cfcb a03c
00000220: 0330 11bd 6a82 66bd 9481 ec3b a138 b43c
00000230: 1c9a 58bc 0631 3b3d 850c 723c b493 003d
00000240: 0eaa 393d dffb 693c d89c b93d a16f dd3d
00000250: 5c0e 433d e846 59bc 8844 1bbd a8e5 25bd
00000260: 0f7e 44bd cabe b43c b90d a93d e462 3d3d
00000270: 113f 5a3d 479c 803c 8c56 0dbb bb85 bb3c
00000280: c860 c8bd d960 24be f084 e5bc e4e8 d8bc
00000290: bbef 283a 67cb 623d df11 bc3c bc15 c13c
000002a0: 7170 19bc 41a7 89bd 98a6 d4bd 4658 5739
000002b0: 0d56 7dbb 2106 28bd d4be 17bd ef14 8dbc
000002c0: b5bc 863c 3805 2fbb 16ec 53bc e1f6 1aba
000002d0: 8d6e 7fbc 7db6 c238 d6cd 27bd 209c f7bc
000002e0: b03b e83b 2e0e 103d 081a cf3c f822 c43a
000002f0: a54f 13bc 2061 123d 7dca 5b3c 1a76 fdbc
00000300: eb09 66bb a6de 6ebc 18eb fcbb 31a6 8b3c
00000310: f846 a83c 93ff cabb dced 533c 2923 a23c
00000320: cad2 d2bc 9d9d dc3b 20d1 e23c 1733 013d
00000330: 7c85 28bb b3de 4a3d 91e8 2bbc cedf 96bc
00000340: c86f 2fbc 4361 1bbd fa13 94bc bf74 ac3c
00000350: 9dd6 2f3d 4e9b a5bb 4707 573c 856d 0abb
00000360: 662b 203d 0f41 6b3e 3a74 443e a86b 4c3e
00000370: c174 b23d 5e93 c0be 1fbd 0dbe 6bae 97be
00000380: 08e1 9cbe fc18 073e 9e1a 5e3e 3cd5 f93d
00000390: 41e3 6b3d d42c 943d 0467 4ebe 1d47 21be
000003a0: 4545 b5be d31f 7dbe 5b08 bcbc 963e 253e
000003b0: 904b 103e b977 a43d 4adc 103d 6a29 fdbc
000003c0: 360d 20be 836c 9bbe 78b8 88be c18d b43c
000003d0: e731 3dbd a3ea 7a3c 04c2 9bbc 0b6a 58bd
000003e0: 7edc 023d 130e 1bbe 547e 86be 2b25 5cbe
000003f0: 6198 153d 2c65 dcbc 7b63 da3b 2521 a4bb

fc1.bias f4 [5]
0.0020915337 0.021188185 -0.011157808 -0.026902154 0.022367984
00000000: 1d12 093b d892 ad3c 3dcf 36bc e861 dcbc
00000010: 103d b73c

fc2.weight f4 [2, 5]
-0.7325144 -0.4738664 0.24084646 0.53926444 -0.37410122 0.37043965 0.73522115 -0.5958373
-0.57533514 0.68225807
00000000: 1086 3bbf 9e9e f2be 74a0 763e 3c0d 0a3f
00000010: 328a bfbe 44aa bd3e 7437 3c3f cb88 18bf
00000020: 2a49 13bf 77a8 2e3f

fc2.bias f4 [2]
0.24717891 -0.12939039
00000000: 781c 7d3e ea7e 04be
