5_train_and_test_model/4_2_Ablation Analysis/CNN-3D/model_3D/sb14/fold3.ckpt (torch, 31751 bytes, 6 tensors)

conv1.weight f4 [20, 1, 1, 3, 3]
-0.51329285 0.80978173 -0.05308339 -0.3612227 0.07266472 -0.21292795 -0.088136494 0.009709172
-0.25392777 0.23754019 -0.8386624 -0.92808366 0.24169289 0.6399839 0.71304256 -0.47704974
0.18904307 -0.1569977 -0.64828676 0.9063097 0.41891512 0.3308005 -0.4517738 0.3898138
0.28437164 -0.5342508 0.1278581 -0.7274555 0.8144067 -0.8287724 0.6398273 -0.92174894
0.38143775 0.40334153 -0.23639259 0.038653303 0.39410403 0.8010903 -0.28156567 -0.6394389
-0.6387145 0.9338648 0.30574316 -0.3125839 -0.019469742 0.5296929 0.40599865 0.6695554
-0.6099467 -0.3058935 -0.7548565 -0.06529275 0.48679715 0.03715381 0.22694802 -0.76527435
-0.86630774 0.051834192 0.9023839 -0.788157 -0.14590926 -0.16372243 0.7972364 -0.2329755
0.43204355 0.6973773 -0.3340507 0.059485935 -0.8237831 -0.43714353 0.74658465 -0.2794268
-0.27631414 0.52248317 0.875096 0.20807384 -0.7787064 -0.20014569 0.80367273 -0.56854993
-0.32882822 -0.8314103 -0.847842 0.7190979 0.036028147 0.5536878 0.42356798 -0.39745164
0.6538111 -0.64207107 0.18800958 0.5008048 0.7495042 -0.48704588 -0.8807995 0.54507726
0.269177 0.46546578 -0.6162547 -0.59919286 -0.74030006 0.38799274 0.69901913 0.8205733
-0.9532594 -0.33700114 0.32553506 -0.09281102 -0.52509606 -0.32558098 0.6105316 0.006075312
-0.09923768 0.786151 0.54890937 -0.5737637 -0.5410113 -0.8182733 0.7866461 -0.6473064
0.3414119 -0.084931016 0.83408445 -0.10619715 0.028759241 -0.41696998 0.31602216 -0.7129339
0.9400679 -0.37997076 -0.50490165 0.48333123 -0.16393037 -0.23650554 0.5165447 0.7064246
-0.8461975 -0.43422604 -0.38485712 0.50711447 -0.24953696 -0.15809965 0.29126462 -0.071201004
0.091390796 -0.6541077 0.60652447 0.091124386 0.34569865 -0.8430177 0.044832826 -0.034486953
0.32311964 0.14715186 -0.6912686 -0.58857834 0.014834643 0.74264854 0.6340215 -0.20677146
0.10790679 -0.36351603 0.6979628 0.051633134 -0.5308521 -0.6999789 0.914066 -0.17456129
-0.056122445 -0.6088406 0.6773874 -0.7909934 0.078669615 0.7413458 0.04585797 -0.39246935
0.59243596 0.15256536 -0.48916122 0.39426982
00000000: 2967 03bf db4d 4f3f f86d 59bd 2ff2 b8be
00000010: 3ed1 943d c909 5abe e880 b4bd 3813 1f3c
00000020: d202 82be bc3d 733e 94b2 56bf e496 6dbf
00000030: 577e 773e fcd5 233f f589 363f dd3f f4be
00000040: 8294 413e 01c4 20be 1ff6 25bf ea03 683f
00000050: 0b7c d63e af5e a93e e54e e7be ad95 c73e
00000060: 2999 913e a9c4 08bf 3ced 023e 863a 3abf
00000070: f57c 503f 6e2a 54bf b9cb 233f bdf7 6bbf
00000080: cf4b c33e c882 ce3e e610 72be ed52 1e3d
00000090: 01c8 c93e 4114 4d3f 6029 90be 45b2 23bf
000000a0: cb82 23bf c311 6f3f 5e8a 9c3e ff0a a0be
000000b0: 027f 9fbc f499 073f 0edf cf3e fc67 2b3f
000000c0: 7825 1cbf 139e 9cbe 473e 41bf 35b8 85bd
000000d0: 7a3d f93e 982e 183d 1065 683e 05e9 43bf
000000e0: 58c6 5dbf 1750 543d a202 673f a8c4 49bf
000000f0: 3d69 15be daa6 27be af17 4c3f 2191 6ebe
00000100: d034 dd3e 5287 323f b108 abbe 86a7 733d
00000110: 73e3 52bf 47d1 dfbe 2c20 3f3f 0811 8fbe
00000120: 0c79 8dbe 75c1 053f 4b06 603f 4f11 553e
00000130: 4d59 47bf fef2 4cbe 7fbd 4d3f 7d8c 11bf
00000140: 2c5c a8be 4ed7 54bf 2c0c 59bf cd16 383f
00000150: 4092 133d 7cbe 0d3f e7dd d83e c87e cbbe
00000160: 2a60 273f c55e 24bf 9585 403e be34 003f
00000170: 82df 3f3f 145e f9be 137c 61bf 2f8a 0b3f
00000180: 91d1 893e 8851 ee3e dec2 1dbf b464 19bf
00000190: 4e84 3dbf fca6 c63e ebf2 323f 1711 523f
000001a0: cf08 74bf 6a8b acbe 88ac a63e b413 bebd
000001b0: b26c 06bf 8db2 a6be cd4b 1c3f 6913 c73b
000001c0: 203d cbbd 3141 493f 5385 0c3f 2ee2 12bf
000001d0: b77f 0abf 5c7a 51bf a461 493f dfb5 25bf
000001e0: 8acd ae3e 50f0 adbd 8f86 553f e47d d9bd
000001f0: 8098 eb3c 177d d5be a8cd a13e d682 36bf
00000200: 4aa8 703f 878b c2be 3c41 01bf 3177 f73e
00000210: 5ddd 27be 822e 72be 463c 043f 3ed8 343f
00000220: 66a0 58bf e052 debe fe0b c5be 41d2 013f
00000230: 9e86 7fbe e0e4 21be a320 953e d5d1 91bd
00000240: 192b bb3d 9a73 27bf 3045 1b3f 6c9f ba3d
00000250: 6aff b03e 02d0 57bf a0a2 373d 3142 0dbd
00000260: f06f a53e faae 163e fbf6 30bf 12ad 16bf
00000270: 010d 733c 371e 3e3f 3c4f 223f e6bb 53be
00000280: 3cfe dc3d c61e babe b1ad 323f 447d 533d
00000290: ece5 07bf d131 33bf 3b00 6a3f 32c0 32be
000002a0: a6e0 65bd fadc 1bbf 4369 2d3f 8b7e 4abf
000002b0: 891d a13d d7c8 3d3f 91d5 3b3d bef1 c8be
000002c0: e2a9 173f 183a 1c3e 5773 fabe bcdd c93e

conv1.bias f4 [20]
-0.021366455 -0.0026690876 -0.014477873 -0.028804068 -0.032576125 0.021643527 -0.026692858 0.13479699
0.07543153 -0.045445256 -0.01678761 0.078308836 -0.032496363 0.02736205 -0.11391887 0.055854592
0.056647345 -0.014780834 -0.040235993 -0.0018483903
00000000: b408 afbc dceb 2ebb 9a34 6dbc 82f6 ebbc
00000010: 8b6e 05bd c44d b13c fbaa dabc 3908 0a3e
00000020: d97b 9a3d ce24 3abd 2b86 89bc 6260 a03d
00000030: e81a 05bd 6126 e03c 4c4e e9bd c9c7 643d
00000040: 0c07 683d 502b 72bc 7fce 24bd b045 f2ba

fc1.weight f4 [5, 1440]
-0.15034936 -0.06434835 -0.22795933 -0.018657608 -0.10324104 -0.0033411295 0.28240672 0.0024513733
0.2919304 -0.31402615 -0.09557159 -0.15716438 -0.0641492 -0.098666355 0.023401048 0.13412623
0.003962799 0.3657824 0.041767675 0.019962879 -0.08594293 -0.138909 -0.06265799 -0.0037557802
0.03869612 0.15553719 0.3238973 0.10163497 0.05573055 -0.010056501 0.057785183 0.013082377
-0.030367224 -0.02568495 0.037760694 0.3738549 0.06956424 -0.007947277 0.021659337 0.07615793
0.019484902 -0.04854604 -0.0012377675 0.048472263 0.28763795 -0.04530378 0.0011708571 -0.003615126
0.0134627195 0.004971733 -0.021941606 -0.038090054 -0.006903338 0.060923956 0.12045485 -0.029432053
0.0009409581 0.058190893 -0.11597581 -0.03787142 -0.07767323 -0.015920147 0.07878372 -0.025464939
-0.0051855887 0.0113573 0.06865532 -0.040523633 -0.04917229 -0.018873729 -0.04787111 -0.0011454998
-0.105272815 -0.1747463 -0.19686113 -0.1685381 -0.08469697 0.35212404 0.27245426 0.16109765
0.28063533 -0.18361728 -0.0970384 -0.1008549 -0.04861421 -0.020605836 0.021651508 0.06657205
0.25890368 0.36065724 0.030121567 -0.11784161 -0.09762214 -0.041860513 -0.07592831 -0.0028296085
0.14698885 0.2833264 0.38037398 0.033725154 0.07789867 0.019948337 0.010162425 -0.03765072
-0.051845852 0.10831404 0.24643788 0.3655352 0.051465925 0.021454794 0.04401846 -0.01591276
-0.0222521 0.006283402 -0.008127971 0.19809917 0.33332306 0.0035451155 -0.007120842 0.015675554
-0.023075541 -0.025147714 0.014097457 -0.004650645 -0.032763556 -0.023624614 -0.0187048 -0.008898632
-0.022821072 -0.046456516 -0.021484902 -0.054669343 -0.00500182 -0.019507866 -0.20051396 -0.020132087
0.025583344 0.032281533 0.01054051 -0.024017707 0.006402778 -0.029106257 0.05678207 0.03531084
-0.011820928 -0.092164 -0.19530661 -0.24287562 -0.13313983 -0.12390893 0.3313165 0.396171
0.3295537 -0.18270044 -0.24500084 -0.05020944 -0.17039838 -0.019308042 0.023304705 0.07352065
0.3881508 0.2681735 0.06433197 -0.027959632 -0.101111524 -0.011539864 -0.026588641 -0.049742095
0.00557291 0.11593231 0.37745586 0.007892073 0.056339853 0.0075138034 0.008359383 -0.010734044
-0.036509577 0.0021162934 0.04538764 0.38581875 0.063832164 0.0415948 0.0015638612 0.021501604
-0.02980357 -0.029349312 -0.0042379983 -0.019630667 0.34344664 -0.022011863 0.0024375594 -0.008780776
0.024668677 -0.0061290273 0.0037143189 0.018925073 -0.029991103 -0.05660269 0.021935271 0.07146286
0.055804864 -0.005694725 -0.08144244 0.00017711578 -0.14060618 0.007801171 -0.18542838 -0.047674414
-0.16556458 0.049603127 -0.0139450235 -0.044723675 -0.09098886 0.008592226 -0.10740822 0.021415235
-0.19424568 -0.19376296 -0.26511708 -0.23477283 -0.16561554 -0.0020702814 0.37354508 0.32641667
0.36382833 -0.27834854 -0.06438859 -0.13333607 -0.08875551 -0.04055982 -0.0285371 0.14069307
0.12773098 0.24409686 -0.0037349265 -0.05784823 -0.015207283 -0.069102205 0.017307606 -0.03762771
0.03157687 0.20619985 0.40047434 0.0083099445 0.012148829 0.027543675 0.060031667 0.017074073
-0.023057707 0.05784564 0.2792279 0.36493385 0.031637214 0.018913575 0.020491723 -0.02490142
00000000: 2ff5 19be 11c9 83bd 2c6e 69be d7d7 98bc
00000010: 0a70 d3bd daf6 5abb 9d97 903e 38a7 203b
00000020: e777 953e 09c8 a0be 0abb c3bd b3ef 20be
00000030: a860 83bd 9611 cabd 8eb3 bf3c 6358 093e
00000040: 5eda 813b d547 bb3e 9514 2b3d 3189 a33c
00000050: d902 b0bd 293e 0ebe d552 80bd 8923 76bb
00000060: d37f 1e3d 2445 1f3e ded5 a53e ff25 d03d
00000070: b845 643d 06c4 24bc 28b0 6c3d 7757 563c
00000080: afc4 f8bc 3f69 d2bc f5aa 1a3d e969 bf3e
00000090: b277 8e3d 4c35 02bc ec6e b13c b0f8 9b3d
000000a0: cd9e 9f3c 36d8 46bd 963c a2ba da8a 463d
000000b0: 4845 933e 7590 39bd 7277 993a c0eb 6cbb
000000c0: bd92 5c3c ebe9 a23b e2be b3bc 5104 1cbd
000000d0: 6535 e2bb 668b 793d 08b1 f63d 7d1b f1bc
000000e0: a1aa 763a 9359 6e3d ba84 edbd 101f 1bbd
000000f0: 2413 9fbd f86a 82bc 5c59 a13d d99b d0bc
00000100: dfeb a9bb f813 3a3c 299b 8c3d 1cfc 25bd
00000110: e268 49bd 149d 9abc 7f14 44bd 9824 96ba
00000120: 4699 d7bd b2f0 32be f795 49be 4095 2cbe
00000130: 9b75 adbd 9a49 b43e 207f 8b3e c8f6 243e
00000140: 6faf 8f3e 2b06 3cbe 12bc c6bd 048d cebd
00000150: b21f 47bd 92cd a8bc 815e b13c ed56 883d
00000160: 068f 843e 11a8 b83e 81c1 f63c f156 f1bd
00000170: 1eee c7bd ee75 2bbd 4d80 9bbd f470 39bb
00000180: 3f84 163e 2810 913e 61c0 c23e 6323 0a3d
00000190: 5789 9f3d b26a a33c 4d80 263c a437 1abd
000001a0: 515c 54bd c0d3 dd3d 365a 7c3e 6e27 bb3e
000001b0: efcd 523d f7c1 af3c b34c 343d 7a5b 82bc
000001c0: 094a b6bc ffe4 cd3b 2e2b 05bc 82da 4a3e
000001d0: 52a9 aa3e 2b55 683b f455 e9bb 056a 803c
000001e0: eb08 bdbc 9402 cebc 05f9 663c 7064 98bb
000001f0: 1433 06bd 6888 c1bc cf3a 99bc 91cb 11bc
00000200: 42f3 babc 3049 3ebd 1b01 b0bc f6ec 5fbd
00000210: 4fe6 a3bb f6ce 9fbc 8853 4dbe 0cec a4bc
00000220: 2994 d13c a439 043d 1ab2 2c3c c8c0 c4bc
00000230: 65ce d13b 3f70 eebc 5194 683d 19a2 103d
00000240: 91ac 41bc 7bc0 bcbd 75fe 47be 63b4 78be
00000250: cf55 08be f7c3 fdbd 51a2 a93e edd6 ca3e
00000260: 43bb a83e d315 3bbe 80e1 7abe 6aa8 4dbd
00000270: ea7c 2ebe e62b 9ebc 82e9 be3c ff91 963d
00000280: b4bb c63e 094e 893e 7bc0 833d 990b e5bc
00000290: 8f13 cfbd b311 3dbc 6cd0 d9bc 5ebe 4bbd
000002a0: f59c b63b eb6d ed3d e541 c13e c14d 013c
000002b0: 9ec4 663d 5a36 f63b cbf5 083c d8dd 2fbc
000002c0: 118b 15bd 83b1 0a3b 64e8 393d 098a c53e
000002d0: 70ba 823d 4f5f 2a3d 79fa cc3a 2224 b03c
000002e0: 9e26 f4bc f86d f0bc e8de 8abb 7ed0 a0bc
000002f0: 3dd8 af3e 3952 b4bc 76bf 1f3b 3edd 0fbc
00000300: f715 ca3c 02d6 c8bb ee6b 733b c108 9b3c
00000310: e7af f5bc 39d8 67bd 99b1 b33c 1f5b 923d
00000320: a493 643d d19a babb 4bcb a6bd 28b8 3939
00000330: 11fb 0fbe f7a0 ff3b f0e0 3dbe 3f46 43bd
00000340: c389 29be a62c 4b3d ab79 64bc 2c30 37bd
00000350: 5e58 babd 68c6 0c3c d7f8 dbbd 016f af3c
00000360: 57e8 46be cc69 46be 6dbd 87be 4a68 70be
00000370: 1f97 29be 8fad 07bb 4d41 bf3e 1620 a73e
00000380: b547 ba3e b383 8ebe 2ade 83bd 4089 08be
00000390: 73c5 b5bd 0e22 26bd a3c6 e9bc d811 103e
000003a0: e9cb 023e 87f4 793e abc5 74bb 44f2 6cbd
000003b0: f827 79bc 7585 8dbd aec8 8d3c 831f 1abd
000003c0: bf56 013d 0e26 533e f90a cd3e 6f26 083c
000003d0: e20b 473c 46a3 e13c c4e3 753d edde 8b3c
000003e0: 84e3 bcbc 8def 6c3d f6f6 8e3e 9cd8 ba3e
000003f0: 0696 013d a4f0 9a3c 42de a73c 10fe cbbc

fc1.bias f4 [5]
-0.017039966 -0.018457 0.0076603806 0.011004597 -0.02049332
00000000: 6697 8bbc 2233 97bc ee03 fb3b a04c 343c
00000010: 9be1 a7bc

fc2.weight f4 [2, 5]
0.012609156 0.5215822 0.13928534 -0.6310118 0.41843972 -0.6655282 -0.17430566 -0.730188
0.21435246 -0.31569242
00000000: a296 4e3c 6986 053f d1a0 0e3e fd89 21bf
00000010: bb3d d63e 0e60 2abf 2f7d 32be 9aed 3abf
00000020: 367f 5b3e 70a2 a1be

fc2.bias f4 [2]
-0.34659702 0.4034985
00000000: 2a75 b1be 5b97 ce3e
