5_train_and_test_model/4_2_Ablation Analysis/CNN-3D/model_3D/sb11/fold1.ckpt (torch, 31751 bytes, 6 tensors)

conv1.weight f4 [20, 1, 1, 3, 3]
00000000: 2edd 13bd 1b8a fd3d 7cf1 05be d293 9a3d
00000010: 7aae 8c3e feb4 293f a367 563d f530 22bf
00000020: 7663 5dbe e399 aebd a5d6 423f c7aa 263f
00000030: 4bde 05be f48a 1bbf a0bb 00bf c2a4 ad3d
00000040: 85cc 4a3d 3d11 b7bb 334b c4be dca6 d53e
00000050: f43f 043e 53ad c83d ebc1 27bf 792e edbe
00000060: f32c d23d 83ce 1b3f 7e88 a6bc 3bd7 d7be
00000070: 2bf9 0b3f 82c9 37bf b926 833d a032 0e3f
00000080: b271 393e 7ec9 753d 7381 06bc ccb8 bf3d
00000090: 1f37 1bbd ed20 40bf 46e9 28bf ce8b 8d3e
000000a0: f336 0a3f 0301 da3e 0e15 d43c 4875 063d
000000b0: 59f4 613c 4798 10be de7d af3e ddbd 593e
000000c0: 6668 98bd 129c 3e3f a1c7 6c3e 603d e2be
000000d0: aa3c 67be 6f74 40be fe15 2e3f 6e3f c5be
000000e0: 0b6f 4f3e bf24 2ebf 3ea0 2fbe 57ae 02be
000000f0: a139 813c 73f0 fc3e 63b1 08be ba58 873e
00000100: a715 07be 38e3 a1be 3636 8cbc 2531 ffbe
00000110: ebb2 02bf 7a18 643e 8a4f 023e a448 cd3d
00000120: 9e17 a43d 2c1f 91bd 58db a23d 46cb 82bd
00000130: 152c 80be e652 14be 49d7 0abe 343b aebe
00000140: becb 7bbe 1cf4 01bf eb90 08bf c20c f53e
00000150: ed0c 9c3e 8645 df3e e2a6 91be 1b8c d6bd
00000160: 34bd 54be e356 213e 4abc 31bf e051 9ebc
00000170: 762a c93e 773e fc3e cf53 433e 5b9e 4dbd
00000180: 22b6 123d 9ba2 a1bd f4e8 8bbe 30ec 36bd
00000190: b8fe 84be 47b9 ef3e d36f 8f3e 041d 483e
000001a0: c1b0 cb3d e6ac 563d 552e 89be c0c6 ecbe
000001b0: 23a7 193f 0250 3bbf 04c4 8d3e 35e5 c13e
000001c0: 804f 23bf bc17 17be ea6f 013f f03d 193d
000001d0: 1ad6 ec3e f922 fcbe 3af3 d63e 8df0 37bf
000001e0: 3783 e63e c377 2f3f c054 ce3d bbf4 16be
000001f0: 0895 6cbd da95 21bb ffe2 183f d16e a9be
00000200: 322b d1be 5552 623e 1503 10bf 6ae4 88be
00000210: cec0 99bc 67e1 c63e 3eef 4f3e f4ff 16bf
00000220: c850 2bbe 3bbe 163f d50e e23e 019c 0a3f
00000230: 156a 0bbf 1dac 8abe db72 29be 9993 ff3d
00000240: 11e0 0f3f 3147 273f 8b41 3cbe 6f54 57be
00000250: 5437 a6be f374 193e 8e53 4b3b f1b1 86bd
00000260: 27df ddbd 8832 8ebe 139a ea3e 2a57 8cbe
00000270: 1fe6 fcbe a136 49be 8044 d9be af8b 853c
00000280: 2f7c 253e 8f4e 70be 62ef 91bd 873f 1ebf
00000290: db4b 1dbf f211 30bd 2bec ad3e a967 213f
000002a0: 1275 5d3e f88a 8bbe 8077 44bd dfee 29be
000002b0: e14d 433f 5729 3cbe fe50 cfbe 61c2 a8be
000002c0: b89e 22be 8036 b4bc 291d 35bd 9d20 353e
-0.036099605 0.12379857 -0.130804 0.07547726 0.27476865 0.662918 0.05234493 -0.6335595
-0.21619973 -0.08525445 0.7610877 0.65104336 -0.1307308 -0.607589 -0.50286293 0.08478691
0.04951145 -0.0055867718 -0.38338622 0.41728866 0.12915021 0.09798684 -0.6553027 -0.46324518
0.1026248 0.60861987 -0.020328756 -0.42156395 0.54677075 -0.7179185 0.0640387 0.55546
0.18109778 0.06000661 -0.008209574 0.09361419 -0.037894364 -0.7505024 -0.65980947 0.27645725
0.53990096 0.42578897 0.025888946 0.032826692 0.013791167 -0.14120589 0.34275717 0.21263833
-0.074417874 0.74456894 0.23123027 -0.4418745 -0.22581735 -0.18794416 0.6800231 -0.38524956
0.20257203 -0.6802482 -0.17150971 -0.12761818 0.01577455 0.49402198 -0.13348918 0.2643488
-0.13191853 -0.31618667 -0.017115694 -0.49842182 -0.5105426 0.22274962 0.12725654 0.10023621
0.08012317 -0.07086024 0.07951993 -0.063864276 -0.25033632 -0.14484748 -0.13558687 -0.34029543
-0.2458944 -0.50763106 -0.5334613 0.47861296 0.30478612 0.4360773 -0.28447634 -0.10475942
-0.207753 0.15755801 -0.6942793 -0.01932615 0.39290208 0.49266407 0.19074939 -0.050199848
0.035818227 -0.07892343 -0.27326167 -0.04465884 -0.25975585 0.46821043 0.28015003 0.19542319
0.099458225 0.052410983 -0.2679316 -0.46245384 0.60020655 -0.7316896 0.2768861 0.37870184
-0.6379318 -0.14755148 0.5056139 0.037412584 0.46257097 -0.49245432 0.41982442 -0.71851426
0.45021984 0.68542117 0.100747585 -0.14741795 -0.057759315 -0.002465597 0.5972137 -0.3309236
-0.40853268 0.2210172 -0.562547 -0.26736766 -0.018768694 0.38843843 0.20306107 -0.58984303
-0.16730034 0.5888402 0.4415194 0.54144293 -0.54458743 -0.27084437 -0.1654772 0.12479324
0.56201273 0.65343004 -0.18384378 -0.21028303 -0.32464087 0.14986019 0.0031025144 -0.065769084
-0.108335786 -0.27772927 0.45820674 -0.2741025 -0.49394318 -0.19649746 -0.42435074 0.016301958
0.16160654 -0.23467468 -0.07125737 -0.61815685 -0.6144387 -0.042985864 0.33969244 0.630488
0.2162669 -0.27254462 -0.047965527 -0.16595028 0.7629071 -0.18375145 -0.4049148 -0.329608
-0.15880859 -0.021998644 -0.044217262 0.17688222

conv1.bias f4 [20]
00000000: ff96 30bd b06e a6bd 355e cdbd bb13 14be
00000010: 327d 1abe 9649 97bd 5d42 dcbc 821a cfbd
00000020: 2be4 85bd a9a6 93bc c72a 623d 0ae0 353c
00000030: 7b1d 84bd c93f 99bd 9142 f7bd 8eee 1e3d
00000040: 2355 44bd 649e 1f3e 202c 41bd d4a6 88bd
-0.04311275 -0.08126581 -0.10027734 -0.14460652 -0.1508682 -0.07387082 -0.026887113 -0.10112478
-0.0653766 -0.018023806 0.055216577 0.011100778 -0.064509355 -0.07482869 -0.120732434 0.038801722
-0.047932755 0.15587765 -0.04716122 -0.06672445

fc1.weight f4 [5, 1440]
00000000: 2219 c93c 6d1e 24bd 0d91 26bd dfb1 483e
00000010: 001a f33d f4c1 5c3d 47d1 afbd b1d2 8fbe
00000020: 9af5 9cbd 1bc3 2e3d df64 34bd eb3b 83bc
00000030: 265e d0ba 1e6e c3bc 3950 173c 21f3 e3bc
00000040: 4ea1 42bc 110e 983c 993b 14be e3d8 4ebd
00000050: d24b 963c 7915 c3bc b88c bbbc 1828 c43d
00000060: 447e 0b3e 2f41 b6bb a4b4 4d3c 0b9c 93bd
00000070: 8e4a 093d 4f7b c3bc d6b1 9cbc 0f4c 3b3b
00000080: 2f24 683e 58ab 023e dbd4 fe3c e448 b8bb
00000090: 483a a6bd 86e0 a9bd 21a7 b7bc 1e2b 26bd
000000a0: e7f5 47bc d9e2 933c a95f 003e 2d01 e63c
000000b0: 9d1c 59bd 4435 113e b0cd 903c a1e9 5d3c
000000c0: fa2b 67bb 3d30 03bd 7103 69bc ebab d03b
000000d0: ad0f 423d b1bd 0abe 1128 4c3c b2b2 613d
000000e0: 5b69 fcbd 82f7 8c3d f2e5 a4bd c61c 5c3d
000000f0: 00c2 0c3e cc9a 653d baac 6e3d 1c8e 853d
00000100: 053d fcbd b523 f8bd 2325 98bd e9df 113d
00000110: d764 633c cf16 8a3d 5808 3abd b37c 453d
00000120: f009 d93d 3aac 9fbe 923d 91be df0d 573e
00000130: 0a14 5f3e 6a78 5dbe e7aa 58be e7e7 2dbd
00000140: f791 f3bd 9db6 78bd 23da e23c f393 4c3c
00000150: fcfa 163e ef73 503e a79b 673d 0daa d73b
00000160: a277 55be bdde 8cbe 81d7 6e3c 44fd 4b3d
00000170: b1d0 f63b 1cd3 013a d456 a63b a9fa 4e3d
00000180: 940b b83c a755 103c 09e4 963c 0ec1 cfbc
00000190: aa76 16bd ef79 3a3d 140a 1abc 135e 1cbc
000001a0: 88b8 103e 6db4 143e 69fc 0b3d 1796 823d
000001b0: 6d42 0cbd f755 2dbd 53c4 8fbb db2e 83bc
000001c0: 8d71 073b a203 513e 1f32 683e cc76 6e3c
000001d0: 583e 16be 4002 a6bd ed62 97bd 8f39 26bd
000001e0: 8ab3 39bc 82c9 943c 615f 833d f178 9c3d
000001f0: 3e43 f93d 2673 57bd 6776 133e f92e dcbc
00000200: 84f1 e2bc 9e98 413b 9f1d 78bd 6aea aaba
00000210: 41ba ae3c 2a8a e9bc 3b10 17be 9ded 003e
00000220: 7715 01bd 2acd f93c 033c 07be ed5c 04bc
00000230: 8c77 533e b954 173e 7898 d63d b5c6 a93d
00000240: 4134 81bd c689 293d 5e8f 15be 0fc9 babd
00000250: aa8e 6e3e c4de 5d3e ce12 abbd cbdc 55be
00000260: 8ae1 8cbe e2cd a2bc 688a 5f3d bb13 45bd
00000270: dbbf 09bc 52ec d03d 84b5 663d 7810 54bd
00000280: fa51 c8bc fb03 24bd 71e4 a3bd 0a8a edbc
00000290: bc09 1c3d 4f50 173d 4d62 79bd 118f 323c
000002a0: f143 583e 835a 933d dbfe 80bc 1bef 3bbe
000002b0: b4ab c53c 46a0 1ebd 09fb 02bd 1848 ee3c
000002c0: 8bfe 473e 40b0 903e b4a1 2f3c 71c2 2b3c
000002d0: 9668 55bd a770 2ebe 69c1 85bd 3702 143d
000002e0: 43e9 223d 78ef 1a3d 7a3e 3e3e 8bfd 2e3e
000002f0: 905c 523d 2d85 863e 0c30 b6bc 92f3 573d
00000300: e1dd b6bb 0346 153c 74fe a23c e38a e03d
00000310: 607d 9c3d d3b2 fdbd f6b5 d93d 58c7 35bd
00000320: bf9e 443c d095 2a3d fee2 8c3d 445b 78bc
00000330: 8d8c 293e e50c e93b 053a 703d 4897 423e
00000340: 6ce6 82bd 89b6 37be b1af 03be c108 003e
00000350: 031f 013e 785b 213e 3100 f93d 29fe c63d
00000360: 3a41 d23d 1e39 aabe 860b 58bd c517 99bd
00000370: 4334 c33d 6267 f0bd 4f7a 0a3d ab23 54be
00000380: 4cdb 99bd 5c7a b13d 7d62 ac3c 9a38 0f3c
00000390: 1789 073e 5449 9d3d 865f 393e 2107 27bd
000003a0: b7b2 46be 6fa9 b6bc d109 1d3e 87f5 52bd
000003b0: 1c23 b2bb e410 6cbc fdd2 bfbc 7505 e13c
000003c0: 7816 87bd 72c5 22bc 1caf b23d ebeb 7bbe
000003d0: 7444 42bd 6311 2ebb 6af2 0ebd c2fb 55bd
000003e0: 5daf c5bc d1a9 df3d 1aaa da3b 17ab 0a3c
000003f0: 5561 7dbe 2fc5 b1bd 0ecc 833c e603 063c
0.024548117 -0.04006808 -0.040665675 0.19599102 0.118701935 0.053895906 -0.08584838 -0.28090432
-0.07664032 0.042666536 -0.04404151 -0.016019782 -0.0015897199 -0.023856219 0.009235435 -0.027825894
-0.011879278 0.018561395 -0.1447586 -0.050499808 0.0183467 -0.02381395 -0.022894248 0.0957796
0.13622385 -0.0055619697 0.012555275 -0.07207497 0.033518367 -0.023862509 -0.019127768 0.002857927
0.22670053 0.12760675 0.031107357 -0.0056239236 -0.08116585 -0.082947776 -0.02241856 -0.040568464
-0.012204624 0.018052505 0.12536491 0.028076733 -0.053005803 0.14180475 0.017676204 0.013544471
-0.0035274015 -0.032028425 -0.014222012 0.0063681505 0.04737823 -0.13548924 0.012460724 0.055102058
-0.123247825 0.06883146 -0.08051671 0.053738378 0.1374588 0.05605583 0.058270194 0.06521246
-0.12316326 -0.121161856 -0.07428958 0.035613928 0.013879023 0.06742632 -0.045418113 0.048214626
0.105975986 -0.31186086 -0.28367287 0.21001385 0.21784988 -0.21627966 -0.21158944 -0.042457487
-0.11893075 -0.06072103 0.027691906 0.012486446 0.1474418 0.20356725 0.056544926 0.006581551
-0.20846418 -0.27513686 0.014577747 0.04980208 0.007532202 0.0004952417 0.0050762687 0.050532017
0.022466458 0.008809484 0.018419283 -0.02536061 -0.03673426 0.04552644 -0.009401817 -0.009543913
0.14132893 0.14521952 0.034176264 0.063762836 -0.034243036 -0.04231831 -0.0043874173 -0.016013553
0.0020667047 0.20411542 0.2267537 0.014554691 -0.1467222 -0.08105898 -0.073919155 -0.040582236
-0.011334309 0.018162493 0.064146765 0.07640255 0.121710286 -0.05260005 0.14400636 -0.026877867
-0.027703054 0.002954043 -0.060575124 -0.0013039832 0.021329047 -0.028508265 -0.14752285 0.12590642
-0.03151461 0.030493338 -0.13206486 -0.008078796 0.20651072 0.14778413 0.104783 0.082898535
-0.06308795 0.041391157 -0.14605471 -0.0912038 0.2329661 0.2166701 -0.08353196 -0.20885007
-0.27515823 -0.019873563 0.054575354 -0.04811452 -0.008407558 0.102013245 0.05632545 -0.05177352
-0.024453152 -0.04004286 -0.08002556 -0.028996486 0.03809522 0.036941823 -0.060884763 0.0108983675
0.21119668 0.07194998 -0.015746525 -0.1835293 0.024129726 -0.038727067 -0.031977687 0.029087111
0.19530694 0.28259468 0.010719705 0.01048337 -0.052101694 -0.17035161 -0.06531031 0.036134925
0.039773237 0.03782603 0.1857852 0.17088906 0.051357806 0.2627348 -0.022239707 0.05272252
-0.0055806492 0.00911093 0.019896723 0.109639905 0.07641101 -0.12387624 0.106304094 -0.044379562
0.012000739 0.04164678 0.06879233 -0.015158478 0.16557522 0.007112133 0.05864908 0.19003022
-0.06391606 -0.17940725 -0.1285999 0.1250334 0.12609486 0.15757549 0.1215824 0.09716446
0.10266347 -0.33246702 -0.052745365 -0.07475237 0.095314525 -0.11738469 0.03380805 -0.20716731
-0.07512531 0.08665916 0.021043057 0.008741522 0.1323589 0.07680002 0.18102846 -0.040778283
-0.19404112 -0.02229759 0.15335776 -0.051503684 -0.0054363143 -0.014408324 -0.023416037 0.027468422
-0.065960824 -0.00993477 0.08724806 -0.24601714 -0.047428563 -0.0026560656 -0.034899153 -0.052242048
-0.024131471 0.10921062 0.0066731097 0.008463643 -0.2474416 -0.08680188 0.016088512 0.00817964

fc1.bias f4 [5]
00000000: 6818 dfbb 4489 9b3a 09aa 063d f71c 1e3d
00000010: 67e8 9f3c
-0.0068083294 0.001186647 0.032877002 0.03860184 0.019519998

fc2.weight f4 [2, 5]
00000000: 8265 b1be b371 09bf b745 383e a87e 793e
00000010: 8ce3 843d 27ee c23e 0904 be3e 00da 0ebf
00000020: e9d0 9abe f25f 24bf
-0.34647757 -0.53689116 0.17995344 0.24364722 0.064887136 0.3807232 0.37112454 -0.5580139
-0.3023751 -0.642089

fc2.bias f4 [2]
00000000: a71e ce3d 6b65 083f
0.1006444 0.5327975
