5_train_and_test_model/4_2_Ablation Analysis/CNN-3D/model_3D/sb11/fold0.ckpt (torch, 31751 bytes, 6 tensors)

conv1.weight f4 [20, 1, 1, 3, 3]
000000 16 37 91 3e f1 46 ba 3d 18 dc b7 be bf 60 40 be
       0.2836234 0.09095562 -0.35910106 -0.18786906
000010 56 fc 5e 3d 4d 7d 9e 3e e2 d5 84 3e 7e ce ed bd
       0.054439865 0.30954972 0.2594443 -0.11611651
000020 83 4e a5 3e 7a fc 13 be 25 af 01 be 06 01 d5 3e
       0.32286462 -0.14451781 -0.12664469 0.41602343
000030 26 98 b9 be 5c e7 0b be b7 bc 86 be e8 65 1f bc
       -0.36248893 -0.13662475 -0.26315853 -0.009728886
000040 a4 d1 7b 3e 95 61 62 be f4 fe 69 3c 78 6c 3a be
       0.2459169 -0.22107537 0.014281977 -0.1820544
000050 d1 7f 90 be e3 93 17 be a8 2a b0 be c6 6b ee 3b
       -0.28222516 -0.14802508 -0.34407544 0.007276031
000060 f4 75 9f be 28 55 a1 be 37 47 a8 be 7a 69 a8 be
       -0.3114468 -0.31510282 -0.32866833 -0.32892972
000070 3a 86 b5 be b1 32 37 3e 3e ac 9a be f9 be c9 bd
       -0.3545397 0.17890431 -0.30209535 -0.09850878
000080 68 3d 84 be 2f bd 36 3e 33 bd aa 3e 90 a4 c1 3e
       -0.258281 0.17845605 0.33347473 0.37820864
000090 11 cc 00 3d f6 1d 33 3e 82 0a be 3e 33 a2 6d 3e
       0.031444613 0.17491898 0.37117392 0.23206405
0000a0 d6 b7 ad 3c 77 7d ab be 99 24 da 3d 24 c8 b6 3e
       0.021205824 -0.3349416 0.10651512 0.3569957
0000b0 64 c3 14 3d 6c 44 91 3d 63 92 e4 be 97 4f 51 be
       0.03631915 0.070931286 -0.44642934 -0.20440517
0000c0 08 4e a1 3e 4c cd 3e 3e 33 27 be 3e ad f3 74 3e
       0.31504846 0.18633002 0.37139282 0.2392108
0000d0 e3 e0 0b be f9 a5 56 3e 17 05 c2 be 16 2a f6 be
       -0.13660006 0.20961751 -0.37894508 -0.48078984
0000e0 24 05 9f 3e c4 76 ad 3e 56 b1 d0 3e 63 ea 80 3e
       0.3105861 0.33879673 0.40760297 0.25178823
0000f0 ba a9 b2 be f5 e0 8a bd 25 98 2e 3d 10 37 d0 3d
       -0.34895116 -0.067811884 0.042625565 0.10166752
000100 e2 57 9b 3e b6 8b ba 3e 88 66 9c 3e 8a 04 91 be
       0.30340487 0.36434716 0.30546975 -0.28323776
000110 59 11 ba be e0 38 ba 3d ed 0b 03 3e c7 01 58 3c
       -0.3634136 0.09092879 0.12797518 0.0131840175
000120 f5 47 3f be 08 0c ad 3e 70 6c 70 3e 4d e8 d2 3d
       -0.18679793 0.33798242 0.23478866 0.10298214
000130 b9 c8 10 be 2d e5 a8 3e ac b5 ae 3e 0b 13 9b 3d
       -0.1413907 0.32987347 0.3412298 0.075719915
000140 5f 7f a2 3e b5 40 32 3e 22 b2 86 3e 63 e4 9c be
       0.317378 0.17407496 0.2630778 -0.30642995
000150 a2 c9 16 3d 00 66 6a 3e 2e 66 89 3e 20 91 18 3e
       0.036813386 0.22890472 0.2683577 0.14899111
000160 71 7c 49 3e c7 e3 67 3e 04 5f bd be 94 c3 7c 3e
       0.19676377 0.22645484 -0.36986554 0.24683982
000170 25 f4 76 3e 51 8b b7 3e 51 f3 75 be 1a c2 8a 3d
       0.24116571 0.35848477 -0.24018599 0.06775303
000180 89 9b 9e be 49 94 51 3d 4f 5d b5 3e 71 18 58 3e
       -0.3097804 0.051166806 0.3542275 0.21103074
000190 3d 2e b1 3e 89 6e a3 3e cc d4 d6 be 3d b1 a9 3e
       0.3460559 0.3192027 -0.41959226 0.33143035
0001a0 e1 b6 8e be 99 be 7b be 0c c6 67 bd da 29 af be
       -0.278739 -0.24584426 -0.056585357 -0.34211618
0001b0 d7 98 21 3e 0e 00 15 3e 94 f2 0f 3e 29 5d b0 3e
       0.1578096 0.14550802 0.1405738 0.34446076
0001c0 a7 84 f5 bd c3 87 0d 3e 87 74 94 bd 6c 87 85 be
       -0.11988192 0.1382132 -0.07248788 -0.2607988
0001d0 d9 5c b5 3e a6 0c 12 3d c9 87 34 3e eb ba c5 3e
       0.354224 0.035656594 0.17629923 0.3861917
0001e0 47 12 0f 3e cb 35 bf 3e f6 f8 a1 be ff 23 90 be
       0.13971816 0.37345728 -0.31635255 -0.28152463
0001f0 3d a8 ce 3c 81 af 80 3e 4b e7 6b 3e 45 9b e0 3e
       0.025226707 0.251339 0.2303745 0.4386846
000200 de 1a 51 3d 5f 61 46 be 8f aa 55 be 5b 23 8e be
       0.051051013 -0.19373082 -0.20865844 -0.2776135
000210 00 d7 8f be 42 10 13 bd c2 84 f7 3c bf a6 88 bd
       -0.2809372 -0.035904177 0.030214671 -0.06672429
000220 0a 61 6a bd b3 4a a8 be ba f3 a3 3e 5f cf 2b 3e
       -0.05722145 -0.3286949 0.32021886 0.16778325
000230 21 82 4f be 0a 6f b7 3e 43 87 81 3e 88 6f 3c bd
       -0.20264484 0.35826904 0.2529851 -0.046004802
000240 7b e2 98 be 03 0b 42 3e 35 62 e2 3e db 2c b9 bd
       -0.2986029 0.18949513 0.4421555 -0.090417586
000250 81 57 39 3e e7 6c 7c be 99 a6 fb 3d 2a a0 a0 3c
       0.18099786 -0.24650918 0.12287635 0.019607622
000260 ac 83 80 be 46 c1 26 be 09 b1 41 3e 9d 02 6a 3e
       -0.25100458 -0.16284665 0.1891519 0.2285256
000270 d8 54 7c 3e 02 e0 05 be 33 6b 48 3e 57 2b d9 3d
       0.2464174 -0.13073733 0.19572143 0.106039695
000280 fa bc e2 bd 6c 66 19 3e 71 36 c1 bc f5 a8 ab 3e
       -0.11071201 0.14980477 -0.02358553 0.3352734
000290 60 77 98 be f2 96 95 3e d5 e1 b8 3e 22 7d 98 3e
       -0.29778576 0.29216725 0.36109796 0.2978297
0002a0 81 ac 63 be f7 07 d4 bc ad 9a 3b 3e 39 cd ca be
       -0.22233774 -0.025882704 0.18320723 -0.39609697
0002b0 15 15 9b be 38 d3 84 3d d4 ad 05 bc bf 33 0e be
       -0.30289522 0.06485599 -0.00815912 -0.13886927
0002c0 72 a3 29 3e 0a 37 a4 3e 7a 44 98 3d 58 d3 6b 3c
       0.16566256 0.3207324 0.07434936 0.01439365

conv1.bias f4 [20]
000000 aa 62 25 3e 4f 79 9b 3e 54 f7 31 bd 73 e8 8e 3b
       0.16150919 0.3036599 -0.04344876 0.004361206
000010 2e f0 87 bd c4 40 0a be 7f ab fc bd 17 b1 dc bc
       -0.066376075 -0.13501269 -0.12337398 -0.026939912
000020 1b 2c 99 bd 4e d7 8c 3e 9d 29 99 3e 64 4a 50 be
       -0.074791156 0.27508014 0.2991456 -0.20340878
000030 48 22 b0 3e 1c 71 6a 3e aa f3 ec 3c e5 09 b6 3d
       0.34401155 0.2289471 0.028924782 0.08888606
000040 44 d7 84 bd 0c f1 87 3e aa e9 3a 3e 64 c8 2b bd
       -0.06486371 0.26551092 0.18253198 -0.041939154

fc1.weight f4 [5, 1440]
000000 3d 28 8d bc bf 96 f9 bc 84 a9 ec bc 0a 5d 16 bd
       -0.017231101 -0.03046739 -0.028889425 -0.036709823
000010 d7 c7 fc 3a d1 64 8c bb 26 76 f1 bc 01 cb fa bc
       0.0019285631 -0.004284479 -0.029475283 -0.030614378
000020 10 e0 ad bc 3e cb 44 bc 33 f0 e8 bc d4 f2 bb bc
       -0.021225005 -0.012011347 -0.028434848 -0.022942938
000030 e6 f7 98 bc 33 c9 13 bd b9 7b 25 bd 70 0b 8e bb
       -0.018672895 -0.03608055 -0.040401194 -0.0043348595
000040 d0 91 9d bc 36 35 dc bb 51 bb ee bc 16 bd 28 bd
       -0.019234568 -0.0067202104 -0.029142054 -0.04119595
000050 b5 0d f2 bc f1 05 d0 bc e0 04 fa bc 12 50 ff 3b
       -0.029547552 -0.025393458 -0.030519903 0.0077915275
000060 6b 3d b3 3b 4b 47 52 bc d6 ee 0d 3c d9 de 04 bd
       0.005469968 -0.01283438 0.0086629 -0.032439087
000070 a9 7f e5 3b 0e 08 16 bc f7 ce 0d 3a 04 b3 ec 3b
       0.0070037437 -0.009157194 0.00054095633 0.0072234888
000080 8c ed 5d bc 8d 13 88 bc 5b 3a 53 3b 83 81 47 bc
       -0.013545405 -0.016610885 0.0032230827 -0.012176874
000090 42 e4 9b bc fd 3d 17 bd 9a aa 02 bd f9 9e a2 bc
       -0.01902974 -0.03692435 -0.03190098 -0.019851195
0000a0 a6 71 95 bc 45 d4 99 3b 45 18 df bc 23 f8 d4 3b
       -0.018242668 0.004694494 -0.027233252 0.0064993068
0000b0 2f 9d 44 bb ab 9a fc 3b 40 af 5c bc f7 28 c2 bc
       -0.0030000915 0.0077088675 -0.013469517 -0.023701174
0000c0 15 6e e7 3b ad b6 82 bc 5e 1e 2b bb 61 c2 c1 bc
       0.0070626833 -0.015956247 -0.002611063 -0.023652257
0000d0 fa 06 02 bc cd 6c f7 bb e8 e9 c3 bc 06 04 53 3b
       -0.007936234 -0.007550812 -0.023915246 0.0032198443
0000e0 8a 4f ab ba 42 71 7f bc 5d d7 c5 bc 29 f3 72 bc
       -0.0013069969 -0.015590968 -0.024150545 -0.014828482
0000f0 06 ae d9 bc f2 92 c1 bc 54 e3 6c 3b 35 4f 20 3b
       -0.026572239 -0.02362964 0.003614624 0.0024461274
000100 2f e5 7d bc 06 59 ba bb 91 85 97 3b ae 66 af bb
       -0.015496536 -0.005686882 0.0046240767 -0.0053528165
000110 d7 ea c5 bc ed 3d 03 3c 94 b4 18 bc bf fc 0f bc
       -0.024159832 0.00801037 -0.009320397 -0.008788287
000120 11 7b c7 bb d2 31 bd 3b 5a 69 7a bc ac 44 1e bd
       -0.0060876687 0.0057737613 -0.015283907 -0.03863971
000130 24 cf 07 bd 67 50 ca bb 25 79 6f bc 5c 95 9c bc
       -0.03315653 -0.0061741355 -0.014616285 -0.019114189
000140 25 09 0b bd 3d 56 15 bd 08 e0 56 bc f0 1b 7c ba
       -0.033944268 -0.036459196 -0.013114937 -0.00096172
000150 3d 0d 0b 3b f0 96 3e bc ce 45 85 bc 24 b9 ca bc
       0.0021217607 -0.011632666 -0.016268637 -0.024746485
000160 0b 7a fc bc fa ac c0 bc f8 4b 91 bc 7e ef 07 bd
       -0.030819913 -0.023519982 -0.01773642 -0.033187382
000170 12 b8 fa bc 55 c2 60 3b a4 ee 93 3b 97 59 e3 bc
       -0.03060535 0.0034295518 0.004514532 -0.02775268
000180 ac e6 13 3c bf 26 dc 3b d4 50 44 bb 8b a9 0a bd
       0.009027164 0.006718486 -0.0029955404 -0.033853095
000190 83 25 16 bd d5 38 30 bd 67 2b c8 3a a7 9b 96 bc
       -0.036656868 -0.04302295 0.0015271724 -0.018384768
0001a0 d0 8e 3e bc b3 92 1a bd 67 d0 75 bc fe b8 b9 3b
       -0.011630729 -0.03773756 -0.0150033 0.0056678047
0001b0 78 08 96 bb 41 6d c4 bc 8c 21 15 bd 74 5e 14 bd
       -0.0045786463 -0.023977878 -0.036408946 -0.03622289
0001c0 a9 84 a0 bc 61 89 82 3b 54 02 05 bd 7b 07 cd bc
       -0.019594507 0.003983662 -0.032472923 -0.025027981
0001d0 da ca f9 bc 78 48 75 bc 16 85 b0 bc da 95 85 bb
       -0.030492235 -0.014970891 -0.021547835 -0.0040767016
0001e0 04 b7 2b bd f7 72 3b bc e0 92 33 bc 91 78 11 bc
       -0.041922584 -0.011440984 -0.010960311 -0.008878843
0001f0 bc a9 d0 bb 0a 8d f2 bb d9 7e a7 bc b9 76 0f bb
       -0.00636789 -0.007402067 -0.020446228 -0.0021890833
000200 b6 f5 17 3c 1e f7 42 bb 75 62 07 bd bc 3f 18 3b
       0.009274891 -0.0029749344 -0.03305288 0.0023231348
000210 99 e9 ce 38 33 f4 fa 3b 99 68 d2 3b 15 10 e5 bb
       9.8663564e-05 0.0076585053 0.0064211604 -0.0069904425
000220 df ea b3 bb eb 69 70 bc 83 ae 87 3b 59 c7 16 bd
       -0.0054906453 -0.01467369 0.0041406765 -0.036811206
000230 59 c4 1c bc b4 10 8c bc e5 3c 7f bc fe da a5 bc
       -0.009568297 -0.017097808 -0.015578483 -0.020246025
000240 1c e4 15 bc d9 df 04 bd 83 b7 df bb 6c 4a e7 bb
       -0.009148624 -0.03244004 -0.006827296 -0.0070584323
000250 7a 98 28 bc e2 43 86 bc 2d fe cd bc 8d 77 ae bc
       -0.0102902595 -0.01638979 -0.025145615 -0.02129724
000260 f6 ac 93 3b 7e dc 0f bd a9 ae 93 bc ae c4 21 bd
       0.0045067025 -0.035122387 -0.01802762 -0.03949421
000270 34 d2 6e 3a 0b e4 c3 3b c2 68 af 3a 65 26 fb bc
       0.0009110302 0.0059781126 0.0013382661 -0.030657956
000280 ed 21 00 3b 04 57 c6 3b ec 6b f9 3a c9 7e f1 bc
       0.0019551471 0.0060528535 0.0019029356 -0.029479401
000290 01 46 57 bb 4c 2d 12 bd 99 94 d1 bb 51 d6 24 bd
       -0.0032848122 -0.03568773 -0.006395888 -0.04024345
0002a0 8a 4f 1b bc eb 37 70 bc 78 8b 6c bb 40 eb 90 bb
       -0.009479413 -0.014661769 -0.0036093872 -0.0044225752
0002b0 5a cc b5 bc 4f 96 df bc 68 74 40 bc 0a e4 0e bd
       -0.022192169 -0.027293352 -0.011746503 -0.034885444
0002c0 76 dc 9b bc 2e 8c 9e bc 6e f2 a3 3a a6 4e 85 bc
       -0.019026022 -0.019353952 0.0012508163 -0.016272854
0002d0 87 44 b5 bc d7 38 09 bd 47 e2 28 bd 9a 5f 6b bc
       -0.022127403 -0.033501472 -0.04123142 -0.014366055
0002e0 b4 1c 96 ba b1 d7 d9 bb f6 5d c2 3b f1 e6 a2 bc
       -0.0011452646 -0.006648027 0.005931611 -0.019885512
0002f0 4d 0b 19 bb b6 c0 56 39 a5 d6 0d bd 5d 9f ff bc
       -0.0023352683 0.00020480421 -0.03462853 -0.03120392
000300 6b b3 eb bc de 16 cd 3a db 07 96 bb 2b a8 b9 bc
       -0.028772077 0.0015647074 -0.004578573 -0.022663197
000310 f7 9d 1f bd 10 b5 1d bc 8d 0c 13 bd 44 64 27 bc
       -0.038969006 -0.009625688 -0.03590064 -0.010216776
000320 c1 05 aa bc 45 57 59 bc 89 32 27 bd 89 c2 27 3a
       -0.020754697 -0.013265436 -0.04081968 0.00063995324
000330 27 b3 5a bc 96 50 35 bd c9 57 52 bb bb e3 81 bb
       -0.013348377 -0.044266306 -0.003209578 -0.003963915
000340 5e c8 03 bd 1c 07 df bc 56 df e8 bb 9a b6 b1 3b
       -0.032173507 -0.02722507 -0.007106702 0.005423379
000350 ce 7a 99 3a 37 5c 12 bd c0 4d e0 bb bd 55 b4 bc
       0.0011709572 -0.035732474 -0.006845206 -0.02201354
000360 4f e3 0e bd a8 d0 0c bd f9 b7 97 bb 3e a8 21 bc
       -0.034884747 -0.034378678 -0.0046300855 -0.009866772
000370 e1 97 25 bc 77 3b 0e bb a9 56 25 bc 24 ce 16 bd
       -0.0101070115 -0.0021702924 -0.010091462 -0.036817685
000380 0b 20 46 bc 5d 43 25 bd be 47 87 bc 7f 29 2e bc
       -0.012092601 -0.040347446 -0.016513702 -0.010630011
000390 bb f0 f8 bc 36 b4 19 bd 77 45 ce bc 73 68 17 bd
       -0.030388227 -0.03752538 -0.025179608 -0.036964845
0003a0 2c dc 0e 3b e8 34 1c bd e2 7e b5 bc 06 bf 5a bc
       0.0021798713 -0.038136393 -0.022155229 -0.013351208
0003b0 b7 be 2f bc 63 ac c2 bb 7f 07 32 bd 17 b5 13 bd
       -0.010726622 -0.0059409603 -0.04346418 -0.036061373
0003c0 c8 b7 c7 bb 6a 37 2b bd a1 0f a3 3b 3c fe 0a bd
       -0.0060949065 -0.041800894 0.0049762283 -0.033933863
0003d0 1b 97 e0 bc a3 63 ef bb f4 55 c0 bc bb 66 81 3b
       -0.027415803 -0.007305579 -0.023478486 0.003949014
0003e0 56 e2 e8 bc 04 fd 92 bc 48 b6 d1 3b fb 7a d5 bb
       -0.028428238 -0.017942913 0.0063999034 -0.0065149046
0003f0 56 d6 1a bd 69 45 fa bc 53 41 0a bd 89 e5 eb bc
       -0.037802063 -0.030550675 -0.033753704 -0.028795974

fc1.bias f4 [5]
000000 03 61 e7 bc 1e ca 5c bb ca 6c e2 bc 5d f8 d6 bc
       -0.028244501 -0.0033689807 -0.027639765 -0.026241476
000010 1b 4c ad bc
       -0.021154454

fc2.weight f4 [2, 5]
000000 62 e1 6a 3e 7e c1 98 3e ba de 19 3e d7 cb d6 3e
       0.22937539 0.29835123 0.1502637 0.41952392
000010 8c cf f6 3d 3c 2b b7 be d6 5a 5c 3e 36 b8 14 3f
       0.12051305 -0.35775173 0.21519026 0.58093584
000020 0c 6f 13 3c 94 03 b7 be
       0.008998644 -0.35744917

fc2.bias f4 [2]
000000 44 60 ce 3d bb cf 74 be
       0.10076955 -0.23907368
