5_train_and_test_model/4_2_Ablation Analysis/CNN-3D/model_3D/sb15/fold0.ckpt (torch, 31751 bytes, 6 tensors)

conv1.weight f4 [20, 1, 1, 3, 3]
0	0x3f11b6f3	0.56919783
1	0x3f220db1	0.6330214
2	0xbea3e37a	-0.32009488
3	0xbebe3cc7	-0.37155744
4	0xbed9f662	-0.42570788
5	0xbeafafe2	-0.34313875
6	0xbc039b29	-0.0080325985
7	0x3e331bf4	0.17491132
8	0x3e334bee	0.17509434
9	0xbed12012	-0.4084478
10	0xbf18d0cd	-0.59693605
11	0x3ebd3ae6	0.36958998
12	0x3ef9f3f5	0.48818937
13	0x3f057b57	0.52141327
14	0xbeb1769d	-0.34660807
15	0x3e8b82c6	0.2724821
16	0xbe8c9657	-0.2745845
17	0xbe22edc6	-0.15911016
18	0x3e712a8e	0.2355139
19	0x3eacb558	0.33732104
20	0xbdd0897e	-0.101824746
21	0x3f00649e	0.5015353
22	0x3eebec0c	0.46078527
23	0x3e826e0b	0.2547458
24	0xbe5af305	-0.21381767
25	0xbe0225c9	-0.12709726
26	0xbf06839a	-0.5254456
27	0xbed7c791	-0.42144445
28	0xbf1b8515	-0.6074994
29	0x3f0268a9	0.5094095
30	0xbeef1be4	-0.46700966
31	0x3f050d01	0.5197297
32	0xbed8c651	-0.42338803
33	0x3e8e2b20	0.27767277
34	0x3e6c5eec	0.23083085
35	0xbe1c1de7	-0.15245782
36	0xbf0f4af9	-0.55973774
37	0x3ec672fa	0.38759595
38	0x3f19bc2a	0.6005274
39	0x3f0549c3	0.52065676
40	0x3ed1ad28	0.4095242
41	0xbec7084c	-0.38873518
42	0xbe3fa60c	-0.18715686
43	0xbdb9ae68	-0.090664685
44	0xbed00322	-0.4062739
45	0x3f189fe0	0.5961895
46	0xbeaeccb8	-0.34140563
47	0xbdf7b1ca	-0.120944574
48	0xbef085cf	-0.46977088
49	0x3ee21af8	0.441612
50	0x3ebb539f	0.36587235
51	0x3d7826d6	0.06058391
52	0xbe569f95	-0.20959313
53	0xbab09b20	-0.0013473965
54	0xbe0f11ed	-0.13971682
55	0x3ef5d46d	0.4801363
56	0xbe8b8f8d	-0.27257958
57	0xbea8ea48	-0.32991242
58	0x3eed49a4	0.46345246
59	0xbeb5a69f	-0.35478684
60	0xbee1cd4a	-0.44101936
61	0x3e541626	0.20711574
62	0xbecfadfd	-0.4056243
63	0xbe8792f1	-0.26479295
64	0xbf027b0a	-0.5096899
65	0xbf0da9a9	-0.55337006
66	0x3f067049	0.52515084
67	0x3f17c9ab	0.59292096
68	0x3f05a552	0.52205384
69	0xbe498424	-0.19679314
70	0xbda87ed9	-0.08227319
71	0xbe6b84cf	-0.22999881
72	0x3f06401e	0.52441585
73	0xbf0707e1	-0.527464
74	0xbef00df9	-0.4688566
75	0xbebbc476	-0.36673325
76	0x3eef86eb	0.46782622
77	0xbca0671f	-0.019580422
78	0x3d880208	0.066410124
79	0x3c48eadb	0.012263025
80	0x3d727baa	0.059199966
81	0xbee221d1	-0.44166425
82	0x3ef31644	0.47477925
83	0x3f025365	0.509085
84	0xbf116607	-0.56796306
85	0xbe9725ff	-0.29521176
86	0xbebbad7c	-0.36655796
87	0x3ea14ea8	0.31505322
88	0x3de881a8	0.11352855
89	0x3e531033	0.20611648
90	0xbf0c468e	-0.5479516
91	0x3f1f8adb	0.6232125
92	0x3eb79fff	0.35864255
93	0xbf0bfa0c	-0.54678416
94	0x3ecba846	0.3977682
95	0xbf0d1570	-0.55110836
96	0x3b8bed43	0.004270227
97	0xbdd39ca1	-0.10332609
98	0x3d810f32	0.063017264
99	0xbf197f03	-0.5995943
100	0x3f0c6537	0.5484194
101	0x3f0d9bcd	0.5531586
102	0x3f023e24	0.5087607
103	0x3ee19a31	0.4406295
104	0xbed37fc0	-0.41308403
105	0xbeb82cc2	-0.35971648
106	0xbe19035b	-0.14942686
107	0xbea64c7c	-0.32480228
108	0x3eea7cc8	0.45798326
109	0x3ef6eeec	0.48229158
110	0xbed2e0c6	-0.41187114
111	0x3ee0679e	0.43829054
112	0xbeabc1fb	-0.33546433
113	0xbeffef47	-0.49987242
114	0xbe6306f1	-0.22170617
115	0xbc8c0686	-0.017092954
116	0x3e8f123f	0.27943608
117	0x3edaac32	0.427095
118	0xbebb865d	-0.3662595
119	0x3f10917d	0.56472
120	0xbebd406b	-0.3696321
121	0xbedd8835	-0.4326798
122	0xbef0d03c	-0.4703387
123	0x3d432030	0.04763812
124	0x3e91e58d	0.28495446
125	0x3e1c72ce	0.1527817
126	0xbf14b26c	-0.5808475
127	0x3ed9a4cf	0.4250855
128	0x3f0607af	0.52355474
129	0x3eea0d5b	0.45713314
130	0xbf0cacc0	-0.54951096
131	0xbee4e679	-0.44707087
132	0x3be3425d	0.0069354014
133	0x3e1f8bbb	0.15580647
134	0x3d3c6b7f	0.046000954
135	0xbef082a9	-0.46974686
136	0xbeeb2446	-0.45926112
137	0x3e8cea73	0.2752262
138	0x3ece5e79	0.40306452
139	0xbea08848	-0.31353974
140	0x3ed498ad	0.41522732
141	0x3d659b68	0.05605641
142	0x3d3a9a98	0.04555759
143	0xbd3c886e	-0.046028547
144	0xbe4c7270	-0.1996553
145	0xbe8282ac	-0.2549032
146	0xbedfd2c6	-0.43715495
147	0xbee95d2d	-0.455789
148	0xbeeb1852	-0.45916992
149	0x3f0fb6c6	0.56138265
150	0xbd61d83b	-0.055137854
151	0x3eb8c634	0.36088717
152	0x3e43b04e	0.19110224
153	0x3ecee440	0.40408516
154	0xbedd5641	-0.4322987
155	0x3eefffa8	0.46874738
156	0xbee28a3f	-0.44246098
157	0x3eb6d209	0.3570712
158	0xbed03778	-0.4066732
159	0x3d5ee5e2	0.054418452
160	0x3da18efb	0.078885995
161	0xbd829e1c	-0.06377813
162	0x3f2834f5	0.65705806
163	0x3ef7d457	0.4840419
164	0x3d231ac6	0.039820455
165	0x3e8f79c9	0.28022602
166	0xbe999f7f	-0.30004498
167	0xbf099d53	-0.5375568
168	0xbe7b4c31	-0.24540783
169	0xbe23951a	-0.15974846
170	0xbd5247bf	-0.051337954
171	0xbf137e9a	-0.57615054
172	0x3efed70e	0.4977345
173	0x3e903bb0	0.28170538
174	0xbee87313	-0.45400295
175	0x3ebac0f3	0.36475334
176	0xbf0df310	-0.5544901
177	0x3de97c17	0.114006214
178	0x3e9818ba	0.29706365
179	0xbeaa96e8	-0.33318257

conv1.bias f4 [20]
0	0xbd58a877	-0.052895036
1	0x3ca8c974	0.020603873
2	0x3d4982a8	0.04919687
3	0xbdd997ce	-0.106246576
4	0xbc3b1291	-0.011418001
5	0xbcbad10c	-0.02280476
6	0x3dc34369	0.09534342
7	0xbc1e30e5	-0.009655212
8	0xbbcf8ff1	-0.006334298
9	0xbbd4acf8	-0.006490346
10	0xbdcc0b80	-0.09963131
11	0x3ba07213	0.004896411
12	0xbbaebca2	-0.0053325454
13	0xbc452fca	-0.01203532
14	0x3be05458	0.006845992
15	0xbb425d3d	-0.0029657625
16	0xbd9a5f99	-0.07537765
17	0xbc72341c	-0.014782932
18	0x3e4e44f6	0.20143494
19	0xbcc9a9de	-0.024617132

fc1.weight f4 [5, 1440]
0	0xbed5625e	-0.4167661
1	0xbe6ef83c	-0.23336881
2	0xbe8c3ce6	-0.27390212
3	0xbe930660	-0.287158
4	0xbe02e042	-0.1278086
5	0x3ca44be0	0.020055711
6	0x3dc13e9d	0.09435771
7	0x3e075858	0.13217294
8	0x3e8e47e8	0.27789235
9	0xbe65e2b9	-0.22449769
10	0xbe8288f8	-0.25495124
11	0xbe8002db	-0.2500218
12	0xbe518490	-0.20460725
13	0x3d0ea24c	0.034822747
14	0x3da6133d	0.08109138
15	0x3de12220	0.10992837
16	0x3dba74dd	0.09104321
17	0x3e4080eb	0.18799178
18	0xbe2f513d	-0.17120834
19	0xbe39e249	-0.18152727
20	0xbe618396	-0.22022852
21	0xbe3bbb14	-0.18333083
22	0x3d3fb649	0.0468047
23	0x3d8dcc79	0.06923766
24	0x3dfd381c	0.12364218
25	0x3e11c21b	0.14234202
26	0x3dc824e7	0.097726636
27	0x3c934c2d	0.01798066
28	0xbcbc0830	-0.022953123
29	0x3e01b3ce	0.12666246
30	0x3d97858d	0.0739852
31	0x3de49af1	0.11162365
32	0x3cf41891	0.02979687
33	0x3dca7564	0.09885672
34	0x3e0d3f88	0.13793766
35	0x3dd9682e	0.10615574
36	0xbd856eaa	-0.06515248
37	0xbdc30765	-0.09522895
38	0x3df33130	0.11874616
39	0x3d99f502	0.07517435
40	0x3d90a2fa	0.07062335
41	0x3c2d9a22	0.01059583
42	0x3c429da8	0.0118784085
43	0x3ccd3944	0.02505172
44	0xbd179451	-0.03700668
45	0x3ca70295	0.020386973
46	0x3d886a0d	0.066608526
47	0x3da49d37	0.08037799
48	0x3ce19290	0.027535707
49	0x3db1f556	0.08689372
50	0x3d264b82	0.040599354
51	0x3cfe32fc	0.03103017
52	0xbcf2acaa	-0.029623348
53	0x3d06d64f	0.032919224
54	0xbdb7801e	-0.08959983
55	0x3b585a1f	0.00330127
56	0xbc846450	-0.016161114
57	0x3c40fc36	0.011778882
58	0x3d6f4c11	0.058422152
59	0x3d5b609f	0.053558942
60	0x3cab06f1	0.020877333
61	0x3b5d52ea	0.0033771344
62	0xbc631595	-0.013860126
63	0x3c33cc80	0.01097405
64	0x3ca20e69	0.019782262
65	0x3c5174d7	0.012784204
66	0xbd0c1f2c	-0.034209415
67	0x3cceeadf	0.02525848
68	0x3c55ab97	0.0130413985
69	0x3d3c5271	0.04597706
70	0x3d91dfaf	0.071227424
71	0x3c9b3658	0.018946812
72	0xbe51add1	-0.20476462
73	0xbe67deff	-0.2264366
74	0xbe5a8438	-0.213395
75	0xbe201cef	-0.15636037
76	0xbd9979ab	-0.074939094
77	0x3da20411	0.07910932
78	0x3db2ed6a	0.087366894
79	0x3dcb6b04	0.09932521
80	0x3df78ea8	0.120877564
81	0xbdebe9ac	-0.11519179
82	0xbe09406f	-0.13403486
83	0xbe297f73	-0.16552524
84	0xbd9a92fe	-0.07547568
85	0x3cb16e76	0.021659117
86	0x3d69a9be	0.057046644
87	0x3d8b196a	0.06791957
88	0x3db6511a	0.08902188
89	0x3e2069cf	0.15665363
90	0xbda73254	-0.08163896
91	0xbde5e380	-0.11225033
92	0xbda7f38b	-0.08200749
93	0xbc18fc01	-0.009337426
94	0x3d32c10c	0.043641135
95	0x3ca25150	0.019814163
96	0x3db258c3	0.08708336
97	0x3dd01e3a	0.10162015
98	0x3d29cc54	0.041454628
99	0xbc3d2d4c	-0.011546444
100	0x3b792d17	0.003802126
101	0x3d3879f0	0.045038164
102	0x3d16300f	0.036666926
103	0x3cb51d8f	0.022108821
104	0x3c5b6cb6	0.013392618
105	0x3d3442e3	0.0440091
106	0x3d7e05e0	0.06201732
107	0x3d2ae1a6	0.0417191
108	0xbd9bb804	-0.076034576
109	0x3ca49d87	0.020094646
110	0x3c99dc0e	0.018781688
111	0x3cf759d0	0.030194193
112	0x3c98c364	0.018647857
113	0x3d0fc4cb	0.035099786
114	0x3cd3433f	0.025788901
115	0x3c731d4e	0.01483853
116	0xbc7fb538	-0.015607171
117	0x3b3c7876	0.0028758324
118	0x3d2bebf0	0.041973054
119	0x3d3515ef	0.04421037
120	0x3ca065eb	0.019579848
121	0x3ca1ec56	0.019766014
122	0x3c0943b8	0.008377962
123	0x3cc04589	0.023470657
124	0xbc803477	-0.015650017
125	0xbc1a5be8	-0.009421326
126	0x3b130953	0.0022435978
127	0x3c117409	0.008877763
128	0x3cde1eea	0.02711435
129	0x3d101997	0.035180654
130	0xbba86a4a	-0.005139624
131	0x3d0fb907	0.035088565
132	0xbb0cede8	-0.0021504108
133	0x3cffdb65	0.031232545
134	0xbc5e0044	-0.013549868
135	0x3c872692	0.016497884
136	0x3b9d05e1	0.0047919606
137	0x3d178da4	0.037000313
138	0x3cebf46b	0.028803071
139	0x3bb45f04	0.005504491
140	0xbc6fc9d5	-0.014635523
141	0x3d572b49	0.052531514
142	0xbc16ea63	-0.009211156
143	0x3ce0835a	0.027406383
144	0xbe5a3730	-0.21310115
145	0xbe806625	-0.2507793
146	0xbe1a95cf	-0.1509621
147	0xbdd6e624	-0.104931146
148	0x3c21a7ed	0.009866697
149	0x3d0a3b41	0.033747915
150	0x3dbdb397	0.0926277
151	0x3dc74fa8	0.0973199
152	0x3e0d085d	0.13772722
153	0xbd87fb73	-0.06639757
154	0xbd00c3c4	-0.031436697
155	0xbe0decc2	-0.13859847
156	0xbdbd91f2	-0.092563525
157	0x3c4ef8fa	0.012632603
158	0x3aff390a	0.0019471955
159	0x3daa6e62	0.08321835
160	0x3d85e68c	0.06538114
161	0x3d9359ff	0.071949
162	0x3d60059d	0.054692853
163	0x3c18a3b5	0.009316375
164	0xbcf31eb3	-0.029677724
165	0x3c72711c	0.014797475
166	0x3d0b2ba1	0.033977155
167	0x3c80bf08	0.01571609
168	0x3c297df6	0.010344973
169	0x3d63b391	0.05559117
170	0x3ccf6f7d	0.025321716
171	0x386fc5dc	5.716631e-05
172	0xbcb6a640	-0.022296071
173	0x3d3c6a5d	0.045999873
174	0x3d1872fa	0.037219025
175	0xbb7a329b	-0.0038177136
176	0x3cd41ffe	0.025894161
177	0xbceb5bf8	-0.028730378
178	0x3bf9fe84	0.0076292176
179	0x3c11b3d8	0.008892976
180	0xbc042b7f	-0.008067011
181	0xbb85ffa1	-0.004089311
182	0x3bb7db45	0.0056108558
183	0x3d1185a3	0.035527837
184	0x3d012ec7	0.03153875
185	0xbb9780a4	-0.0046234895
186	0xbc0484b7	-0.008088282
187	0xbcb6a3af	-0.022294847
188	0x3bba1401	0.005678654
189	0xbcf370e7	-0.029716922
190	0x3cc5b863	0.024135774
191	0xbc464190	-0.012100592
192	0x3a656942	0.00087513414
193	0x3c82acd8	0.015951559
194	0x3c0ccac1	0.008593262
195	0x3c39989b	0.011327888
196	0xbcea2fcb	-0.028587243
197	0x3c597b37	0.013274006
198	0x3bcdc0d1	0.006279089
199	0x3ccaeebe	0.024772044
200	0x3caacb56	0.020848911
201	0x3b2ba36e	0.002618994
202	0x3cf08dd7	0.02936451
203	0x3c40f2f1	0.011776672
204	0xbbadc292	-0.0053027356
205	0x3b5d8e1f	0.0033806635
206	0x3ca83bdb	0.020536354
207	0x3cfdcb9e	0.030980881
208	0xbc00fe87	-0.007873184
209	0x3cca8812	0.024723087
210	0xba2d59de	-0.00066128175
211	0xbcf0d600	-0.029398918
212	0xbc80cced	-0.015722716
213	0x3bb6b405	0.005575659
214	0x3c9a4b7f	0.018834827
215	0xbc480139	-0.012207323
216	0xbe989046	-0.29797572
217	0xbe91a5e7	-0.28446886
218	0xbe71847a	-0.23585692
219	0xbe88e090	-0.26733828
220	0xbe20ea45	-0.15714367
221	0x3de4a792	0.11164774
222	0x3dcdcfdf	0.10049414
223	0x3db38786	0.087660834
224	0x3e16f074	0.14740163
225	0xbe360b85	-0.17777832
226	0xbe6e2776	-0.2325724
227	0xbe70b7b5	-0.23507579
228	0xbe8332e8	-0.25624776
229	0xbbf7f197	-0.0075666416
230	0x3ddab803	0.10679629
231	0x3dc68c65	0.09694747
232	0x3e45e352	0.19324997
233	0x3e3dd167	0.18536912
234	0xbe43043a	-0.19044581
235	0xbdf4a879	-0.11946196
236	0xbe13f44c	-0.1444866
237	0xbd3c81f9	-0.04602239
238	0x3d9a8249	0.07544381
239	0x3d9aba5c	0.075550765
240	0x3dec7935	0.11546556
241	0x3e282428	0.16420043
242	0x3e03867d	0.12844272
243	0x3c300cba	0.010745222
244	0xbc7822a7	-0.0151449805
245	0x3de83508	0.1133824
246	0x3d86d26f	0.06583106
247	0x3d3da7f8	0.046302766
248	0x3d3013e4	0.04298772
249	0x3d40b464	0.047047034
250	0x3debe3a7	0.115180306
251	0x3db9d50a	0.09073837
252	0xbdf82ac2	-0.121175304
253	0x3a9ad96f	0.0011814068
254	0x3da0c7a6	0.0785058
255	0x3db86f5a	0.090056136

fc1.bias f4 [5]
0	0x38916987	6.933795e-05
1	0x3bd52343	0.0065044477
2	0xbba532f3	-0.005041474
3	0xbcd8d206	-0.026467334
4	0xbc7528dc	-0.014963355

fc2.weight f4 [2, 5]
0	0x3e63b205	0.22235878
1	0xbf1fa770	-0.62364864
2	0xbe879148	-0.26478028
3	0x3ecb287c	0.39679325
4	0xbe94ff91	-0.29101232
5	0xbf57337f	-0.8406295
6	0x3e5ff3b1	0.21870305
7	0x3f336e7a	0.7009045
8	0xbef7f7a5	-0.48431125
9	0x3f0c2297	0.5474028

fc2.bias f4 [2]
0	0x3e323438	0.17402732
1	0xbc6b888a	-0.014375815
