5_train_and_test_model/4_2_Ablation Analysis/CNN-3D/model_3D/sb10/fold3.ckpt (torch, 31751 bytes, 6 tensors)

conv1.weight f4 [20, 1, 1, 3, 3]
000000 55 af 12 bf 92 95 18 bd ac fd 32 be 9e 40 07 3f
       -0.57298785 -0.037252016 -0.1747958 0.52832973
000010 74 0c 80 3e c0 d4 29 3e 3d 60 cd 3e dc 79 b6 3e
       0.250095 0.16585064 0.40112486 0.35639846
000020 1a d9 09 bf e7 fa 06 bf 26 14 e1 3e 97 15 df 3e
       -0.53846896 -0.52726597 0.43960685 0.4357116
000030 34 9d 17 3e 78 48 f2 be d9 f1 8b 3e bb 40 52 3e
       0.14806062 -0.47320914 0.27332953 0.20532505
000040 43 4a 86 be 97 b0 97 3e cc 8e 0d bf 27 f4 cf 3e
       -0.26228532 0.29626915 -0.55296016 0.4061596
000050 a5 f7 0b bf 3b a5 f7 be e1 6d 10 bf e9 0a e9 3e
       -0.5467475 -0.48368248 -0.5641766 0.45516136
000060 e6 b9 0b be fb 98 fa 3e c1 9c c6 3e f3 d3 08 3f
       -0.13645133 0.4894484 0.3879147 0.5344841
000070 e3 f0 17 3f 5c cf e9 bd 34 2a 5d be 06 cd 9f be
       0.5935194 -0.11416504 -0.2159813 -0.31211108
000080 7a 2f eb be c2 e4 36 3e 45 8e 90 3e fa e1 ea bd
       -0.4593466 0.17860702 0.28233543 -0.11468883
000090 5b 21 c3 3e 50 0d 12 3f 32 8a 7a be ea d0 46 be
       0.38111386 0.57051563 -0.2446678 -0.19415632
0000a0 5f 2f b5 3e a9 39 80 3e 27 8e ce 3d b3 26 21 3e
       0.35387704 0.2504399 0.10085707 0.15737419
0000b0 0e b0 16 bf e7 07 ef 3c d2 c3 0a bf 5c 29 f1 3e
       -0.5886239 0.029178573 -0.5420505 0.47101867
0000c0 4c 33 d2 bd 29 f1 cb 3e 20 69 94 be 56 bc a8 be
       -0.1026369 0.39832428 -0.28986454 -0.3295619
0000d0 12 c2 9e be c3 56 b3 3e 1b 29 05 bf f2 22 7d be
       -0.3100744 0.3502713 -0.52015847 -0.24720362
0000e0 0b 52 65 be 6f a4 58 3e ba d8 0f bf 74 9b 8b 3c
       -0.22394578 0.21156476 -0.56190073 0.0170419
0000f0 40 75 b6 3e d2 18 7b bd 0d 5e 18 3f 6b fa 1e 3f
       0.3563633 -0.061302967 0.5951851 0.6210086
000100 0c 19 f4 3e af 8c da be 74 f2 1e 3e 16 37 dc be
       0.4767536 -0.42685458 0.15522176 -0.43010777
000110 e0 c2 2a be d8 a3 b9 3e 47 d9 01 bf ca 6f 0b 3f
       -0.16675901 0.36257815 -0.50722164 0.5446745
000120 8a 40 27 3f 68 b1 f0 3e 6e ec 5a 3e 4c f7 a5 3d
       0.65332854 0.4701035 0.21379253 0.08103809
000130 02 02 ae be 5e 8f de be 12 6b 4e be 9b d1 d0 be
       -0.33985907 -0.43468755 -0.20158032 -0.40784916
000140 62 ff 91 3e 9c 5d 2e bf 0c 63 21 bf 0f 10 e1 bc
       0.28515154 -0.68111587 -0.6304176 -0.027473478
000150 14 79 bd be 70 f9 21 be c0 b0 04 3f 93 49 af 3e
       -0.37006438 -0.15817809 0.518322 0.3423582
000160 6c 09 1c be ff 12 a5 3e 6f b8 1d be 4c 2c 0b be
       -0.15237969 0.32241055 -0.15402387 -0.13591117
000170 2a 8c ea 3e 46 c9 e9 be b4 8a 1b bf 98 43 64 be
       0.45810062 -0.45661372 -0.6075852 -0.2229141
000180 31 69 c2 3e b4 2c 81 3d 6e 97 ab be ef 70 55 3c
       0.3797088 0.063073546 -0.3351397 0.013027414
000190 ff b0 f9 3e 91 3e 4b 3d 24 bb 79 3e 02 f8 b8 3c
       0.4876785 0.049620215 0.24387795 0.022579197
0001a0 75 f8 c2 be e1 d0 35 3e b8 7d 9a be f2 fd 4f 3e
       -0.38080183 0.17755462 -0.3017404 0.20311716
0001b0 39 cb 81 be 28 db ca 3e 28 4a 90 bd f2 f5 2f bd
       -0.2535036 0.39620328 -0.07045394 -0.04295916
0001c0 8f 4b e9 be 51 5e a5 bd 79 97 db 3e f2 0d c1 be
       -0.4556546 -0.0807463 0.42889002 -0.37705952
0001d0 9c 7d 0f 3f 32 5a 1b 3f f4 48 53 be a7 fa 8e bc
       0.5605104 0.606845 -0.20633298 -0.017453505
0001e0 72 5f 75 3e 55 55 ca be 34 6d de be 56 eb 3d 3e
       0.23962191 -0.39518228 -0.4344269 0.18546805
0001f0 1a b1 2a be 6d 01 7a bd fe 6a 8c 3e 4b 8c dd 3e
       -0.16669121 -0.061036516 0.2742538 0.43271098
000200 ed c5 46 3d b2 7b 5d be e9 80 d0 3e d3 d8 a9 bd
       0.0485286 -0.21629217 0.4072335 -0.08293309
000210 f3 b3 80 3e fe 6a 19 bf 0f 60 b7 bc 15 13 b0 be
       0.2513729 -0.5992888 -0.022384671 -0.34389558
000220 4f 38 da be 68 c1 7c be 1d 0f 13 be 31 24 01 be
       -0.42621085 -0.24683154 -0.14361234 -0.12611462
000230 fd 5e f2 bd 47 90 46 be f9 40 4c 3a 42 da 08 3f
       -0.11834524 -0.19390975 0.0007791664 0.53458035
000240 6d 65 03 bf 01 58 08 3d a3 98 7f be cd 58 3a bd
       -0.5132664 0.033287052 -0.2496057 -0.045494843
000250 b6 49 20 3f 7e 0a 95 3e d6 ab a5 3c b7 e9 05 3e
       0.62612474 0.29109567 0.02022354 0.13077436
000260 0a 75 06 bf 23 08 00 bf f2 99 01 be 2b 1f 84 3d
       -0.5252234 -0.50012416 -0.12656382 0.06451257
000270 6d 1e e1 3e b8 2f f7 be 21 3a 2e 3e c4 08 df 3e
       0.43968526 -0.48278594 0.17014362 0.43561375
000280 f6 66 cc be b2 a8 c3 3e c4 be 1d 3f 9d 55 8a bc
       -0.39922303 0.38214642 0.6161921 -0.016886527
000290 12 f3 a7 be 38 8f 25 3e 79 80 a3 3c 12 55 df be
       -0.32802635 0.16167915 0.019958721 -0.4361959
0002a0 5d b1 37 bf b6 f2 93 3e 3e 39 bf 3e df 26 01 3f
       -0.7175501 0.2889611 0.3734836 0.5044994
0002b0 1a 4e ea 3e 72 d0 62 3e f1 52 00 bd b7 eb e4 3e
       0.45762712 0.22149828 -0.0313291 0.44711086
0002c0 28 6b d2 be 36 6d 4c be 11 70 11 3e 6c ba c0 be
       -0.4109738 -0.19963536 0.14202906 -0.3764223

conv1.bias f4 [20]
000000 3f fa 86 bd f2 6d 01 be c4 16 17 be fb 22 95 bd
       -0.065906994 -0.12639597 -0.14754778 -0.072820626
000010 0f c3 f3 bd 67 9a 25 bd c1 a6 d8 bd 5e 76 00 be
       -0.11902439 -0.040430453 -0.10578681 -0.12545153
000020 33 26 85 bd b8 26 0c be da c9 53 be b4 e8 62 3e
       -0.065014265 -0.13686645 -0.20682469 0.22159082
000030 69 58 3c 3e d6 15 7e 3d 4f 60 54 3b e3 30 2f 3e
       0.18393101 0.062032543 0.0032406037 0.17108493
000040 8a 27 bf bc 4f e3 22 bd cc 59 f7 bd 39 83 d4 bd
       -0.023334283 -0.03976756 -0.12077674 -0.10376591

fc1.weight f4 [5, 1440]
000000 8c c0 c9 bd 3f d4 69 bd 5c f6 b7 bd bd 85 f4 3c
       -0.098511785 -0.05708718 -0.08982536 0.029848928
000010 13 8e e7 3c 7d b2 7a 3c 8d 0b 3e 3d 6c f6 ab 3d
       0.028265988 0.015301344 0.046397734 0.083966106
000020 31 67 8b 3d 38 c5 d1 bc 5b e6 04 be 3d 5b 71 bd
       0.068067916 -0.025606737 -0.12978499 -0.058924902
000030 c8 6e 62 bd b0 4e 1d 3c ca 9b 60 bd b9 8e 7d 3c
       -0.05528143 0.00960128 -0.054836072 0.015475922
000040 9a 9b c6 3d c9 df 52 3c b9 40 22 3d 74 4b 29 bd
       0.096976474 0.012870737 0.039612506 -0.041331723
000050 98 d8 73 3b e5 17 9a bc 3c 28 54 3b e9 d1 58 3c
       0.0037207957 -0.018810222 0.0032372614 0.01323364
000060 be 43 86 bc 7e ca 92 3d ff f4 67 bb 1e 57 dc bb
       -0.016389724 0.071675286 -0.0035393832 -0.0067242524
000070 4c f2 a3 bd de 19 32 3d b0 5a 3a 3d 67 f1 40 3d
       -0.08005199 0.0434817 0.045496643 0.04710522
000080 7a d7 5a 3c 6f 8b 80 bd 8e 19 8d bc 2f 6d 93 3d
       0.013357038 -0.06276595 -0.0172241 0.071985595
000090 94 20 4b be b1 25 bc bd 29 6b 29 3d 2a cd fe 3c
       -0.19836646 -0.091868766 0.04136196 0.03110369
0000a0 b7 35 23 3d af 32 da bb 06 67 19 bd dc 34 c9 bb
       0.03984615 -0.006658874 -0.037451766 -0.0061403345
0000b0 45 21 f6 3d c3 14 1d be 1a 53 60 bd e5 14 23 3c
       0.120180644 -0.15339951 -0.05476675 0.009953712
0000c0 93 ac 01 3d ee 24 a5 3c a1 b7 01 3d e3 7a 03 bc
       0.03165872 0.020159211 0.031669263 -0.008024904
0000d0 79 49 8a bc c0 29 8f 3c 42 1a 77 be 5e 34 c9 bc
       -0.016880738 0.017475963 -0.2413111 -0.024561103
0000e0 1f c5 46 bd 7a 25 43 3b a6 a4 a1 bd ea 5c 0e 3d
       -0.048527833 0.0029776976 -0.07892732 0.03475658
0000f0 d1 07 a5 bd 69 8d 83 bd 7e 4b c1 bc 58 2f 4f bc
       -0.080581315 -0.06423456 -0.023595568 -0.012645565
000100 79 ed b1 3c 61 d7 de bc 73 06 ea bd 49 a6 d1 bd
       0.021719681 -0.02720231 -0.11427011 -0.102367945
000110 3c 58 fa bd 47 a2 57 bd 32 28 0b be 57 dd 6f bd
       -0.122238606 -0.052644994 -0.13589552 -0.058560695
000120 f1 20 bd bd 22 f8 0f 3b b0 80 ef 3d 37 70 f3 3d
       -0.09234799 0.0021967967 0.11694467 0.11886638
000130 09 ed 38 3e bd fe 2a 3e 4a 28 33 3e af af 7c 3e
       0.18059172 0.16698737 0.17495838 0.24676393
000140 44 38 2e 3e ab f7 13 be c0 f4 d6 bd 17 8e 0c bd
       0.17013651 -0.14449947 -0.10495901 -0.034315195
000150 0a 11 6d 3d 8c 96 80 3d 5d 60 62 3e 14 7e 2d 3e
       0.057877578 0.062787145 0.22107072 0.16942626
000160 8b fe 28 3e d5 15 be 3d c9 31 13 bd c9 5a e5 bd
       0.1650335 0.09281508 -0.03593615 -0.111989565
000170 5c 70 31 bd 6c 19 12 bd 1b 19 68 3d 08 b4 ac 3d
       -0.043320045 -0.035668775 0.056664567 0.08432776
000180 45 61 05 3e 39 9c ce 3d 34 25 e3 3d 1a b5 2c 3c
       0.13025387 0.10088391 0.1109108 0.010541225
000190 69 57 76 bd 67 bf 06 3d 35 66 23 3d 84 b2 03 bb
       -0.060141955 0.03289738 0.039892394 -0.0020095417
0001a0 48 5b 03 3c 3e d0 0b 3e ef 5f 6a 3d e9 fa 21 3e
       0.008017369 0.13653657 0.057220396 0.15818371
0001b0 d7 96 24 bd 46 d1 a9 bc 4b 97 6e 3d 5b df 5f 3d
       -0.040182915 -0.020729672 0.058249753 0.054656368
0001c0 22 44 3f bc cb 35 21 bd 0f 7d 43 3d b5 7c b9 3c
       -0.011673959 -0.03935794 0.047726687 0.022642473
0001d0 2f a3 94 3e 25 dc a6 bd 98 c1 bb bc 0b 37 30 3d
       0.2903075 -0.08147458 -0.022919461 0.043021243
0001e0 96 a6 13 3d 97 79 5c 3d d1 47 83 bc 13 bd d3 3c
       0.03604754 0.053826895 -0.016025456 0.025846994
0001f0 34 48 64 3c d4 99 0e bd cc 11 af bd d7 02 83 3c
       0.01393323 -0.03481467 -0.08548316 0.015992565
000200 bf 5d 55 bc e1 c1 8b bb bb b4 cb bd 5e 7e 95 bd
       -0.013022839 -0.0042650555 -0.09946581 -0.07299493
000210 30 68 8d bd 59 08 3e bc 9c 04 e2 3c 44 f7 15 3d
       -0.06904638 -0.01159867 0.027590089 0.036612764
000220 d8 96 60 3d 2a 3e 88 bd 29 4d e3 bd bd b9 3c be
       0.054831356 -0.06652482 -0.110987015 -0.18430229
000230 65 d4 0b be 28 77 37 be 5e b5 d6 bd a8 2d 74 bd
       -0.13655241 -0.17916548 -0.10483812 -0.059613854
000240 66 1f 19 be d2 e9 a4 bd d6 b3 e1 3c 34 5a c5 3d
       -0.14953384 -0.0805241 0.027551573 0.096363455
000250 6a c1 60 3d b4 9a e8 3d 22 fb b9 3d 16 8c 35 3e
       0.054871954 0.11357632 0.09081103 0.1772922
000260 79 ad 6b 3d 4c a0 20 bd 87 ba 4b bd 2a b4 8d bd
       0.057538483 -0.03921537 -0.049738433 -0.06919129
000270 f9 ef c9 3c 23 b8 9d 3c 8f 98 4c 3d 71 a3 7a 3d
       0.02465056 0.019252842 0.04995018 0.061191026
000280 b2 dc a4 3d 78 a1 9f 3d 41 6e a6 bd 61 60 3e bc
       0.08049907 0.077944696 -0.08126498 -0.011619658
000290 d4 62 f9 bc ea f5 f6 ba 67 ba 5f 3c fc 09 f6 bc
       -0.030442633 -0.0018841599 0.013655282 -0.030034058
0002a0 29 5b 53 3d a9 a0 3a 3d 92 a8 e4 3d 56 cd 9f bd
       0.05160061 0.045563374 0.11164965 -0.078028366
0002b0 44 4d df 3b 8c 26 dc 3c c9 66 80 3c c2 d2 b4 3c
       0.0068146307 0.02687385 0.015674012 0.022073153
0002c0 a1 c7 8e 3c 17 71 f6 3c 20 13 1e 3d 12 b9 a7 3d
       0.017429175 0.030083222 0.038592458 0.08189596
0002d0 a1 d5 28 bc 18 38 81 bc 8c 6b 73 3d da f2 8c 3d
       -0.010304839 -0.015773818 0.059428737 0.06882258
0002e0 17 43 3e 3d 59 17 a3 3c b2 9f 3e 3c a5 eb 0e 3d
       0.0464507 0.019908594 0.011634754 0.034892697
0002f0 51 3e a2 3d f9 f5 ea bd 33 22 a8 bd a0 78 02 3d
       0.07922042 -0.11472697 -0.08209648 0.03185332
000300 5e e3 4f 3d 0d fb 09 3d f9 9b 22 3c 94 a6 00 bd
       0.050753944 0.033686686 0.009924882 -0.03140886
000310 bc 97 ed bb e8 48 8c bd 59 96 9a bd 78 ea 40 bd
       -0.007250754 -0.06849843 -0.07548208 -0.047098607
000320 ea 34 1a bc f2 77 38 bd f5 67 eb bd ed 31 a4 3c
       -0.00941203 -0.045036264 -0.114944376 0.020043338
000330 3e 01 14 be 58 30 9c bc 7e 6d bd 3b e1 17 82 3b
       -0.14453599 -0.01906602 0.0057808748 0.0039701317
000340 bc 7f 0d 3c c7 d2 82 bd 9e e8 bb bd eb 7f 1e be
       0.008636411 -0.06387859 -0.091752276 -0.15478484
000350 bf 46 2d b8 5f 97 08 be ef 8d 55 bd 7d c1 f4 bb
       -4.13123e-05 -0.13338993 -0.05213731 -0.0074693547
000360 7a a4 37 be cc 22 db bd 79 e6 cf 3d 81 34 f2 3d
       -0.17933837 -0.10699996 0.10151381 0.118264206
000370 c9 0b 6b 3d 34 2b 5a 3e 20 82 d3 3d 1b f4 81 3e
       0.057384286 0.21305543 0.10327554 0.2538155
000380 70 4a c2 3d ee 68 fb bd 6e 27 0f be e9 76 74 bd
       0.09486854 -0.12275873 -0.13979885 -0.059683714
000390 4b 54 4b bd d9 26 b2 3d 99 ae db 3d 59 9a 07 3e
       -0.049640935 0.08698816 0.10726661 0.13242473
0003a0 75 47 be 3d 23 06 d5 3d ed b2 af bd 2d fc 54 bd
       0.09290973 0.10401561 -0.08579049 -0.051998306
0003b0 91 17 81 bd 99 ce 95 3b 76 fb 02 3d 7f c2 ce bb
       -0.06303323 0.0045717475 0.031978093 -0.006309807
0003c0 d6 14 87 3d e6 79 82 3d f3 89 f9 3c 7a 6d b5 bc
       0.06595771 0.063709065 0.030461287 -0.022146929
0003d0 49 66 2c bd 89 ad cb bc d1 d5 cd 3c b6 ca 73 3c
       -0.042089734 -0.024863021 0.02512637 0.014879873
0003e0 3e 4e 05 3c 42 48 29 3c 9b 0f a3 3d 04 46 9f 3c
       0.00813633 0.010332169 0.07961961 0.019442566
0003f0 1f 6d 9f bd 8d b2 c5 bc ac 1e 6f 3d 3d 0f cc 3c
       -0.07784485 -0.024132991 0.05837886 0.02490961

fc1.bias f4 [5]
000000 5d 14 f4 bb 42 ed d7 3a cc 14 76 bc 0c ad 3e 3c
       -0.0074487166 0.0016473907 -0.015019607 0.011637937
000010 7a d0 b5 3c
       0.022194136

fc2.weight f4 [2, 5]
000000 06 60 4d 3e 51 53 7c bc dd 03 11 bf 84 4e 20 bf
       0.20056161 -0.015400724 -0.5664652 -0.62619805
000010 82 cd 45 3e dd 28 fb be 84 01 2a 3f fb 1f 8f bc
       0.19316676 -0.49054614 0.6640856 -0.017471304
000020 8c fe 27 bd dc 25 19 bf
       -0.04101424 -0.59823394

fc2.bias f4 [2]
000000 d0 ba 27 be d6 b7 e2 3d
       -0.16379857 0.1107022
