5_train_and_test_model/4_2_Ablation Analysis/CNN-3D/model_3D/sb0/fold2.ckpt (torch, 31751 bytes, 6 tensors)

conv1.weight f4 [20, 1, 1, 3, 3]
0.18493836 0.52293926 0.35138422 -0.033365685 -0.627545 0.707148 -0.30300102 0.07998581
-0.7689922 -0.22449864 -0.5929578 0.18080814 -0.1331669 -0.14517371 -0.17752086 0.27425158
0.60541874 -0.2842135 -0.39673144 0.2819883 0.56804216 0.5835573 -0.36210546 -0.63410366
-0.19610472 0.043152653 0.3400998 0.123784155 -0.819016 -0.042992268 0.23285393 0.63326776
0.4910867 -0.061377745 -0.23845342 0.027457483 -0.377352 -0.70299464 -0.0007335815 -0.22449672
0.30286577 -0.59289795 0.31100494 0.33065397 0.5567594 0.404402 0.45433322 -0.20188342
-0.22893538 -0.17945321 -0.14016242 0.18436392 -0.40120724 0.45285207 -0.1189874 0.20211367
-0.7411791 0.39209014 0.19655214 0.23319091 -0.12868585 0.13664952 0.30073175 -0.2627531
-0.29796734 0.6977285 -0.45579305 -0.47062376 -0.021084482 0.21456572 0.13795392 0.268595
-0.304753 -0.33359566 -0.5187307 0.53502613 0.8035051 -0.045514442 -0.057289872 -0.5387025
0.46196032 0.20494619 0.60933256 0.68726325 0.123900466 -0.60628134 0.32674617 0.11797487
-0.1917049 -0.46681282 0.0065860623 0.14604811 0.28486562 0.4004466 -0.2680322 0.7149927
-0.59137547 -0.6075677 0.26036596 -0.15379025 0.31131873 0.45229077 -0.288029 0.67244565
0.5552258 -0.12141091 -0.64421636 -0.85371923 0.6032333 -0.49750984 -0.57044095 -0.08124323
-0.59871686 -0.18881735 0.14919846 0.103326656 0.59145397 0.16072415 0.28972074 -0.8997943
-0.10645834 0.54128516 0.62728894 0.24915233 -0.44229153 -0.19593892 0.25898007 0.7842195
-0.73845536 0.44888142 -0.40955585 -0.18976553 -0.29748544 -0.04644476 -0.14081797 -0.16134687
-0.40561074 0.15177727 0.34455392 -0.1409197 0.10329637 0.00046390278 0.12794589 0.30326566
0.15733635 0.56953967 0.5708256 -0.6580701 0.079044834 -0.60799515 0.26547807 0.016789317
-0.06849543 0.278382 0.5690142 0.4071937 -0.33651683 -0.80224746 -0.701542 -0.10664711
0.24525607 -0.01377029 -0.44728607 -0.75961244 0.09929242 -0.040971138 0.6289554 0.13954684
0.31666064 0.06936735 0.27769026 0.28478292 -0.47929424 0.38359636 -0.50250095 -0.17298487
0.33453545 -0.04583049 0.29062515 -0.21142286
00000000: 7b60 3d3e 59df 053f a2e8 b33e 75aa 08bd
00000010: caa6 20bf a707 353f f322 9bbe 9acf a33d
00000020: acdc 44bf f9e2 65be 15cc 17bf c525 393e
00000030: e75c 08be 6ba8 14be 07c8 35be b46a 8c3e
00000040: b9fc 1a3f 6f84 91be 6220 cbbe c560 903e
00000050: 366b 113f 0364 153f e365 b9be 9e54 22bf
00000060: adcf 48be d6c0 303d 9021 ae3e 8c82 fd3d
00000070: 08ab 51bf a918 30bd 4371 6e3e d61d 223f
00000080: b76f fb3e 3b67 7bbd 222d 74be 84ee e03c
00000090: 4834 c1be 75f7 33bf d24d 40ba 78e2 65be
000000a0: 3911 9b3e 29c8 17bf 0a3c 9f3e 7a4b a93e
000000b0: c987 0e3f c70d cf3e 5d9e e83e 87ba 4ebe
000000c0: 096e 6abe 95c2 37be bd86 0fbe e5c9 3c3e
000000d0: 096b cdbe 3adc e73e aaaf f3bd e3f6 4e3e
000000e0: eabd 3dbf 0ac0 c83e f744 493e 99c9 6e3e
000000f0: 39c6 03be daed 0b3e 83f9 993e 9387 86be
00000100: 2d8f 98be 569e 323f b55d e9be 99f5 f0be
00000110: 5db9 acbc 1eb7 5b3e cb43 0d3e 4985 893e
00000120: 9608 9cbe 0dcd aabe 89cb 04bf 79f7 083f
00000130: 83b2 4d3f 5a6d 3abd c9a8 6abd 68e8 09bf
00000140: 1086 ec3e 6add 513e 38fd 1b3f 7cf0 2f3f
00000150: 87bf fd3d 4135 1bbf 464b a73e cf9c f13d
00000160: 4a4e 44be 1702 efbe e5cf d73b a38d 153e
00000170: e8d9 913e 5607 cd3e 843b 89be c309 373f
00000180: 6264 17bf 8f89 1bbf b04e 853e 317b 1dbe
00000190: 2b65 9f3e a892 e73e 8978 93be 6625 2c3f
000001a0: 4723 0e3f 48a6 f8bd 5deb 24bf 588d 5abf
000001b0: 7f6d 1a3f 9cb9 febe 6b08 12bf da62 a6bd
000001c0: 8245 19bf 5659 41be 7bc7 183e ed9c d33d
000001d0: 8769 173f df94 243e 4756 943e eb58 66bf
000001e0: d506 dabd aa91 0a3f 0296 203f ca21 7f3e
000001f0: 0974 e2be 36a4 48be 0999 843e 9cc2 483f
00000200: 690b 3dbf c9d3 e53e 4eb1 d1be e551 42be
00000210: 0350 98be dc3c 3ebd 9632 10be 1d38 25be
00000220: 36ac cfbe 806b 1b3e 5f69 b03e 414d 10be
00000230: 0c8d d33d fa37 f339 3f04 033e a345 9b3e
00000240: c81c 213e 5acd 113f a021 123f 4877 28bf
00000250: 42e2 a13d 92a5 1bbf beec 873e c089 893c
00000260: 5547 8cbd 1688 8e3e eaaa 113f b17b d03e
00000270: ef4b acbe 1760 4dbf 4298 33bf cd69 dabd
00000280: 6824 7b3e c89c 61bc ae02 e5be f675 42bf
00000290: d359 cb3d 5ad1 27bd 3903 213f 5ee5 0e3e
000002a0: 5821 a23e 7810 8e3d 6b2d 8e3e 11cf 913e
000002b0: 0e66 f5be be66 c43e e7a3 00bf f222 31be
000002c0: 3b48 ab3e c0b8 3bbd d2cc 943e 3c7f 58be

conv1.bias f4 [20]
-0.02327251 0.040363934 -0.037887927 -0.02693151 0.056837067 0.13154523 0.03747598 0.02195121
-0.09194384 -0.038701005 -0.041201673 -0.12631169 -0.118527636 -0.078628115 -0.14222902 0.24969165
-0.06742165 -0.07925442 -0.06871747 0.0912725
00000000: fea5 bebc a754 253d 5f30 1bbd 789f dcbc
00000010: fccd 683d cbb3 063e 6a80 193d 06d3 b33c
00000020: 0d4d bcbd f284 1ebd 16c3 28bd da57 01be
00000030: 9ebe f2bd c707 a1bd 7ca4 11be 2baf 7f3e
00000040: 5d14 8abd 2450 a2bd bfbb 8cbd 14ed ba3d

fc1.weight f4 [5, 1440]
0.07812499 0.075834565 0.055356603 0.015373043 0.046708696 -0.048112504 -0.021070149 -0.06490514
-0.047882218 0.16260904 0.06373242 0.003077326 -0.003762396 0.015011267 0.013798002 0.0643023
-0.1489997 -0.067930214 0.019328045 0.01304361 0.008962367 -0.010013714 -0.00043117147 0.009528505
0.04616877 0.021381412 -0.16813865 0.0032221617 0.030095704 -0.018527526 -0.006656329 0.015529214
0.025993323 0.038665183 -0.0036563196 -0.1565692 0.02751589 0.009937164 -0.02613536 -0.008302149
0.005462959 0.016365368 0.041754294 -0.027454928 -0.12405353 -0.011352966 0.006216553 -0.015428365
0.015098784 0.011515669 0.0150947375 0.01627016 -0.049543474 -0.11230109 -0.04125806 0.013843526
-0.010025614 0.027252827 0.027467256 0.044491895 -0.0158804 -0.071824215 -0.16139267 0.00918362
0.029760333 0.04362551 0.07775618 0.025976907 0.062193934 0.0007605158 0.0136913825 -0.053471956
0.08555368 0.06395283 0.059357375 0.025060661 0.0050449567 0.009857072 -0.044286307 -0.008824909
-0.011350283 0.04758052 0.04097827 0.016290536 -0.013673891 -0.012569617 0.008996045 -0.026549434
0.14815275 -0.15941288 0.012440534 0.0073206183 0.019620534 -0.003816738 0.009653194 -0.006028978
-0.0042177383 0.0030196079 0.0033402464 0.057811614 0.019920595 0.02314463 -0.011378114 -0.0024463425
0.005860229 0.020579029 0.07492945 -0.09695602 0.00931814 -0.025553163 0.0012112077 -0.0015096462
-0.022225227 -0.006677172 0.049759317 0.04718516 -0.06978721 0.019016966 -0.0024644483 0.0070904735
-0.0041233753 0.024316417 -0.004942076 0.01434726 -0.00070264115 -0.1070726 0.016480787 -0.015854437
0.0077369995 -0.017206358 0.029056828 0.017388625 0.007912466 -0.055578556 0.0048802495 0.03946743
0.018511817 0.038201507 0.04010431 0.023541048 0.024195304 0.012458274 0.004213436 -0.06618141
0.21098772 0.14991665 0.07626094 0.031774085 0.027908238 -0.084364206 -0.055521727 -0.0949935
-0.011784266 0.08624024 0.120676436 0.1353493 0.009416609 -0.03784533 -0.0929655 -0.008188432
-0.17921804 0.026633985 0.11926273 0.077659614 0.080490805 -0.0076244185 -0.021090584 -0.023345696
0.13400489 -0.28948587 0.12776962 -0.0003101701 0.04515584 0.0045884373 -0.030474799 -0.034532834
0.03149015 0.13815716 -0.19720069 0.07024867 0.0075831967 -0.048469283 -0.06517898 -0.01843372
-0.078711435 0.04565698 0.05620164 -0.02153253 -0.042829145 0.023365777 -0.07031734 -0.10556757
-0.026376024 -0.079343565 0.0021709027 0.0027478635 -0.04164503 -0.15966566 0.014572951 0.037925098
-0.057284214 0.052703697 -0.027082153 0.00071701925 0.061854392 -0.031088455 -0.17239556 0.08835751
0.043568157 0.065560795 0.02610994 0.073089 -0.009670865 -0.011925486 0.0680378 -0.116726644
0.09404232 0.035039235 0.07681606 -0.017958835 0.01753148 -0.022142444 -0.088077724 -0.06215852
-0.11375616 0.18065012 -0.0070127407 -5.7604143e-06 0.019292664 -0.02795795 0.0061199935 -0.042701527
-0.02629321 -0.13491668 0.09232018 0.057064056 0.022886433 0.0002564242 -0.014482474 0.05295659
0.12651289 -0.069851965 -0.14910361 0.0024685548 0.013232086 0.0035496373 0.0012577273 0.018467028
0.024889726 0.05982782 0.05637604 -0.0123713305 -0.034158323 -0.01723729 -0.025333995 0.017433567
00000000: ffff 9f3d 274f 9b3d 9bbd 623d 37df 7b3c
00000010: 9e51 3f3d 9e11 45bd 4e9b acbc fcec 84bd
00000020: 2520 44bd fc82 263e 2586 823d f7ac 493b
00000030: 8892 76bb d1f1 753c 0411 623c edb0 833d
00000040: 6193 18be ff1e 8bbd d955 9e3c deb4 553c
00000050: e4d6 123c 9010 24bc db0e e2b9 721d 1c3c
00000060: 771b 3d3d 1228 af3c 8a2c 2cbe e72a 533b
00000070: 448b f63c 0ac7 97bc 561d dabb 3f6e 7e3c
00000080: f3ef d43c 625f 1e3d dd9e 6fbb ad53 20be
00000090: 0169 e13c 7dcf 223c d319 d6bc bd05 08bc
000000a0: 9f02 b33b aa10 863c 8d06 2b3d 28e9 e0bc
000000b0: c70f febd ca01 3abc 3ab4 cb3b 41c7 7cbc
000000c0: e460 773c 37ac 3c3c eb4f 773c 0049 853c
000000d0: 19ee 4abd 1dfe e5bd 36fe 28bd f5cf 623c
000000e0: 7942 24bc 5241 df3c 0303 e13c 223d 363d
000000f0: 9d17 82bc 9318 93bd 1f44 25be e576 163c
00000100: f1cb f33c aab0 323d a23e 9f3d 86cd d43c
00000110: 11bf 7e3d 5a5d 473a d251 603c 6905 5bbd
00000120: c536 af3d b4f9 823d b820 733d 044c cd3c
00000130: 2a50 a53b 8e7f 213c 8f65 35bd 5a96 10bc
00000140: 8af6 39bc cbe3 423d d5d8 273d bb73 853c
00000150: 7508 60bc cbf0 4dbc 2664 133c 337e d9bc
00000160: 5bb5 173e 213d 23be 62d3 4b3c cce1 ef3b
00000170: 3ebb a03c 3d22 7abb 6e28 1e3c bc8e c5bb
00000180: f434 8abb 9de4 453b 09e8 5a3b dfcb 6c3d
00000190: 8430 a33c cf99 bd3c 456b 3abc d152 20bb
000001a0: 2a07 c03b 5a95 a83c 9d74 993d e190 c6bd
000001b0: 1dab 183c de54 d1bc 63c1 9e3a 52df c5ba
000001c0: ae11 b6bc 2ecc dabb 6dd0 4b3d 3a45 413d
000001d0: 99ec 8ebd 78c9 9b3c 9582 21bb 3457 e83b
000001e0: 611d 87bb 3933 c73c 23f1 a1bb c510 6b3c
000001f0: 7331 38ba e148 dbbd b702 873c 2ae1 81bc
00000200: a886 fd3b 59f4 8cbc 9608 ee3c 9772 8e3c
00000210: 4aa3 013c 57a6 63bd 80ea 9f3b 9aa8 213d
00000220: 18a6 973c 2f79 1c3d 6b44 243d 28d9 c03c
00000230: 3b35 c63c ca1d 4c3c dd10 8a3b 1e8a 87bd
00000240: 2a0d 583e c083 193e b22e 9c3d 8b25 023d
00000250: d19f e43c 24c7 acbd c06a 63bd f48b c2bd
00000260: cb12 41bc b99e b03d 3525 f73d 0299 0a3e
00000270: 1f48 1a3c b403 1bbd b264 bebd c628 06bc
00000280: ef84 37be 842f da3c 0540 f43d 010c 9f3d
00000290: 5dd8 a43d 42d6 f9bb 29c6 acbc 793f bfbc
000002a0: 9438 093e 7e37 94be 0ad6 023e 539e a2b9
000002b0: 55f5 383d 9a5a 963b 49a6 f9bc 4d72 0dbd
000002c0: d1fb 003d 1279 0d3e faee 49be 89de 8f3d
000002d0: 777c f83b ba87 46bd 8f7c 85bd 5002 97bc
000002e0: 7633 a1bd d002 3b3d b133 663d fd64 b0bc
000002f0: 9d6d 2fbd 9669 bf3c 8a02 90bd cf33 d8bd
00000300: 8812 d8bc e17e a2bd b445 0e3b 8015 343b
00000310: fb93 2abd 657f 23be 63c3 6e3c 5957 1b3d
00000320: daa2 6abd d5df 573d 64db ddbc 59f6 3b3a
00000330: 085b 7d3d 37ad febc 7688 30be c8f4 b43d
00000340: 8674 323d bd44 863d 83e4 d53c b0af 953d
00000350: 8c72 1ebc 1d63 43bc 6757 8b3d 610e efbd
00000360: 4399 c03d 4d85 0f3d bd51 9d3d 681e 93bc
00000370: 2e9e 8f3c 1264 b5bc 1862 b4bd ef99 7ebd
00000380: fdf8 e8bd 58fc 383e 22cb e5bb 9549 c1b6
00000390: a60b 9e3c 1208 e5bc 3a8a c83b cce7 2ebd
000003a0: dc64 d7bc 9927 0abe 5d12 bd3d 00bc 693d
000003b0: 547c bb3c ac70 8639 e647 6dbc 02e9 583d
000003c0: 988c 013e 8c0e 8fbd 9eae 18be 7ac7 213b
000003d0: 64cb 583c 08a1 683b 53da a43a 2a48 973c
000003e0: 8ae5 cb3c 040e 753d 90ea 663d 1fb1 4abc
000003f0: 99e9 0bbd 3835 8dbc 3d89 cfbc d7d0 8e3c

fc1.bias f4 [5]
0.03433847 0.009408351 0.00092059275 0.009504935 -0.01948767
00000000: 7fa6 0c3d 7c25 1a3c ef53 713a 96ba 1b3c
00000010: 9ba4 9fbc

fc2.weight f4 [2, 5]
-0.25650418 -0.15483467 -0.22202918 0.0936222 0.40590906 0.51021624 0.6583549 0.2791303
-0.68502057 -0.67189515
00000000: 8454 83be fb8c 1ebe 9e5b 63be ffbc bf3d
00000010: 50d3 cf3e 889d 023f f289 283f 2bea 8e3e
00000020: 825d 2fbf 5201 2cbf

fc2.bias f4 [2]
0.069762476 -0.34527442
00000000: a1df 8e3d cfc7 b0be
