5_train_and_test_model/4_2_Ablation Analysis/CNN-3D/model_3D/sb0/fold4.ckpt (torch, 31751 bytes, 6 tensors)

conv1.weight f4 [20, 1, 1, 3, 3]
0	0xbe48958c	-0.19588298
1	0x3b065e9a	0.0020503164
2	0xbdd69100	-0.10476875
3	0xbd61ca53	-0.055124592
4	0xbe3fdec4	-0.18737322
5	0xbea2c025	-0.3178722
6	0x3ebac945	0.3648168
7	0xbdf9311a	-0.121675685
8	0xbebfaf12	-0.37438256
9	0xbdcb8adf	-0.09938597
10	0xbf045b1e	-0.51701534
11	0xbe8f2e21	-0.2796488
12	0x3e8b649d	0.272252
13	0x3f26d782	0.6517259
14	0xbe32b2f7	-0.17451082
15	0x3df4db86	0.11955933
16	0xbeaf319b	-0.34217533
17	0x3da85486	0.082192466
18	0x3dc36ad2	0.09541859
19	0x3eff58d7	0.49872467
20	0x3e9e565a	0.30925256
21	0xbc0afaf8	-0.008482687
22	0x3f0497ee	0.51794326
23	0xbe68a2c9	-0.22718348
24	0xbd825420	-0.06363702
25	0xbf23fca6	-0.64057386
26	0x3e56b54d	0.20967598
27	0xbea339a0	-0.31879902
28	0xbece3ead	-0.40282193
29	0xbce83640	-0.02834618
30	0xbe9810d8	-0.2970035
31	0xbda3ab7d	-0.07991693
32	0xbf0cc612	-0.5498973
33	0x3ebce87f	0.3689613
34	0x3f2f3b7f	0.6845016
35	0x3f21d2b8	0.63212156
36	0xbc5bc096	-0.013412615
37	0xbd24fd95	-0.040280897
38	0x3f007d3b	0.50191087
39	0xbec25514	-0.37955534
40	0xbe84c079	-0.25928095
41	0x3e8febd3	0.28109607
42	0xbe3aacf5	-0.1823004
43	0xbe27ae26	-0.16375026
44	0xbf173f8c	-0.5908134
45	0x3e459ce7	0.19298135
46	0xbd87c683	-0.0662966
47	0x3d80243d	0.06256912
48	0xbe010bc0	-0.12602139
49	0xbf18abdc	-0.59637237
50	0xbf0fb32e	-0.5613278
51	0x3f16558a	0.5872427
52	0x3f42583e	0.75915897
53	0xbe9082a4	-0.2822467
54	0xbe397232	-0.18109968
55	0xbc9acd74	-0.018896796
56	0x3f38759e	0.7205447
57	0xbe2af807	-0.16696177
58	0xbeb53dc5	-0.3539869
59	0xbed171f5	-0.40907255
60	0x3dc375dc	0.09543964
61	0xbe5e666a	-0.21718755
62	0xbe72ec7a	-0.23723021
63	0xbd893163	-0.06698873
64	0xbe90f4f4	-0.28311884
65	0xbee6e4ee	-0.45096534
66	0xbe403b6b	-0.18772666
67	0x3ebf1623	0.37321576
68	0xbe52800d	-0.2055666
69	0xbe6c694f	-0.23087047
70	0x3cf3bd61	0.029753389
71	0xbe3eeadb	-0.18644278
72	0x3eae1365	0.33999172
73	0x3f1d0643	0.6133768
74	0xbf29d96e	-0.66347396
75	0xbdbe5876	-0.09294216
76	0xbf51ff77	-0.82030433
77	0x3f118f42	0.5685922
78	0xbeea81e9	-0.4580224
79	0x3ecb6d67	0.39731905
80	0x3ed510c5	0.41614357
81	0x3eae29b8	0.34016204
82	0x3eb63d83	0.35593805
83	0xbf4e1ee0	-0.8051586
84	0x3e956375	0.29177442
85	0x3ed20007	0.41015646
86	0xbe18e274	-0.14930135
87	0xbd8fb55c	-0.070170134
88	0x3d9628de	0.073320135
89	0xbe2be657	-0.16787086
90	0xbe29f317	-0.16596638
91	0xbe87ec98	-0.26547694
92	0xbed1a3f4	-0.409454
93	0x3e8ffb33	0.28121337
94	0x3f0e36ef	0.5555257
95	0x3f18ae79	0.59641224
96	0xbed45bf9	-0.4147642
97	0x3e0be874	0.13662893
98	0xbe9e3f34	-0.30907595
99	0xbe25b939	-0.16183938
100	0xbe6ea8f9	-0.23306645
101	0xbe8f9cff	-0.28049466
102	0x3dc10df8	0.094264925
103	0x3e9a5475	0.3014256
104	0xbf07ee49	-0.5309797
105	0x3cd68ce6	0.026190232
106	0x3dcd4c7c	0.10024354
107	0x3f3f55fb	0.7474057
108	0x3e722843	0.23648171
109	0x3f06ccc4	0.526562
110	0xbdce3f85	-0.10070709
111	0xbcfc7f60	-0.030822456
112	0xbf1fbc25	-0.6239646
113	0x3ea74b44	0.3267461
114	0xbe2a6095	-0.16638406
115	0x3e3d044b	0.18458669
116	0xbd9f46d1	-0.07777179
117	0x3e2b2375	0.16712745
118	0x3e2f5480	0.17122078
119	0x3eeea3e4	0.46609414
120	0x3ebac0da	0.3647526
121	0xbedf36ef	-0.43596599
122	0x3f04970d	0.51792985
123	0x3eab875b	0.33501706
124	0xbeb22014	-0.347901
125	0xbf5115ba	-0.8167378
126	0xbedbb612	-0.42912346
127	0x3f3b0986	0.73061407
128	0xbf321164	-0.69557786
129	0x3a2d3ecd	0.00066087843
130	0xbf406f50	-0.7516985
131	0x3f0809c8	0.53139925
132	0x3e226d81	0.15862085
133	0x3ebcd7ce	0.36883396
134	0x3e0282e3	0.12745242
135	0x3dc8ba8b	0.09801205
136	0x3efaea6f	0.49006984
137	0x3f000870	0.50012875
138	0x3e84303c	0.2581805
139	0xbf13a967	-0.5768036
140	0x3edd6354	0.43239844
141	0xbe8f73ec	-0.2801813
142	0x3c9dd04c	0.019264363
143	0xbf1f675d	-0.62267095
144	0x3e455dde	0.19274089
145	0xbe527303	-0.20551686
146	0xbf3f423d	-0.74710447
147	0x3e680918	0.22659719
148	0x3ee8d06c	0.45471513
149	0x3e8c1b11	0.273644
150	0x3e65837a	0.22413436
151	0xbe65701b	-0.22406046
152	0x3ebdb4b6	0.37051934
153	0xbde58202	-0.11206438
154	0xbed2da29	-0.41182068
155	0xbea346ed	-0.3189005
156	0x3f05ee52	0.5231677
157	0xbf2963bb	-0.661678
158	0xbf07af89	-0.5300222
159	0x3df6b632	0.1204647
160	0x3eb8ec77	0.36117908
161	0x3f45d6e5	0.7728103
162	0x3e61f016	0.22064242
163	0xbf4acbbe	-0.79217136
164	0xbf1dfc16	-0.6171278
165	0x3d735fc4	0.0594175
166	0x3f1ea3a0	0.6196842
167	0xbee8e510	-0.4548726
168	0x3eb86c3b	0.36020073
169	0x3ed55084	0.4166299
170	0xbd223e1c	-0.039610013
171	0xbe15f3b7	-0.14643751
172	0xbe73f612	-0.23824337
173	0xbe930f40	-0.28722572
174	0xbe82aaa6	-0.2552082
175	0xbc170c67	-0.009219266
176	0xbee7622f	-0.45192096
177	0x3f14b9ee	0.58096206
178	0xbec4cb8e	-0.3843655
179	0x3ef9e317	0.48806068

conv1.bias f4 [20]
0	0x3c9a5ad2	0.018842135
1	0x3da29d14	0.079401165
2	0xbdb15d4f	-0.08660375
3	0xbd367713	-0.04454715
4	0x3b5bde17	0.0033549124
5	0xbd48d8ec	-0.049034998
6	0xbe2c9684	-0.16854292
7	0xbd903d5c	-0.07042953
8	0xbd0fa020	-0.035064816
9	0x3c1f1bc7	0.0097112125
10	0xbca61fb3	-0.020278787
11	0xbd61879c	-0.055060968
12	0x3de2731a	0.1105711
13	0xbd0d9d1b	-0.034573656
14	0xbd65104c	-0.055923745
15	0x3c8b664b	0.01701655
16	0x3e3509eb	0.17679565
17	0xbd8c68c4	-0.0685592
18	0xbdd261f5	-0.1027259
19	0xbe24076b	-0.16018455

fc1.weight f4 [5, 1440]
0	0xbd2344b7	-0.039860453
1	0xbcf05dfd	-0.029341692
2	0xbd7a8d87	-0.061170127
3	0xbc882446	-0.016618859
4	0xbc1a0af0	-0.009402022
5	0x3c750252	0.0149541665
6	0xbc94378b	-0.018092891
7	0x3d17f141	0.037095312
8	0x3d83138c	0.06400213
9	0x3b5177f8	0.0031962376
10	0x3b4cfa75	0.0031277214
11	0x3cc08630	0.023501486
12	0x3c97992a	0.018505652
13	0xbc86ced8	-0.016456053
14	0xbc2522ca	-0.010079095
15	0xbd86ba1c	-0.06578466
16	0x3c1a7ad1	0.009428696
17	0xbe0ffa66	-0.14060363
18	0x3b924ee8	0.0044649728
19	0x3cdf1dfe	0.027235981
20	0x3c993286	0.01870085
21	0x3be1e0c6	0.00689325
22	0xbc907cdd	-0.017637664
23	0xbd10327f	-0.035204407
24	0xbd49d469	-0.049274836
25	0x3c8575bf	0.016291497
26	0xbd17b810	-0.03704077
27	0xbc2bf9f1	-0.010496602
28	0xbc05ad08	-0.00815893
29	0x3c8ad43f	0.01694691
30	0xbcede3ff	-0.029039381
31	0xbd087e51	-0.03332359
32	0xbd53d637	-0.051717963
33	0xbd93bf0f	-0.07214176
34	0x3cd2970f	0.025706796
35	0xbce46882	-0.027881864
36	0xbbe75f2b	-0.0070609055
37	0x3c825a8c	0.015912317
38	0xbc81734d	-0.01580205
39	0xbd0b3d30	-0.0339939
40	0xbcddfc5b	-0.027097872
41	0x3c634391	0.01387109
42	0x3c865c20	0.01640135
43	0x3d5049db	0.050851684
44	0x3de74db6	0.11294119
45	0xbc819016	-0.015815776
46	0xbc423109	-0.011852511
47	0x3ce1278a	0.027484674
48	0x3c009da0	0.007850081
49	0xbc7839f6	-0.015150538
50	0xbcb8dcdd	-0.022566253
51	0xba1712b6	-0.0005762981
52	0x3bc872bf	0.0061171944
53	0x3d85bb8c	0.06529912
54	0xbd2f908f	-0.04286247
55	0x3b9c21b4	0.00476476
56	0xbced2807	-0.02894975
57	0x3c0d155c	0.0086110495
58	0xbc5da090	-0.013527051
59	0x3add1935	0.0016868474
60	0xbc8c91ff	-0.01715946
61	0x3da843a5	0.08216027
62	0x3d1b4086	0.03790333
63	0xbc9a5f32	-0.01884422
64	0xbc9e3dd9	-0.0193166
65	0xbcc1f644	-0.023676999
66	0xbd13dd1c	-0.03609954
67	0xbdac3409	-0.084083624
68	0xbc0d8129	-0.008636751
69	0xbd1d72d4	-0.038439587
70	0xbd2aa4d1	-0.041661087
71	0x3b4ecdda	0.0031555803
72	0xbdd02cb2	-0.10164775
73	0xbdc0af75	-0.09408466
74	0xbc695965	-0.014242505
75	0x3cb1e407	0.021715177
76	0xbc88edc8	-0.016714945
77	0x3c4517f8	0.01202964
78	0x3db903aa	0.09033902
79	0x3cad7c2f	0.02117738
80	0x3d8af2a1	0.06784559
81	0xbd993792	-0.07481302
82	0xbd874c54	-0.06606355
83	0xbd071966	-0.032983206
84	0x3c9c7d91	0.019102843
85	0xbbcd6f0c	-0.0062693413
86	0xbb2b517f	-0.0026141105
87	0x3d901535	0.07035295
88	0x3d0cfbd0	0.034419835
89	0x3de8b52b	0.1136268
90	0xbd27fab9	-0.041010592
91	0xbd8b9aeb	-0.06816658
92	0xbb03f4f3	-0.0020135015
93	0xbaa94d6e	-0.0012916753
94	0xbb9a3a0b	-0.0047066263
95	0x3bfd834b	0.0077365986
96	0x3aaac2f1	0.0013028068
97	0xbdb0e499	-0.086373515
98	0x3e2df956	0.16989645
99	0x3c837580	0.01604724
100	0xbccefb88	-0.025266424
101	0x3c47434d	0.012162042
102	0x3cf2a3be	0.029619094
103	0xbb2fc445	-0.0026819867
104	0xbc006734	-0.007837106
105	0xbd25cfec	-0.040481493
106	0xbd8e24e4	-0.0694063
107	0x3da29c12	0.07939924
108	0x3cc6ecc6	0.024282824
109	0x3c3c1a61	0.011480899
110	0xbcd2a3f0	-0.025712937
111	0x3b299c3b	0.0025880474
112	0xbc841b17	-0.016126199
113	0xbd4e5c81	-0.050381187
114	0xbd4cbf7e	-0.04998731
115	0x3c27461e	0.010209588
116	0x3d47776c	0.048697874
117	0x3cfc4fac	0.03079971
118	0x3cb5b9dd	0.022183353
119	0xbcca1b9d	-0.02467137
120	0xbbff8bd6	-0.007798652
121	0x3c927e29	0.017882423
122	0xbb33aea7	-0.0027417333
123	0xbd14a65f	-0.036291476
124	0x3c22f233	0.00994544
125	0x3d669cd4	0.056301907
126	0x3d92e8fe	0.07173346
127	0xbb377122	-0.0027991016
128	0xbc92c683	-0.017916923
129	0xbcba1be2	-0.022718374
130	0xbc1ae8e1	-0.009454937
131	0xbce89f68	-0.028396323
132	0x3bdff872	0.006835037
133	0x3c7964e6	0.01522181
134	0x3e080010	0.13281274
135	0xbd10e7a5	-0.035377163
136	0xbc9768ec	-0.018482648
137	0xbb590874	-0.003311661
138	0xbca0a2dd	-0.01960891
139	0xbd1e7d91	-0.03869397
140	0xbd2f7ea8	-0.0428454
141	0x3c7a2444	0.015267435
142	0x3d3d171f	0.046164628
143	0x3d3dfcbf	0.046383616
144	0xbebba14a	-0.3664649
145	0xbe6ce43f	-0.23133944
146	0xbdf3a663	-0.1189697
147	0xbd98fd2f	-0.07470166
148	0x3ce58bac	0.028020702
149	0x3d587de9	0.052854452
150	0x3dd5e365	0.10443763
151	0x3b66a415	0.0035193015
152	0x3dfbc761	0.12293888
153	0xbe84a75b	-0.25908932
154	0xbe818095	-0.25293413
155	0x3ca0811e	0.019592818
156	0x3d3afb84	0.04565002
157	0xbcf961d9	-0.030442165
158	0x3e07bddc	0.1325602
159	0x3e0fa26d	0.14026804
160	0xbe358953	-0.17728166
161	0x3e86af1e	0.2630548
162	0xbd34e86b	-0.044166964
163	0xbd50dcde	-0.050991885
164	0x3ca7adce	0.020468619
165	0x3d6bd301	0.057574276
166	0x3cf8e1d1	0.030381115
167	0x3ca57042	0.02019513
168	0x3d6a3444	0.05717875
169	0xbb84e904	-0.004056098
170	0x3d585bd9	0.052821968
171	0xbcfdd683	-0.030986076
172	0xbc14df22	-0.009086402
173	0x3d8293e1	0.06375862
174	0x3d9e6fd7	0.077361755
175	0x3d62926d	0.055315424
176	0xbd17fc82	-0.037106045
177	0xbe28c4be	-0.16481301
178	0x3d9fdc5d	0.07805703
179	0x3e2bc4ee	0.16774341
180	0x3d248b80	0.0401721
181	0x3d15bf8e	0.036559634
182	0x3d5d9a63	0.054102313
183	0x3da56b8c	0.080771536
184	0xbd0ab302	-0.03386212
185	0xbd3fadba	-0.046796538
186	0xbde4c2f4	-0.11169997
187	0x3cecaacc	0.028890036
188	0x3e1eded9	0.15514697
189	0xbcd89f1a	-0.026443053
190	0x3d15bcb8	0.03655693
191	0x3d83f2ed	0.06442819
192	0x3b41cc1f	0.0029571129
193	0xbd66a99f	-0.056314107
194	0xbaf79843	-0.0018889982
195	0x3c5451ab	0.012958924
196	0x3d585cb6	0.05282279
197	0x3dce8361	0.10083652
198	0x3c6b16e5	0.01434872
199	0xbb06d802	-0.0020575528
200	0xbcc22d4b	-0.023703238
201	0xb7d000bf	-2.479588e-05
202	0xbd1c54a1	-0.038166646
203	0x3c5df81e	0.013547925
204	0x3d29dd46	0.04147079
205	0x3c48bee6	0.012252545
206	0x3d1c1a21	0.038110856
207	0xbd5ee91f	-0.05442154
208	0xbd861528	-0.06547004
209	0xbd7993a2	-0.06093181
210	0xbd82a3b5	-0.06378881
211	0xbdb95f70	-0.090514064
212	0x3bbfeb23	0.005856888
213	0xbce8cac9	-0.028417008
214	0x3e341f31	0.17590024
215	0x3db2e96b	0.08735927
216	0xbce8f8df	-0.028438983
217	0xbda0f1f0	-0.07858646
218	0xbd0e949a	-0.034809686
219	0xbce9682c	-0.028492056
220	0x3c5b8227	0.01339773
221	0x3d1a6fe0	0.03770435
222	0x3d23e3ac	0.040012047
223	0x3df9692a	0.121782616
224	0x3d10cad4	0.035349682
225	0xbe3cb543	-0.18428521
226	0xbe23cdcb	-0.15996473
227	0xbd5eac04	-0.054363266
228	0xbc1d8aed	-0.009615642
229	0xba89e81d	-0.0010521446
230	0xbd221fdb	-0.03958116
231	0xbd9df708	-0.07713133
232	0x3e1de1e1	0.15418197
233	0x3e6fc19c	0.234137
234	0xbc116a7d	-0.008875486
235	0xb9622ec3	-0.0002157046
236	0x3c6a29a3	0.0142921535
237	0xbcc7cd7f	-0.02438998
238	0xbca64b05	-0.020299444
239	0xbc0ff8f7	-0.008787385
240	0xbd72d8f3	-0.05928893
241	0x3d298d5f	0.041394588
242	0x3d745adf	0.059656974
243	0xbd2a268f	-0.04154068
244	0x3c02a861	0.007974715
245	0x3c24f2e1	0.0100676725
246	0x3ba330e0	0.0049801916
247	0x3cae5ba9	0.021283941
248	0x3b30dd8f	0.0026987528
249	0xbbd697a8	-0.0065488406
250	0xbc7389e8	-0.014864422
251	0x3e24876d	0.16067286
252	0x3cbfed78	0.023428664
253	0x3c8b92fe	0.017037865
254	0x3cc23751	0.023708018
255	0x3cf7bcbb	0.03024136

fc1.bias f4 [5]
0	0x3c1ac350	0.00944598
1	0x3c896078	0.016769633
2	0x3c79d250	0.015247896
3	0x3ae384bc	0.0017358284
4	0x3ca99247	0.020699633

fc2.weight f4 [2, 5]
0	0x3dd9a5f5	0.10627357
1	0xbf0b6aef	-0.5446004
2	0x3f1fe13c	0.62453055
3	0xbef55dfc	-0.47923267
4	0xbedb09f9	-0.42781046
5	0xbf2b684a	-0.6695601
6	0x3f112f55	0.5671285
7	0xbe61ab2c	-0.22037953
8	0x3eab0b09	0.33406857
9	0x3ef5ede2	0.48033053

fc2.bias f4 [2]
0	0xbdea2609	-0.11433036
1	0xbe95d8a2	-0.2926684
