5_train_and_test_model/4_2_Ablation Analysis/CNN-3D/model_3D/sb0/fold1.ckpt (torch, 31751 bytes, 6 tensors)

conv1.weight f4 [20, 1, 1, 3, 3]
-0.3531641 -0.032842953 0.12619235 -0.28297204 0.12836404 0.22283886 0.27425826 -0.19908704
0.078645006 -0.34683743 0.34730172 -0.0021156727 -0.22715844 -0.059575286 -0.28399995 0.020155132
-0.13591763 -0.13518374 0.21450995 -0.18263844 0.09369996 0.1575787 0.29934263 0.23612015
0.2521868 -0.13776281 0.15095241 0.01891109 0.19715667 0.22792916 0.31361127 0.1810311
0.2994344 -0.17041668 0.0439894 -0.016290959 -0.17805204 -0.046592362 0.23203778 -0.19900268
0.34790838 0.0063273353 -0.011292421 0.030115074 -0.17263505 -0.07596084 -0.17287822 -0.16323552
0.123952456 0.021248085 -0.32853413 -0.096687235 0.09164787 -0.17797112 0.0917202 0.17574598
0.050733093 0.32063463 0.26370198 -0.10228704 -0.19801652 0.22675344 0.31805912 -0.35783622
0.08379981 0.06733251 -0.26738435 0.07066162 -0.32893464 -0.33319977 -0.033983048 0.14451566
0.3620224 -0.087650366 0.15280668 -0.3044767 0.1237556 -0.28786725 -0.33019102 0.034647465
-0.17792553 0.28909984 0.13990329 0.24831863 0.10466181 -0.3420608 -0.2389025 0.2739466
-0.33672887 -0.09861908 0.2599123 -0.03159231 0.2830242 -0.31414542 -0.13441518 0.13573432
0.29402936 0.2888732 0.2718942 0.06950652 -0.193794 -0.1737294 -0.060112365 0.09604999
-0.04189431 0.12323239 0.19759127 -0.14933608 0.23773204 -0.2569257 -0.28188276 -0.35382247
0.17127348 -0.2417198 -0.17395426 -0.16171551 -0.07243391 -0.09784093 0.28654423 -0.19034788
-0.25009537 -0.1629706 -0.16938391 0.19987223 0.14361627 0.21811481 0.21942893 -0.10625498
0.16311522 -0.12906326 -0.2692812 -0.20919465 -0.071944356 0.109408595 -0.09806354 0.2903485
0.16240454 0.10185137 0.2387781 -0.14685395 -0.11479746 0.36035556 -0.18558688 -0.10282317
0.111506544 -0.3648149 -0.126801 0.10270976 0.108530134 0.16114864 -0.18250045 -0.31557852
-0.0019653065 0.12544337 0.2318266 0.26698595 -0.07174423 0.1775494 0.12495058 -0.27841318
-0.13101977 -0.031057462 0.22304437 0.02415906 0.1718584 0.33838445 -0.010002484 0.25814617
0.15055469 0.2849083 0.091147326 0.28808677 -0.30982918 -0.15808655 -0.022946492 0.14416811
-0.29722843 -0.34571102 -0.21050243 -0.069760755
00000000: edd1 b4be 5586 06bd 9138 013e b6e1 90be
00000010: dd71 033e df2f 643e 946b 8c3e 79dd 4bbe
00000020: a210 a13d ad94 b1be 88d1 b13e 19a7 0abb
00000030: 399c 68be 3705 74bd 7168 91be 601c a53c
00000040: fe2d 0bbe 9b6d 0abe 7fa8 5b3e 9205 3bbe
00000050: c4e5 bf3d 505c 213e 7043 993e 7bc9 713e
00000060: a11e 813e b211 0dbe 4593 1a3e 6eeb 9a3c
00000070: 70e3 493e 4366 693e a891 a03e 3760 393e
00000080: 774f 993e b681 2ebe 3b2e 343d 9e74 85bc
00000090: 4653 36be a2d7 3ebd 509b 6d3e 5cc7 4bbe
000000a0: 0c21 b23e 8955 cf3b d903 39bc e3b3 f63c
000000b0: 3ec7 30be 5b91 9bbd fd06 31be 3627 27be
000000c0: c9da fd3d 7710 ae3c a035 a8be f503 c6bd
000000d0: e1b1 bb3d 103e 36be cdd7 bb3d c1f6 333e
000000e0: 81cd 4f3d 392a a43e f203 873e de7b d1bd
000000f0: d8c4 4abe 0e32 683e a5d8 a23e 4f36 b7be
00000100: 3c9f ab3d a1e5 893d 9ae6 88be 0ab7 903d
00000110: 1f6a a8be 2999 aabe cf31 0bbd eafb 133e
00000120: 005b b93e 0982 b3bd 5b79 1c3e 5fe4 9bbe
00000130: 9373 fd3d 5663 93be cc0e a9be 80ea 0d3d
00000140: 1c32 36be e504 943e cf42 0f3e 3d47 7e3e
00000150: ee58 d63d 9822 afbe dba2 74be bb42 8c3e
00000160: ba67 acbe cdf8 c9bd 3a13 853e f066 01bd
00000170: 8ce8 903e abd7 a0be 22a4 09be f0fd 0a3e
00000180: 048b 963e 30e7 933e b735 8b3e 6f59 8e3d
00000190: ef71 46be 1fe6 31be 6238 76bd dbb5 c43d
000001a0: 5e99 2bbd 4361 fc3d 5e55 4a3e 8feb 18be
000001b0: 0770 733e c48b 83be f052 90be 3828 b5be
000001c0: 5162 2f3e 6585 77be 1121 32be c098 25be
000001d0: 3b58 94bd d360 c8bd edb5 923e 8eea 42be
000001e0: 800c 80be c4e1 26be fa72 2dbe 4eab 4c3e
000001f0: 2510 133e 7d59 5f3e fab1 603e 369c d9bd
00000200: ad07 273e 2929 04be 3adf 89be 1f37 56be
00000210: 9057 93bd 9d11 e03d 8ad5 c8bd 8fa8 943e
00000220: 604d 263e 7397 d03d 3f82 743e e260 16be
00000230: ee1a ebbd 8680 b83e 7d0a 3ebe f494 d2bd
00000240: 8b5d e43d 05c9 babe 1fd8 01be 7f59 d23d
00000250: 0c45 de3d 2604 253e 66e1 3abe 8293 a1be
00000260: 5fcc 00bb 3a74 003e f463 6d3e 62b2 883e
00000270: a4ee 92bd 83cf 353e 17e6 ff3d 2c8c 8ebe
00000280: 0c2a 06be 386c febc be65 643e 39e9 c53c
00000290: a6fb 2f3e ba40 ad3e 75e1 23bc bc2b 843e
000002a0: 022b 1a3e 80df 913e 73ab ba3d 1c80 933e
000002b0: eea1 9ebe 71e1 21be 48fa bbbc cea0 133e
000002c0: 532e 98be 0901 b1be f38d 57be bade 8ebd

conv1.bias f4 [20]
-0.08334327 0.29916096 -0.013408833 0.17831519 -0.12532067 0.22395046 0.27590346 0.103167176
0.13605449 -0.06597979 0.18586975 0.05969667 0.078698054 -0.06001787 0.06010337 0.10940315
-0.17315963 0.25464958 0.034074724 0.33700144
00000000: e0af aabd a02b 993e b9b0 5bbc 4298 363e
00000010: 1054 00be 4553 653e 3843 8d3e 5049 d33d
00000020: de51 0b3e 6a20 87bd a454 3e3e 7f84 743d
00000030: 722c a13d 4cd5 75bd f42e 763d c20e e03d
00000040: c250 31be 6e61 823e f091 0b3d 748b ac3e

fc1.weight f4 [5, 1440]
-0.03812587 -0.0015341731 -0.013818513 -0.01394713 -0.03148856 0.005225634 -0.027580174 -0.021140616
-0.025165698 -0.010704628 -0.027985994 -0.0038068132 -0.035870828 -0.009705071 -0.023781477 -0.034429394
-0.00636757 -0.0042093545 -0.032163072 0.0013088668 -0.029937139 -0.012611709 0.0017548632 0.008574291
-0.038429018 -0.0065709157 0.0059641814 -0.011724382 -0.023273382 -0.03631511 2.285984e-05 -0.008976847
-0.012044303 -0.013862707 -0.0033192595 -0.01599361 -0.036801267 -0.033523276 -0.022893967 -0.025897363
-0.03893201 -0.040571295 -0.0069174976 -0.013956789 -0.01540302 -0.023809439 -0.04109778 -0.027676785
-0.007121914 -0.035983957 -0.019351704 -0.015163869 0.006488233 -0.007173625 -0.030274006 -0.032619577
0.0055539976 0.0049231537 0.009426682 -0.0022206048 -0.010274684 -0.026332108 0.007969748 0.011178621
-0.0018749662 -0.02527205 0.0069822427 -0.037291907 0.0011210595 -0.010069769 -0.015412577 0.1151899
-0.0018342872 -0.0405722 -0.039519433 -0.0018838493 -0.029340819 -0.017300757 -0.009426423 -0.016148439
-0.010905735 -0.045693085 0.0047667474 -0.018288935 -0.016918922 0.003186166 -0.007916829 -0.030403277
-0.021611871 -0.017889317 -0.044271547 -0.021553298 -0.0039276164 -0.01922946 -0.001893107 -0.031474806
-0.033643205 -0.0283945 -0.031403318 -0.038275883 -0.034064736 -0.031695656 -0.020549022 -0.01527373
-0.029100923 -0.019722296 -0.032524753 -0.039936114 -0.001311577 -0.009333222 -0.019566832 -0.03284859
-0.042670425 -0.031043071 -0.010363187 -0.013213357 -0.004100973 -0.03470285 -0.032744672 -0.031602405
-0.0035340309 0.0003010844 -0.030733619 0.007694188 -0.021140741 -0.02739731 0.006742036 -0.03668852
-0.015881725 -0.027955167 -0.03692274 -0.017420735 0.0024527567 -0.0427997 -0.036768585 -0.025286669
-0.01570166 9.636758e-05 0.0071428954 -0.04376612 -0.0034122514 -0.0128690265 -0.021877982 -0.0069966447
-0.04593283 -0.03427672 -0.042701256 -0.02292448 -0.042119212 -0.007415388 -0.025820445 -0.025814576
0.003377837 -0.037645902 0.0017217161 -0.022568103 -0.008795887 -0.024801899 -0.043416884 -0.02793473
-0.0025862828 -0.03725394 0.0044745468 -0.010175316 -0.027429689 -0.016940173 -0.01080983 -0.023070958
-0.026405841 -0.004010038 -0.0062972237 -0.04217352 -0.03634871 -0.020194888 -0.029062962 -0.023083914
-0.04170371 0.0032457688 -0.03293375 -0.03734239 -0.018670669 -0.03772261 -0.036906954 0.004143796
-0.020179724 -0.022000961 -0.0258064 -0.017184865 -0.039036855 -0.014015347 -0.010462192 -0.004793061
-0.011629226 -0.0284405 -0.008837968 -0.03072529 -0.017434595 -0.034654237 -0.018170038 -0.042230062
-0.029297177 0.006280491 -0.012681176 -0.032840416 -0.016732145 -0.01584128 -0.042001978 -0.018663038
-0.04041647 7.9280595e-05 0.0029440096 -0.01713496 -0.033520944 0.0024816368 -0.028270276 -0.011258097
-0.009130344 -0.03859032 -0.039852645 0.002795749 -0.017068803 -0.021640752 -0.040455047 -0.008060119
-0.009082506 -0.0018501291 -0.008107219 -0.010279423 -0.019458277 -0.0017422108 0.008718483 -0.004238609
-0.016862014 -0.030629385 -0.030066729 0.008656673 -0.022389805 0.005563771 -0.015429773 -0.026894566
0.0031777073 -0.033528164 -0.0016904167 -0.0062977695 0.0039307 0.0048607923 -0.005867542 -0.029593712
-0.035577 -0.0052119945 -0.0017473117 -0.0133754425 -0.019871267 -0.009503226 0.008771183 -0.028057473
00000000: df29 1cbd 4f16 c9ba 0b67 62bc 8182 64bc
00000010: 26fa 00bd cc3b ab3b d1ef e1bc 162f adbc
00000020: 4b28 cebc 7762 2fbc e242 e5bc ba7b 79bb
00000030: 4aed 12bd 0502 1fbc 5fd1 c2bc d605 0dbd
00000040: 0ca7 d0bb a0ee 89bb 6dbd 03bd 488e ab3a
00000050: bb3e f5bc 57a1 4ebc 7003 e63a 2f7b 0c3c
00000060: bf67 1dbd d650 d7bb 2e6f c33b 9f17 40bc
00000070: d2a7 bebc 27bf 14bd 22c3 bf37 a013 13bc
00000080: 7855 45bc 6820 63bc ef87 59bb 0805 83bc
00000090: edbc 16bd b44f 09bd 218c bbbc b526 d4bc
000000a0: 2c77 1fbd 162e 26bd 2dac e2bb 04ab 64bc
000000b0: f35c 7cbc 030c c3bc 2556 28bd 6dba e2bc
000000c0: f25e e9bb ea63 13bd 7787 9ebc e071 78bc
000000d0: 3e9b d43b ba10 ebbb 3101 f8bc 1b9c 05bd
000000e0: 4ffe b53b 6852 a13b 5f72 1a3c 9187 11bb
000000f0: 2657 28bc 6fb6 d7bc 8c93 023c 8926 373c
00000100: 6dc1 f5ba 5507 cfbc 4ccb e43b 66bf 18bd
00000110: 84f0 923a acfb 24bc 0985 7cbc afe8 eb3d
00000120: 776c f0ba 092f 26bd 21df 21bd 7eeb f6ba
00000130: 285c f0bc 51ba 8dbc 4971 1abc bb49 84bc
00000140: f8ad 32bc ac28 3bbd 6032 9c3b add2 95bc
00000150: 8d99 8abc ffce 503b 96b5 01bc 4b10 f9bc
00000160: 610b b1bc 9e8c 92bc 1556 35bd 8b90 b0bc
00000170: 3cb3 80bb 1a87 9dbc 2122 f8ba baeb 00bd
00000180: 75cd 09bd 959b e8bc c4a0 00bd 2cc7 1cbd
00000190: 7787 0bbd 4ed3 01bd 6c56 a8bc ab3e 7abc
000001a0: 0f65 eebc a790 a1bc ad38 05bd 0d94 23bd
000001b0: 39e9 abba 5fea 18bc 9f4a a0bc 3e8c 06bd
000001c0: 2fc7 2ebd 0a4e febc 5bca 29bc d67c 58bc
000001d0: 7461 86bb 9324 0ebd 471f 06bd 8671 01bd
000001e0: 339b 67bb ddda 9d39 12c5 fbbc 871f fc3b
000001f0: 592f adbc 5370 e0bc 4cec dc3b b446 16bd
00000200: 641a 82bc 3c02 e5bc 4d3c 17bd eeb5 8ebc
00000210: 6ebe 203b bd4e 2fbd a89a 16bd fd25 cfbc
00000220: c5a0 80bc f318 ca38 f30e ea3b 1a44 33bd
00000230: 14a0 5fbb 9cd8 52bc 7439 b3bc 1c44 e5bb
00000240: 1024 3cbd bf65 0cbd 83e7 2ebd 1ecc bbbc
00000250: 3285 2cbd c8fc f2bb 6685 d3bc 1779 d3bc
00000260: b35e 5d3b 9732 1abd 35ab e13a bee0 b8bc
00000270: a01c 10bc 5a2d cbbc e7d5 31bd 60d7 e4bc
00000280: a07e 29bb 9697 18bd 389f 923b 5eb6 26bc
00000290: 3ab4 e0bc 1ec6 8abc b71b 31bc 4eff bcbc
000002a0: 1051 d8bc a366 83bb f158 cebb 24be 2cbd
000002b0: 63e2 14bd c06f a5bc 7315 eebc 7a1a bdbc
000002c0: 82d1 2abd f7b6 543b 8ae5 06bd 55f4 18bd
000002d0: 3bf3 98bc 0683 1abd bf2b 17bd aec8 873b
000002e0: f34f a5bc 5c3b b4bc f267 d3bc 46c7 8cbc
000002f0: 1ce5 1fbd a0a0 65bc 9d69 2bbc 1c0f 9dbb
00000300: 8288 3ebc 0dfc e8bc 20cd 10bc 9ab3 fbbc
00000310: ffd2 8ebc 9af1 0dbd 55d9 94bc 6ef9 2cbd
00000320: a200 f0bc 94cc cd3b b5c4 4fbc ac83 06bd
00000330: da11 89bc 92c5 81bc 440a 2cbd 3ae3 98bc
00000340: be8b 25bd 7243 a638 49f0 403b 9e5e 8cbc
00000350: 424d 09bd f5a2 223b 1197 e7bc e273 38bc
00000360: 7097 15bc e210 1ebd 873c 23bd e338 373b
00000370: e0d3 8bbc f247 b1bc 31b4 25bd 970e 04bc
00000380: cbce 14bc 0880 f2ba 24d4 04bc 066b 28bc
00000390: f766 9fbc e55a e4ba f8d7 0e3c 08e4 8abb
000003a0: 3522 8abc 7aea fabc 804e f6bc b8d4 0d3c
000003b0: d36a b7bc 4b50 b63b 29cd 7cbc fe51 dcbc
000003c0: 1541 503b d454 09bd f990 ddba 855d cebb
000003d0: 1acd 803b 4847 9f3b 8244 c0bb 836e f2bc
000003e0: 30b9 11bd 61c9 aabb 0d06 e5ba ac24 5bbc
000003f0: 11c9 a2bc 6bb3 1bbc 02b5 0f3c c9d8 e5bc

fc1.bias f4 [5]
-0.0076619736 -0.0049832817 -0.021486638 -0.0038126244 -0.008402241
00000000: 4b11 fbbb cc4a a3bb bf04 b0bc 39dd 79bb
00000010: 8ea9 09bc

fc2.weight f4 [2, 5]
0.024705198 0.42759416 0.10363428 -0.00279285 0.4269041 -0.32806283 0.0103705935 -0.103347324
-0.39117587 -0.39533016
00000000: 8e62 ca3c 9fed da3e 363e d43d 3f08 37bb
00000010: 2d93 da3e daf7 a7be 6ce9 293c c3a7 d3bd
00000020: 3448 c8be b768 cabe

fc2.bias f4 [2]
-0.20200947 -0.22283874
00000000: 92db 4ebe d72f 64be
